Assets/Models/Baselines/Volleyball.onnx (onnx, 291545 bytes, 15 tensors)

92 f4 [11]
00000000: 1eb6 773e 4f24 7a3e 302f ad3e 540b d73e
00000010: a5a4 a740 2c63 4440 ee4a 2441 8b85 8740
00000020: 9501 0841 52cd c840 46ca 3d40
0.24190566 0.24427913 0.33825064 0.4200083 5.238848 3.068553 10.268293 4.2350516
8.500386 6.2750635 2.9654708

action_model._discrete_distribution.branches.0.bias f4 [3]
00000000: 0245 213d 228c 273d ec5c ccbd
0.03937245 0.040905125 -0.09978661

action_model._discrete_distribution.branches.0.weight f4 [3, 256]
00000000: cbf0 22be a00c ffbd f0cb c9bc 210c bfbc
00000010: ceeb bdbc 5f71 663d 0878 da3d 2651 7b3c
00000020: 91d3 1ebd b73a 2b3d 1de5 c5bc a652 203d
00000030: 7753 54bd 3c48 bbbc 6095 1ebd 00a1 863d
00000040: 2682 843d 70c4 f3bc 3f16 89bc 308d f2bb
00000050: 12db 70bc 31c6 93bd b82f 313c c39a 293d
00000060: bd4c fabc 2c5e 24bd b964 28bd 9f51 453c
00000070: a3d4 05bd 48a1 043e 1dfe b2bc 55e2 d2bc
00000080: 13ac 883a 5432 3b3a b0d3 963d 0224 26bd
00000090: b25a 0cbc b33f 753d 4fa2 edbb c9bc 46bc
000000a0: 65e8 03be 2771 85bd c17d eeba 6559 2839
000000b0: f2bb d3bc bf4e 39bd 8569 7dbc 538a 58bc
000000c0: 6f67 ec3c fed2 b7bd f889 61bd dc48 8f3b
000000d0: 9b84 2f3c cf15 323c 3846 45bd 799a e13c
000000e0: 2861 1dbd 2a93 733c c6a2 883d c090 1abc
000000f0: be67 0cbd 86db d4bc acb7 253d 8242 36bd
00000100: ca11 2c3d b45d 2f3c 4f21 093e 74a5 333d
00000110: 952e 023d ecbb debd 7fc3 83bb 8f45 0dbd
00000120: f8fb 5ebd dbf6 a53d 762c 453d fe80 4dbc
00000130: b6b2 cbbb 88a3 313c a7a1 a73c 49fc b6bb
00000140: 48ab 883b b59b 3e3d 7a45 33bc 156e 38bd
00000150: 3df2 8d3c bd1e a53d 722a b53d 26d0 6bbc
00000160: c35f 83ba cc01 bb3c de78 35bd a1b9 fd3c
00000170: 8188 5c3c a7bd 923d 6f0f 20bd 9fd1 c6bd
00000180: 04f9 d8bd 55ec 3f3c 7421 683d f314 0abb
00000190: ea1d 3a3c 6dc5 8e3d 09e4 583d 866a 02be
000001a0: 2f0e a5bb 93c3 043d c07c 13bc 6234 28bd
000001b0: 7a62 29bd 2300 d33c 5a4d 81bc b429 e2bc
000001c0: 8df0 81bb 5909 303c c6ac b73d b09d 68bd
000001d0: a01f 823c 0211 febc f773 b3bc 7c73 95ba
000001e0: bcc4 86bd 1c5a ca3d 9ead a339 4258 96bd
000001f0: fd30 04bc 1557 0abb e864 0b3d 3415 463c
00000200: d429 6fbc b429 b53d f3ff b23d c3da 55bd
00000210: 034b 3b3c cb05 263d 225c b53c 03c4 dc3c
00000220: d8cd 3ebd 0462 0fbd bcd3 313d bb32 5ebd
00000230: 5578 e33d 5e35 adbd e92e 84bc 00da a03d
00000240: 5e4e ddbc 03bd 3c3d 63e9 323d 26d5 a93c
00000250: ea75 8a3c f178 0f39 22e2 26bb fb3f 6a3c
00000260: fa02 b7bb 0ab4 26bd 2db0 383d c9db 7dbc
00000270: f361 463d bdd0 243d 0c5f 7d3d c300 7a3c
00000280: 217c abbd 0a44 383d a8d3 e2bd 29fb e6bd
00000290: cc51 92bd 3000 11bd 8f7e d3bb 729c 6a3d
000002a0: 9bf6 5b3d 25de 2a3d 10ab e8bc e7b9 a1bc
000002b0: 77ce 92bd 6cf9 b9bd c243 bbbc 319b 503a
000002c0: eb03 44bd c7ae b03d 5389 d9bd 9ea9 e0bc
000002d0: 136c 123d 264a fe3c 80ce 973d ebc1 87bc
000002e0: 635a b63d 7f33 1a3d 2cb3 4cbc 2896 a83d
000002f0: 6c20 613c 7706 2d3d 949a 4f3c 8ac3 1a3d
00000300: c119 2b3b 0b88 bdbc 5f3a 62bc bafe 103d
00000310: 08e6 f5bc c400 5abc 136d 0c3d f121 70bd
00000320: 5b4d 44be 049c 92bd 0faa 8e3d 2ef7 ad3c
00000330: c924 d0bc b05a 1b3d 0b20 2fbe f75a 313d
00000340: a789 c7bd 354b e93b 8616 50bc 802f c63c
00000350: b014 193c 5258 fbbb 5eea 5fbb c4bf 78bd
00000360: f023 93bd 52dd 7f3c 5245 b7bb 4594 6dbc
00000370: 2085 f2bd 020d 233d 6099 4cbd 0dc8 d3bb
00000380: 00f1 5e3d 45b8 74bd 1e58 2fbe 3195 8a3b
00000390: 2f3e 833c 56b0 813d 3443 433e 1526 5f3c
000003a0: 7076 843d 973f 47bc ff33 253b deea 96bd
000003b0: e73e 263c 356e cd3c bef2 803d 9451 3abb
000003c0: fc7c 863d 1e37 aa3c 12f7 293c 4c56 1b3d
000003d0: 3556 f13c cf94 20bd 80b2 c33b 4393 8cbd
000003e0: 510b 673d c46a a8bc 6a47 cf3c 3bed 673d
000003f0: 5730 c4bd 8a8a 3f3d e88c 713d 81ff 873c
-0.15912168 -0.1245358 -0.024633378 -0.023321213 -0.02318373 0.056260463 0.106674254 0.0153391715
-0.038775984 0.04180404 -0.024157101 0.03914132 -0.05183741 -0.022861592 -0.038716674 0.06573677
0.06470136 -0.029756755 -0.01673424 -0.007402085 -0.014700668 -0.072155364 0.0108146 0.041407358
-0.03055417 -0.04012887 -0.04111168 0.012043386 -0.03267349 0.12952149 -0.021849686 -0.02574269
0.0010427259 0.00071409834 0.07364595 -0.040561683 -0.008566545 0.0598752 -0.0072520147 -0.012129971
-0.1288162 -0.06515723 -0.0018195437 0.0001605503 -0.025846455 -0.045241114 -0.015467052 -0.013216573
0.028857915 -0.089757904 -0.055063218 0.004372699 0.010712768 0.010869457 -0.04816267 0.027539479
-0.038422734 0.01486663 0.066716716 -0.009433925 -0.034278624 -0.025983583 0.040458366 -0.04449702
0.042009152 0.010703493 0.13391612 0.04385896 0.031782705 -0.10875687 -0.0040211077 -0.034490164
-0.054439515 0.081037246 0.048138104 -0.012542961 -0.0062163724 0.010842212 0.020462824 -0.005584274
0.004170809 0.046535213 -0.0109418575 -0.045026857 0.017327422 0.080625035 0.088459864 -0.014392888
-0.0010023046 0.022828005 -0.04430472 0.030972304 0.013460279 0.071650796 -0.03907722 -0.09707951
-0.10594371 0.011714061 0.05667253 -0.0021069616 0.011359671 0.0697125 0.052951846 -0.12735948
-0.005037091 0.032413077 -0.009001911 -0.04106558 -0.04135368 0.025756901 -0.015783954 -0.027607776
-0.0039654435 0.010744416 0.08968501 -0.056791008 0.01588422 -0.03101397 -0.021905882 -0.0011402215
-0.06580493 0.09880468 0.00031219138 -0.073410526 -0.00806832 -0.0021109034 0.03403178 0.012090016
-0.014597375 0.08845845 0.08740225 -0.05221058 0.011431458 0.04053287 0.022138659 0.026948934
-0.046583027 -0.035005584 0.043414816 -0.0542476 0.11106936 -0.084574446 -0.01613565 0.0785408
-0.027014907 0.046078693 0.043679606 0.02073152 0.016901929 0.00013682597 -0.0025464376 0.014297481
-0.0055850716 -0.040699042 0.04508989 -0.015494295 0.048433255 0.04023813 0.061858222 0.015258971
-0.08373285 0.044986762 -0.110755265 -0.11278374 -0.07144508 -0.03540057 -0.006454296 0.057278104
0.05370198 0.04171576 -0.028401881 -0.019741965 -0.07168286 -0.090807766 -0.022859458 0.00079576956
-0.0478553 0.08627086 -0.10621896 -0.02742463 0.0357476 0.031041216 0.074124336 -0.01657196
0.08903959 0.037646767 -0.01249389 0.08231765 0.01374064 0.042242493 0.012671132 0.037784137
0.002610788 -0.02313616 -0.013807862 0.035399176 -0.030016914 -0.013305847 0.03428371 -0.05862612
-0.19170134 -0.07158664 0.0696603 0.021236029 -0.025408166 0.037928283 -0.17102067 0.04329964
-0.09743052 0.007119561 -0.0127006825 0.024192572 0.009343311 -0.0076704407 -0.0034166793 -0.060729757
-0.07184589 0.015616732 -0.0055929804 -0.014500682 -0.11841798 0.039807327 -0.049950957 -0.006463057
0.054429054 -0.059746046 -0.17123458 0.004229211 0.016020862 0.063324615 0.19068605 0.013619919
0.06467903 -0.012161157 0.0025207994 -0.07369016 0.010146833 0.025076965 0.062962994 -0.0028429972
0.06566808 0.020778235 0.010373848 0.037924096 0.029460052 -0.039204415 0.0059722066 -0.068640254
0.056407277 -0.020558722 0.025302608 0.056622725 -0.095795326 0.04676298 0.05897227 0.016601326

action_model._discrete_distribution.branches.1.bias f4 [3]
00000000: 3803 c63c 53da 3aba 29c6 afbc
0.024171457 -0.000712787 -0.021456795

action_model._discrete_distribution.branches.1.weight f4 [3, 256]
00000000: e158 cb3a ffb9 c3bc 7f07 67bd 77e4 fd3c
00000010: 0e4b 76ba 36e4 78bc 2dd5 6dbd 7b16 e4bc
00000020: 2ead 17bd 5e7f c63c 7379 273d 3955 f3bb
00000030: 4f44 35bd 1e41 c43b 7bbf 943c 8e54 11bc
00000040: 4da0 8ebc 170c 5abd 5510 1cbb 74a0 95bc
00000050: 12c7 1cbb 1234 c13b a254 a73c 97ab a93c
00000060: 10f0 623c af8d dfba c050 3f3c 9197 ffbc
00000070: 6656 1abd 4bfc 2cbd 6c39 063c cea4 08bd
00000080: 3422 18bc 8371 a3bb e87c 9d3c 6313 733c
00000090: 12e3 f23c 6664 8f3c c35c 743b 6777 01bd
000000a0: 8b92 1abd 8a69 ba3b 1d76 80bd 0f02 a3bc
000000b0: 1865 893d ff83 33bd faaf 92bc 1132 c9bc
000000c0: 2ed8 023d 4f9d 9f3c b8bb 2b3d ab38 10bd
000000d0: f806 8ebc a6ff 473d fc1a 133c b816 a63c
000000e0: 2d02 54bd e96c dcbc 7657 c03c 6a4e e43c
000000f0: 6152 a3bd 6518 3abc 97c7 00bd a40c 043d
00000100: ce90 00bd 2ac8 0cbd f180 093d 26b8 4c3d
00000110: 3cca debb 1c5e 243b 100f 2e3c fe4c 69bd
00000120: 9b2c cd3c b998 483c 8f78 0d3d fd48 00bd
00000130: 469d 0a3d d8ac e83c 3b98 813c 22c9 c83c
00000140: d370 683c 67f9 52bc 7e44 3c3b d292 edbc
00000150: 5555 d4bc b690 89bd 26e3 86bc 0940 0bbd
00000160: 6a50 a3bc 97a9 d5bc 3a03 1c3c ffdf 173c
00000170: 9f60 1f3d 5d78 813d 3295 c4bc fbbc 573c
00000180: 49f8 92bb 21ee cbbc efb6 c5bb 25c2 7fbb
00000190: d59f 513c bb82 cc3c 7167 3c3d 461c 9c3c
000001a0: f04a 5f3c 7fff 25bd 14d0 64bc 6771 2e3b
000001b0: b84b 203d 669e 3ebd 9dcd e2bd a2a9 f23c
000001c0: e12c 993c b1d2 963d a8d6 233d cd2e 923d
000001d0: 1b36 073b b8b2 cb3c 388b fabb 9a6e 0e3b
000001e0: 06fc d23c 035c eb3c 496e 023c 4f31 1e3d
000001f0: b127 753c 4451 71bc d823 f9bc 2a84 363b
00000200: e60f 1fbc 2f4f 60bc b0a1 5e3c 4f64 ca3d
00000210: a561 383d c4dd 50bb eb81 9f3c 86ff 103d
00000220: 7aa5 123d ba58 28bc d839 cdbc d8c6 e6bc
00000230: 18a1 573d e264 9b3b c7b0 6bbd 1834 483c
00000240: b289 153d d18e b13d c583 ee3a 4daf a7bc
00000250: 5f3a c33b 73b6 12bd ca54 ccbc d00c 463c
00000260: 08fd 99bc a09f 773d 864e 113d 54b2 a6bb
00000270: 57c2 b33c fae9 4ebc 8933 ffbc c9ab 153d
00000280: d799 9bbc 5bba 963c 187c 3dbc a58b b73c
00000290: 7a4b 84bd 1045 4e3c 5907 913b aa4a c8bc
000002a0: 2818 b6ba 6baf efb9 5cac ff3b 62b6 b53c
000002b0: bdaa 51bd 52fa fa3c d8b8 0ebd 2a32 9c3d
000002c0: f3a5 593d 7dee 043d b896 41bc 67e2 a63c
000002d0: 1b85 d83b ec8c 3b3d 27a7 353c a9c8 ab3c
000002e0: c11d 053d b2a8 38bc dc1c 7fbc ec62 b3bc
000002f0: 261d fbbc 346c 953c e055 0dbd c7c9 973d
00000300: d523 b1b9 8443 08bd e882 f83c c507 ccbb
00000310: 920c 5dbd 18e7 243c 2a60 5bbc e55b e93b
00000320: 0a97 b03c 8d93 133b 0a85 8f3d 77a0 02bd
00000330: 840c 88bc bee3 74bd 98a2 0fbd fa3d 283d
00000340: 48dd 8c3c 934d 96bb fd0c 6ebc 4004 5a3c
00000350: cbb4 993d 4898 a8bc befb d0bb 4dff 13bd
00000360: 7825 9c3d 2609 043d 4b5e 123c 2558 b6bc
00000370: 1523 813c bae9 edba 9481 be3c 5cd1 523d
00000380: 9b1a b53c 8f4c e4bc f03f c6bc 348c 73bd
00000390: 26e2 e0bc b6f0 d83c 6334 d43b 357b 6bbd
000003a0: 931b 433d 9d45 91bc 3299 f23c 5ce4 e0bc
000003b0: 0128 1c3c 685c a43c 6558 75bb 0f56 54bc
000003c0: d6ee 5cbd 51b6 82bc 058b 0cbc b3be bdbb
000003d0: a832 143b 2c79 edbc dee8 e5bb f9ea ab3c
000003e0: 8a37 e9bc 7d2b 003d 2169 163d 5526 5cbc
000003f0: e78d 96bb 6140 66bc 8cff 9c3c 5f60 f83c
0.0015514159 -0.0238924 -0.056403633 0.03099273 -0.00093953393 -0.0151911285 -0.05806463 -0.02784275
-0.03703039 0.024230655 0.040887307 -0.007425931 -0.044254597 0.005989208 0.018157711 -0.008870257
-0.017410422 -0.053234186 -0.0023813446 -0.018264987 -0.0023922366 0.0058961 0.020426098 0.020711703
0.013851181 -0.0017055775 0.011676967 -0.031200202 -0.037680052 -0.042232793 0.008192401 -0.033360295
-0.009285498 -0.004987897 0.019224599 0.014836165 0.029649291 0.017503928 0.0037286736 -0.03160801
-0.03773741 0.005688851 -0.06272528 -0.019898443 0.06708735 -0.043827053 -0.017906178 -0.024560006
0.031944446 0.01948419 0.04192707 -0.035210293 -0.017337307 0.04882779 0.008978602 0.020274505
-0.051759887 -0.026907401 0.023479205 0.027869422 -0.07974697 -0.011358355 -0.031440344 0.032238618
-0.031388097 -0.03437058 0.033570234 0.049980305 -0.0067990106 0.0025080508 0.010623708 -0.05695819
0.025045684 0.012243443 0.0345388 -0.031319607 0.033841394 0.02840273 0.01581966 0.02450997
0.014187056 -0.012876845 0.0028727348 -0.029000673 -0.025919596 -0.067170545 -0.016465735 -0.033996616
-0.019935805 -0.026081843 0.009522254 0.009269713 0.038910504 0.063217856 -0.023996923 0.013167615
-0.0044851643 -0.024893822 -0.0060337703 -0.0039025631 0.012794455 0.02496468 0.045997087 0.01905645
0.013628706 -0.040526863 -0.013965625 0.0026617886 0.03913471 -0.04653778 -0.11074374 0.029621903
0.018698158 0.07364405 0.039999634 0.07137833 0.0020631615 0.024865493 -0.0076459907 0.0021733404
0.02575494 0.028730398 0.007960864 0.038621243 0.014963076 -0.014728848 -0.0304126 0.0027849772
-0.00970838 -0.013690754 0.013588354 0.098824136 0.045014996 -0.0031870464 0.01947113 0.035399936
0.035802342 -0.01027506 -0.025051996 -0.028170988 0.052643865 0.004742251 -0.057541635 0.012219451
0.03650827 0.08669818 0.0018197229 -0.020469332 0.005957886 -0.03581853 -0.024942774 0.012088016
-0.018797413 0.060454965 0.035475276 -0.0050871763 0.021943254 -0.012629027 -0.031152504 0.03654078
-0.018994255 0.018399408 -0.011565231 0.022405455 -0.064597085 0.012589708 0.0044259247 -0.024449665
-0.0013892697 -0.0004571633 0.0078025293 0.022181693 -0.05118822 0.03063694 -0.03484425 0.076267555
0.053136777 0.032454003 -0.011815719 0.020371629 0.0066076643 0.04578869 0.0110872155 0.020969706
0.03249908 -0.011270689 -0.015570845 -0.021897756 -0.030653547 0.018240072 -0.034505725 0.07411533
-0.00033786768 -0.033267513 0.030335858 -0.006226512 -0.053967066 0.010064863 -0.0133896265 0.0071215504
0.021556396 0.0022518367 0.07007797 -0.031891312 -0.01660753 -0.059787504 -0.03506717 0.04107473
0.017195359 -0.0045868843 -0.014529464 0.013306677 0.07505187 -0.020580426 -0.0063776663 -0.036132146
0.07624334 0.032235287 0.008933614 -0.022258827 0.015763799 -0.0018151321 0.023255147 0.051469192
0.022107413 -0.027868537 -0.02420041 -0.05945988 -0.027451586 0.026481967 0.0064759715 -0.057490546
0.04763372 -0.01773339 0.029614065 -0.02745264 0.009531022 0.020063594 -0.003743672 -0.012959971
-0.05393871 -0.015956076 -0.008578067 -0.0057905554 0.0022613201 -0.028988443 -0.0070162853 0.020986067
-0.028468866 0.031291474 0.036721352 -0.013436873 -0.004594553 -0.014053435 0.019164823 0.03031939

action_model._discrete_distribution.branches.2.bias f4 [3]
00000000: d757 b53d bf8e a6bd af67 cfbc
0.08854645 -0.081326954 -0.025317995

action_model._discrete_distribution.branches.2.weight f4 [3, 256]
00000000: c584 9f3e 67de be3d 7968 553c 5648 2b3d
00000010: 3a03 0abd 0278 293d 0f9c b4bd 4241 b13b
00000020: be71 7f3d aaaa 283d ceb5 29bb a7e6 64be
00000030: f448 09b9 fa04 51bd 539a c8bd d6a1 24bd
00000040: a133 cc3d 6be5 e5bc 9711 913d eb3c d33d
00000050: 03bd 103d 7f98 563d f5d0 4e3d 018f 1d3b
00000060: be5b f13d 51e6 3b3e 9219 7b3d c7be e2bd
00000070: e83c c3bc e988 c7bc ef64 213d 840f 49bd
00000080: 1ab8 b6bc 8d14 e63d 4a31 cabc 31db 993d
00000090: cf77 c03c 95dd c33c a806 8b3d 03d3 103d
000000a0: e22e efbc 72e0 533d bd37 8a3d 7032 8c3c
000000b0: 3042 053e dd8b 843d 5132 d63d 0942 a0bd
000000c0: 4335 bc3c 320c 7cbd 6e92 c73c d74c 213d
000000d0: 3853 c8bc 3213 833d c3f6 7b3d 6965 29be
000000e0: 31cb 3f3e 6054 e43c 5bc4 823d 751a 20bc
000000f0: da46 ab3d 046b 4a3d fa4c 02be cb20 0cbc
00000100: 61f3 713d e00e 7fbe 041a 8fbd 2035 1ebd
00000110: 2ae1 a93d 1098 913d 32a7 87bc b70f 3b3d
00000120: 0aea d93d d46d ecbd 231f 223d 70e3 153d
00000130: 638e a6ba 4e09 283d 8926 ef3d 6290 563d
00000140: 4eb1 b83c 7c68 e1bd 47b8 c8ba 5467 1c3e
00000150: 08df 4f3e e642 9cbc 3b66 3cbd 1b49 c83b
00000160: f4be c0bd 1c2e 823d 3bd8 a43e 1f30 68bd
00000170: 3108 e6bc 1a02 e1bd f6c1 0d3e 2370 ad3e
00000180: 9024 0a3d 820d 8ebb 83ad 06be e673 b63d
00000190: 638f f03d 2dc7 503d 484a 82bd c6a1 6c3d
000001a0: f4f1 353c 40f5 9cbc daaf e83c 1da8 c93d
000001b0: 46bd 94bb d4ec 0b3d b153 9c3d 95d0 d03c
000001c0: f013 113e ad76 e43b d223 48bd 2bfa 9c3d
000001d0: c989 6a3a cdbe cc3c ab0e b93b 1f0f adbd
000001e0: fbca f43d 07a0 9bbd 5e82 38be 8fce fc3c
000001f0: 7937 583c 7d55 ce3d 9dd7 78bd 51ba 993d
00000200: 9006 043e 1d13 2b3d 3b4a ffbd c8df 463d
00000210: f51f 4e3d ba3b 513c c1c2 043d 9be0 2dbd
00000220: fd25 babd 6682 8f3d 7e2d 153e 3219 bd3d
00000230: f8ef 1bbe 9717 853d 7ad7 1a3d 2369 0dbe
00000240: a4ae 1b3d 4d24 b3bd 290e 9b3b 9fb2 0ebd
00000250: f984 5ebc aa66 233e 4cf4 8a3d f259 563d
00000260: e61d 993d 083c 443e fa8a 353d 5a5f 36bd
00000270: cca5 f73c 14d1 de3c 361f 8fbd 6e39 c83c
00000280: c49e 4fbe 71ba 383d 7219 c23d 58df c03c
00000290: 9cf5 ae3c 8cdc b43d 5dd5 4c3d 6301 efbc
000002a0: 6270 853c effb bb3d 4804 b73d f1ae cc3d
000002b0: a82c bebd 7101 803c 281f 9e3d acd0 343d
000002c0: 27b9 823c c98d 283d 7207 d43c c39d 793e
000002d0: e493 33bd 0483 c1bd 785c 6bbd e27f da3c
000002e0: 965b 943c 8df4 9abd 5725 963d fc7f 32bd
000002f0: d6a7 7d3d 3581 ccbc 3aed 313e 49ee 94bc
00000300: f965 cd3d 5d5b 803d 1194 c73d b02b cb3c
00000310: b8f1 c43d d545 163c cfff 08bc 7bb9 4fbc
00000320: f431 903e 909f 083d a5b6 49bc b734 d63d
00000330: 53f3 39bd 1613 c3bd d9ef a53e 31ef e2bc
00000340: 9a41 a13d 34d0 1fbe d4a8 343d bcb2 563c
00000350: a22a 81bc 6fb1 17bd 4006 28bd be0f 103e
00000360: e17f 1b3e 0fb4 bf3c e3dd 7cbb a9ca e8bd
00000370: a5fd 323d e954 5bbd 58dc 8d3d d37e 44be
00000380: 0b0f a4bc 3166 e93d e86b 9dbc 0251 983d
00000390: 6cab f13a 7322 193c b044 4bbd 8ccd 38bd
000003a0: ce67 c4bc 45fc e0bd e3e2 8abb cd39 d13d
000003b0: edab ac3d 8b0c 28bc 6119 a63c 639f 09bc
000003c0: 1835 16bd cc5c bbba cae0 ac3d 3fa5 433d
000003d0: 2a67 7bbd 6889 073e 1a2d af3d 6b52 72bd
000003e0: d7b5 5bbd 9ab3 8bbd 19aa 1b3d 9dd0 11be
000003f0: a128 27be 2589 27bd 5abc 023d 0c0e 073d
0.31155983 0.09319764 0.0130253965 0.04181703 -0.033694483 0.041374214 -0.08818828 0.0054093907
0.062364332 0.041178383 -0.0025895718 -0.22353612 -0.00013092515 -0.051030137 -0.0979506 -0.0401934
0.09970785 -0.028063497 0.07083433 0.103143536 0.035336506 0.052391525 0.050492246 0.0024041536
0.117850766 0.18349577 0.061303683 -0.11071544 -0.023832753 -0.024357276 0.0394029 -0.049087062
-0.022304583 0.112343885 -0.024681706 0.075125106 0.02349463 0.02390937 0.06788379 0.035357486
-0.02919716 0.05172772 0.067489125 0.017113894 0.1301353 0.06471989 0.10458816 -0.07825095
0.022974616 -0.061535068 0.024361815 0.03937992 -0.024453744 0.064001456 0.061514627 -0.16542591
0.18729855 0.027872264 0.06385108 -0.009771933 0.08363123 0.049418464 -0.12724677 -0.00855274
0.059069995 -0.24908018 -0.06987384 -0.038624883 0.082949 0.07109082 -0.016559217 0.045669284
0.106403425 -0.115443856 0.039580476 0.036593854 -0.001270723 0.0410245 0.11677272 0.052383788
0.022545483 -0.11006257 -0.0015313708 0.15273792 0.20299923 -0.019074868 -0.045995932 0.0061122305
-0.094114214 0.06356451 0.3219622 -0.056686517 -0.028080078 -0.10986729 0.13843521 0.33874616
0.033726275 -0.0043351064 -0.13152127 0.089088246 0.11746099 0.0509712 -0.06361824 0.057771467
0.011105049 -0.019159913 0.028404165 0.09846518 -0.0045391647 0.034161404 0.0763315 0.025490085
0.14167762 0.006972155 -0.048862286 0.07664903 0.0008946923 0.024993325 0.0056475005 -0.0845015
0.11952778 -0.07598882 -0.18018481 0.030860214 0.013196819 0.10074899 -0.0607525 0.0750624
0.12893128 0.041766275 -0.1246533 0.04855326 0.050323445 0.012770588 0.032412294 -0.04245053
-0.09089277 0.070072934 0.14568135 0.09233321 -0.1522826 0.0649864 0.03780315 -0.13809638
0.038008347 -0.08747158 0.0047319126 -0.034838315 -0.013581508 0.15957132 0.06784877 0.052331872
0.07476406 0.19163525 0.04432199 -0.044524528 0.030230425 0.027199306 -0.06988375 0.024441447
-0.20275408 0.04509968 0.094775096 0.023543999 0.02135735 0.088311285 0.050008167 -0.029175466
0.01628894 0.09178912 0.089363635 0.09994305 -0.09285861 0.015625687 0.07720786 0.044144318
0.015957428 0.04115084 0.025882456 0.24376588 -0.04384221 -0.09448817 -0.057461232 0.026672307
0.018110078 -0.075661756 0.07331341 -0.043579087 0.06192764 -0.024963954 0.17375651 -0.01818003
0.10029215 0.06267426 0.09745038 0.024801105 0.09616417 0.009171923 -0.008361771 -0.012678499
0.2816311 0.033355296 -0.012311612 0.10459273 -0.045398068 -0.09525125 0.32409552 -0.027701946
0.07873841 -0.15606767 0.04410632 0.013104137 -0.0157674 -0.03703445 -0.041021585 0.14068505
0.151855 0.023401288 -0.0038584403 -0.11366779 0.043698926 -0.053547774 0.06926793 -0.19189005
-0.020026704 0.113964446 -0.019216493 0.07437326 0.0018437929 0.009346592 -0.049626052 -0.0451179
-0.02397528 -0.109856166 -0.004238473 0.10216103 0.0843123 -0.010256897 0.020275773 -0.008399817
-0.036671728 -0.0014294623 0.084413126 0.047765013 -0.06137768 0.1323601 0.08553524 -0.05916063
-0.053640213 -0.06821366 0.038004015 -0.14239736 -0.16324092 -0.040902276 0.031917907 0.03297238

action_model._discrete_distribution.branches.3.bias f4 [2]
00000000: 3662 c63d 2162 c6bd
0.09686701 -0.09686685

action_model._discrete_distribution.branches.3.weight f4 [2, 256]
00000000: 503c ac3c d896 5fbd eab6 bd3c 9162 9a3d
00000010: 8246 0d3d 8c7f 233e b356 d63c 145d 423d
00000020: 00af 1a3d 7e57 38bd 3ab1 3f3d f21d fcbd
00000030: e577 85be 773e 1bbd 18da 95be 9594 c6bd
00000040: d0dc b23d 7eab 513d 5fb1 263d 4b51 b83d
00000050: 2c88 ef3d 60da 78bd 549e c4bb d757 fd3d
00000060: e75c 813d be77 0b3c f53a 3e3e a714 503d
00000070: fa53 7dbc 4556 3bbc c32d b23d a6ff 7cbd
00000080: 7a91 9bbc 4948 b03d 4968 d63d d4fb 093e
00000090: b288 113e 2974 ba3c 1cb4 b0bd 8b21 bc3a
000000a0: 4dc6 31be f889 0fbe eadd 553c 17c8 bcbd
000000b0: fdc2 47bd fc6f a2bd 14b6 6c3d 538d 24be
000000c0: ee43 89bd 6cbe 8dbe 0681 bebc 1238 a1bc
000000d0: 7518 90bd 698f 0fbd 5301 913d 2e3c 8ebd
000000e0: 2000 253d 60a3 dabc 43e7 073e dc97 c4bd
000000f0: b171 afbd c091 e1bc 7ced 80bd 805d 3fbe
00000100: 91be e5bb d8ca c4bc a626 a8bd fd7c db3c
00000110: cba7 9d3a 3579 89bc 1a0a 713d 73f7 5bba
00000120: 4b37 763d c334 2e3d 3385 243d a4bf f3bd
00000130: 82e5 46bd 09a0 193e 53b7 5f3e d224 273a
00000140: 5393 1e3d c583 a4bd 0fb1 603c f12b 053e
00000150: 91ab 373d c17f 1cbd 8f12 4abd 5e23 4a3e
00000160: 8eee 9bbc 2a02 e5bc d0e4 113e 79e3 0bbe
00000170: 87f8 1c3e 0c85 5fbd 02a4 d33d 1fc4 273e
00000180: 7f2d ecbd e520 9cbc f2da 6f3c d068 f1bd
00000190: 7bae d13b c502 a43b de83 16be ed75 8a3c
000001a0: 25fa f53d a34e f93c 5b1a 343e cd39 3d3c
000001b0: 0a29 90bd 4292 a8bb 1f12 abbb 97bb 793d
000001c0: fc01 d23d a6e6 8a3d 98da a53c 5738 3ebc
000001d0: 371b 7e3d a56b c6bc a71e fc3c 75f3 03be
000001e0: 0da6 4bbc bdda 233d b55b f4bd 83b5 d6bc
000001f0: 20c8 8dbd a136 87bd 890e 18be 51fe 37bb
00000200: 80ca cd3d 9023 493d e6da 64bd 87af ef3c
00000210: 0f2e f33d 59f4 59bd 9c36 18be 5afb 61bd
00000220: 3a39 6ebd 81a5 52bb c587 34bb f260 ca3d
00000230: e94c e93c b15b bb3d 1092 f83d 49d0 3bbd
00000240: c0b8 a13d 7883 df3b 2942 9e3d 0063 4c3e
00000250: 5dc3 133e ab6d f13d d5d1 a1bd c0e5 023d
00000260: 7520 db3d 6239 033d 8103 4f3d db89 183e
00000270: 10b0 973e d710 793d b2dd 163d 2a99 9b3d
00000280: 6c4c 53be f3d2 ce3d 08ff cb3c 3195 63bd
00000290: 4b14 dabd 2890 993d e331 26bd a1c7 e53d
000002a0: 2578 75bc e49b d1bc 21e8 933d 2197 bdbb
000002b0: ae8b 42be 7bbd b0bd 17d9 763d 789b d33c
000002c0: 7927 733c e5de 1ebd cd29 8f3d a189 f33d
000002d0: 582e bb3d 3446 8a3d 7995 4ebc 561f d33d
000002e0: 960d 0f3c 65df b3bd ca78 703d 758a 133d
000002f0: ad53 d7bd 29d8 493d cc93 6b3e e988 b13d
00000300: b853 243e 9053 043d 782b 223d d6f6 5c3b
00000310: 34d5 b4ba 73b0 bdbd f217 a53d 15c1 183e
00000320: 5068 21bd cf29 51bc 2a5a b83c 7d31 0d3e
00000330: 9666 ea3c 2844 e1bc 444c 993d 4579 6b3d
00000340: 21f3 0d3d 5fdc 98bd a45b 1b3d 31bc 84bc
00000350: 7a10 333d 5c67 98bd 0f38 c93d 766b 043e
00000360: 2473 19bd a944 df3b a4b3 cc3d eafd d3bd
00000370: a844 ae3d fa25 17be d2ac 613d a199 12bd
00000380: 568a adbd 38a3 49bd 9e7c 21be e45a 8c3a
00000390: 31fb 14bd c49f 5dbd 2225 5cbc f70e 5d3c
000003a0: 24f2 c83b 3541 b7bd 29a2 113e 49c1 293d
000003b0: 0834 db3d 4491 063e e8d1 4d3d 4371 31bd
000003c0: 356d 82bc c695 9a3d 5401 c83c b4f0 96bc
000003d0: ae4f 883d 7b07 6e3e 991f 793d 3ece 93bd
000003e0: 7abe 96bd fbe0 7cbd aae5 49bd a1a0 8cbb
000003f0: de6c 71be 51f4 64bb cf1f 973d f7a6 80bc
0.021024853 -0.054587215 0.02315851 0.07538331 0.03449107 0.15966624 0.026164388 0.047452047
0.03776455 -0.045005314 0.046799876 -0.12310399 -0.26068035 -0.037901368 -0.29267955 -0.096963085
0.08733523 0.05118894 0.040696498 0.089998804 0.116958946 -0.060755134 -0.0060003195 0.1237027
0.06316548 0.0085124355 0.18577178 0.050800946 -0.015461916 -0.0114341425 0.087001346 -0.061767243
-0.018990267 0.08607537 0.104691096 0.13474971 0.14212301 0.022760468 -0.08628103 0.0014353258
-0.17360802 -0.14017475 0.013053397 -0.092178516 -0.04876994 -0.079315156 0.05779083 -0.16069536
-0.0670241 -0.27684343 -0.023254883 -0.019680057 -0.07035915 -0.035048876 0.07080331 -0.06945072
0.040283322 -0.026689231 0.13271813 -0.095992774 -0.08566607 -0.02753532 -0.062952965 -0.18688011
-0.0070112427 -0.024022505 -0.082104966 0.026792997 0.0012028156 -0.016781429 0.058847524 -0.000839106
0.060111325 0.042530786 0.04016609 -0.11901787 -0.04855872 0.15002455 0.21847276 0.0006376031
0.038714718 -0.080329455 0.013714089 0.13005044 0.044841353 -0.038207773 -0.049334105 0.19740054
-0.01903465 -0.027955133 0.14247441 -0.13660993 0.1532918 -0.054570243 0.103340164 0.16383408
-0.11532115 -0.019058654 0.014639603 -0.117875695 0.0063989735 0.005005213 -0.14698741 0.016901935
0.12010602 0.030433005 0.17588179 0.011549425 -0.070390776 -0.0051443884 -0.005220666 0.060969915
0.10254285 0.06782274 0.020245835 -0.011610112 0.062037673 -0.02422125 0.030776335 -0.1288584
-0.012429726 0.040003527 -0.11931554 -0.026209598 -0.069229364 -0.066022165 -0.14849295 -0.0028075168
0.100483894 0.04910618 -0.05587282 0.029258503 0.11874019 -0.053211544 -0.14864582 -0.05517135
-0.058160044 -0.0032142105 -0.0027546745 0.09881772 0.028479056 0.09148348 0.12137234 -0.045852933
0.078965664 0.006821092 0.07727463 0.1995964 0.14429994 0.11788496 -0.079013504 0.031957388
0.1069955 0.032037146 0.05054045 0.14896338 0.29626513 0.060807075 0.03683252 0.07597573
-0.20634621 0.10098829 0.024901882 -0.055562202 -0.10648402 0.07498199 -0.04057492 0.11219717
-0.014982258 -0.02558703 0.072220095 -0.0057858382 -0.18998596 -0.086298905 0.060265627 0.02583097
0.014840954 -0.038786788 0.06990395 0.11891485 0.09139699 0.067516714 -0.012608879 0.10308711
0.0087312665 -0.087828435 0.058708943 0.036020715 -0.10514007 0.049278412 0.23005599 0.08668692
0.16047561 0.032306254 0.039592236 0.0033716462 -0.001379645 -0.09262171 0.08061208 0.14917405
-0.03940612 -0.012766316 0.022503931 0.1378841 0.02861337 -0.02749832 0.0748525 0.0574887
0.034655694 -0.074639075 0.037929192 -0.016203018 0.043716885 -0.07441589 0.098251455 0.12931618
-0.037463322 0.006813605 0.09995201 -0.10351165 0.08509189 -0.1476058 0.055096455 -0.035791043
-0.08473651 -0.049227923 -0.15770194 0.001070824 -0.036372367 -0.054107442 -0.0134365875 0.013492337
0.006132381 -0.08947984 0.14222015 0.041444097 0.107032835 0.13141352 0.05024901 -0.043320905
-0.015921215 0.07548098 0.024414696 -0.018425323 0.06655823 0.23245041 0.06082115 -0.07217072
-0.07360549 -0.061737996 -0.04929129 -0.0042916094 -0.23576686 -0.0034935663 0.07379114 -0.015704615

discrete_action_output_shape f4 [1, 4]
00000000: 0000 4040 0000 4040 0000 4040 0000 0040
3.0 3.0 3.0 2.0

network_body._body_endoder.seq_layers.0.bias f4 [256]
00000000: b8b5 d33d 4bad 6d3d 96fc 113c 2a7a 4f3d
00000010: 979a a03d 770c 893d 1fce 17bc eab9 8c3d
00000020: 53ac cd3d a9d3 ffbc defa 1e3d 6f81 a33c
00000030: cba3 ed3d f0f5 d03d 7f04 333e 2a78 d43c
00000040: b5bf 7a3d 181f 8f3d 88e7 e5bc af6a 3a3e
00000050: b6ea 173e 99f3 bf3d ec00 663c 7d55 d03d
00000060: 8c64 61b9 343c 063e 530d 08bd 0b57 793c
00000070: 1cfc bb3d 6176 973d 31bd abbc 21f8 e53d
00000080: c489 0c3d 9d62 4d3b e73e f83d b0fb 043c
00000090: 39fe 9e3e 9d41 0b3e 1588 003e 87fa 363e
000000a0: 36fe 4f3c f1fb ef3d f651 c73d 832b 833c
000000b0: ff19 6a3e ac2d d43c be12 0b3e f138 bc3c
000000c0: b269 003e 22f4 b03d f04c 6f3e f4c4 033e
000000d0: 2b70 803c 85ad d73d b729 80bc 621d b93d
000000e0: b42a 283e cd18 e0bc 2f58 33bb b269 ae3d
000000f0: ecac 003e 642f c2bb 5bf0 7ebd d69f b73d
00000100: 4d0d 2abc 8235 813e b282 0f3e 8e5e c83d
00000110: def1 fa3d 7d7c 93bd aa57 313e cc87 d5bc
00000120: 0cf2 b03e 8e95 133e b17c ef3d 5b29 d73d
00000130: b7d2 713d 858f 063e c6d7 6b3d 16d7 0b3d
00000140: 4622 483e 50a9 883e 751b c83d e588 c03d
00000150: c14a e63c f0f9 9c3d 3629 21bd 9952 debb
00000160: bd95 333e 2792 763d baef de3d ac6d e53d
00000170: 5446 143e 0079 4f3e 5805 553c aa95 1a3d
00000180: 62b5 713e 370e 1b3d f05a 9e3c ecdf b3b9
00000190: 8a99 5d3d 231b 543e 35b7 373d 6f79 de3c
000001a0: edf3 233d 389f d9bc 8831 fc3d 1766 073e
000001b0: 1570 033e 759a 3c3e 4006 953c afe4 1f3e
000001c0: bdb5 5dbb ed50 393e d198 94bd 02f1 913d
000001d0: 75ff 05be 5e0c f03d 1a86 eb3d 5257 593e
000001e0: a1f9 023e 0559 9a3d c39e 813c 5f7e 843d
000001f0: 219b b0bc 3885 42bc a91c 323e 7268 1cbd
00000200: b0dd 73bd 4e6b c33d f715 81bd 0fd9 1b3c
00000210: 271b 8f3e e0c2 663e 2fc4 593d d1a0 4f3e
00000220: 9610 03bd 322a 9eba 6e56 693c e5f0 eabb
00000230: bfdf 203e df55 b1bc f23c 53bd a07c 613d
00000240: d254 133e 324a e93d a967 eebd eeca e1bc
00000250: cfcc 983d ca16 373e 017b 823d 7dc5 cbbc
00000260: 619f bf3b 3499 c73d bb08 0d3e a306 d1bd
00000270: ce9d ba3d f0d5 993e 4de4 7c3e ac6d a23e
00000280: 4a65 1b3e cce5 1a3e 155b 073d cc67 033e
00000290: 45db 293e 9dc0 8cbc 781e 383d 03ad 093e
000002a0: 2de4 23bd 7699 5c3e 494a 293e 0b30 e1bc
000002b0: fd51 63bd 459f 263e 5e9f fcbd b3fe 3dbd
000002c0: eda5 f93d f016 283e c62f c53d 321e 8e3d
000002d0: fd41 803d ff9d 0f3d f84e 8a3d 97bf 2f3d
000002e0: 9e7b 673e 7023 d23c a1a7 2b3e e1c9 bb3d
000002f0: 9f2a b63d ac47 293e 6292 dd3d dba6 46bc
00000300: ef53 683e 52a8 f53d f5fa 813d 0c7c ba3d
00000310: 806e b23d c429 29bd 4756 e6b8 4063 12bd
00000320: 0609 7c3e ff3f 5f3e fe67 83ba 2334 353d
00000330: db37 d0bb 9e26 da3d 3279 133c bd97 3ebd
00000340: 0fcd fb3d e108 a73c fb2a 9ebc 323d 843d
00000350: 3e38 a13d b505 fbbc 8d69 0c3e 737f 063f
00000360: 6401 96bc 02fd 9ebb 4fbb aabd 18e9 533e
00000370: 3982 163d 52df 0cbd 5247 493e 06bf 283c
00000380: 3250 453e ff9d 9ebc 9365 f33d 7b41 1abc
00000390: e7d7 013d ec47 243e 9492 273e 924b e93c
000003a0: 582b 4c3e 6196 033b ace6 203d 4c01 e73d
000003b0: e0df b13d 37d5 2abd ad6a 8e3d 691b 333d
000003c0: eb85 cd3d 5eef 493d 2938 133e 2f5d d43d
000003d0: 675a c93d 6a0a ec3d 4af8 92bd f941 313e
000003e0: 6226 9fbc ef94 6d3d 54c1 4a3d 3240 703d
000003f0: 6286 a0bd 869f f83d b439 b53e 32da 473d
0.103373945 0.058026593 0.008910319 0.050653614 0.07841986 0.066918306 -0.009265452 0.06871398
0.10042634 -0.031228857 0.038813464 0.01995918 0.11603507 0.10203159 0.17482184 0.025936205
0.061217982 0.069883525 -0.028064504 0.18204759 0.14835629 0.093726344 0.014038306 0.101725556
-0.00021495129 0.13108903 -0.033215832 0.015218507 0.091789454 0.07395626 -0.020964237 0.112289675
0.03431107 0.0031339296 0.12121373 0.008116648 0.31053331 0.13599248 0.12551911 0.17869006
0.012694886 0.11717976 0.0973243 0.016011959 0.22861479 0.025900684 0.13581368 0.02297637
0.1254032 0.08640315 0.23369193 0.128681 0.015678486 0.10531143 -0.015644891 0.090388075
0.1642254 -0.027355576 -0.0027365794 0.085162535 0.12565964 -0.0059260596 -0.06224094 0.08966033
-0.010379148 0.25236136 0.140147 0.0978366 0.12253164 -0.07201479 0.17318597 -0.02606573
0.34559667 0.1441252 0.11693705 0.10505935 0.059038844 0.13140686 0.057578824 0.03414067
0.19544324 0.26691675 0.09770862 0.094011106 0.028111817 0.07664859 -0.039345942 -0.0067847488
0.1753759 0.060197975 0.10885568 0.11202559 0.14479953 0.20261002 0.013001762 0.037740387
0.23604348 0.037855353 0.019330472 -0.00034308375 0.054101504 0.20713477 0.044852454 0.027157513
0.040027548 -0.02656518 0.12314135 0.13222538 0.12835725 0.18418296 0.018191457 0.1561458
-0.0033830248 0.18097277 -0.0725571 0.07126047 -0.1308573 0.11721109 0.11500187 0.21224716
0.12790538 0.075365104 0.015822774 0.06469416 -0.021558346 -0.011872582 0.17393745 -0.038185544
-0.05953759 0.09541951 -0.063030176 0.0095122 0.27950403 0.22535276 0.05316561 0.2027619
-0.03199824 -0.0012067019 0.014241798 -0.00716983 0.15710352 -0.021647392 -0.051571794 0.055050492
0.14387825 0.11391105 -0.11640865 -0.027562585 0.07460939 0.17879787 0.063711174 -0.024874443
0.005847857 0.09746018 0.13772862 -0.10206344 0.0911213 0.30046034 0.24696465 0.31724298
0.15175357 0.15126723 0.033045847 0.12832564 0.16587551 -0.017181689 0.044950932 0.13444905
-0.040012527 0.21542916 0.16532244 -0.027488729 -0.055498112 0.16271694 -0.123350844 -0.04638548
0.12189851 0.16415 0.09628253 0.06939353 0.06262586 0.035062786 0.06753343 0.042907324
0.2260575 0.025651664 0.16763164 0.09169365 0.08894848 0.16531247 0.10818936 -0.012124742
0.22688268 0.11994995 0.063466944 0.09105691 0.087124825 -0.041299596 -0.00010983325 -0.035739183
0.24612817 0.21801756 -0.0010025499 0.044239175 -0.0063543147 0.10651897 0.009001063 -0.046531428
0.12294971 0.020389976 -0.019307604 0.064569846 0.078720555 -0.03064237 0.1371214 0.5253822
-0.01831121 -0.004851938 -0.083365075 0.20694387 0.036745284 -0.034392662 0.19656113 0.01029945
0.19268873 -0.019362448 0.11884608 -0.009415026 0.03170004 0.16043061 0.16364509 0.028478418
0.1993841 0.0020078646 0.039282486 0.11279544 0.08685279 -0.041707244 0.069539405 0.043727312
0.100353085 0.049300544 0.14376892 0.10369336 0.09831696 0.11525424 -0.07176264 0.17310323
-0.019427482 0.058003362 0.04950078 0.05865497 -0.078381315 0.12139802 0.35395586 0.04879207

network_body._body_endoder.seq_layers.0.weight f4 [256, 11]
00000000: 3f8b f03c cf46 14bb 50d8 5bbd 860b 203e
00000010: 56b3 be3d 748a 123d 2146 683f 7e75 b8bd
00000020: 048d e53d 037f 023f 8f01 b2be 8724 d4be
00000030: bf03 cd3e e110 e73e eb7f 6bbc 9dc6 f23e
00000040: 88f0 10bf 4422 36bf c586 123f a177 673e
00000050: b9fd f7be aa96 6f3d 8897 223f 1c67 babd
00000060: 95f7 9dbe e42c d6bd 21b1 bbbe 1455 943d
00000070: ae27 b1be 7f3d 2a3e febf fbbc de6b 03bf
00000080: 4a66 a63e fe5a d2be 6f64 023f 7e90 57be
00000090: ebc0 373e 5255 4e3e 23f9 09bc e9a3 cd3e
000000a0: b068 aabe ea6f 85be fa24 953e 1e20 093f
000000b0: 38e0 ddbe 79a0 3e3e 4ce5 5e3e 00cd 2c3f
000000c0: 250a f23d 20b1 bcbe abea e63d 4ca3 b7be
000000d0: e7c7 c8be e492 603e 7426 5abe 0666 463e
000000e0: 5e06 a73d dad6 153f b456 2fbd 164e f63e
000000f0: de0c 97be ad8d 6e3e e92a 34bd 2427 aebe
00000100: 7d4d 42bd 436a 943e 9fed 55be 3161 19bf
00000110: 1103 64bc c75c 43bf cae9 8abe ab69 54be
00000120: 8cdc 7d3d eb03 303f 31d1 5bbd 57e1 08be
00000130: 6109 213e c61e 1b3f b13f 92bd d1ba 1abf
00000140: 73ab c7bc f347 80be 2078 ec3d e5f0 f1be
00000150: 8695 86be d477 f1be 1ac6 aebe c2ff 403e
00000160: b80a 583e 6778 c43d 31a2 fe3d 2677 49bf
00000170: a4eb 043f b027 0e3d f652 d33d ce43 213e
00000180: d527 053f 93e4 5a3e 0924 2cbf eda1 10bf
00000190: 614c 0e3f 94f5 163d 5d9d 74bf 20c5 36bb
000001a0: dd90 7c3d 05a6 c3be c925 b7bd 207b 82be
000001b0: f7c6 d63d 42b2 0c3c 7c5e c4be 260e fe3e
000001c0: 3a0e 913e 45bb a43e 5c11 65be da89 f63c
000001d0: 8012 01be 0998 243e 1b0f f4be c9fe a4be
000001e0: 3a2f 903f 3551 4cbc b5ca c53e 4933 25be
000001f0: 4fa7 bd3d 26cb cb3e da16 183e e1fd 993d
00000200: bdcf 3cbf a58f 6fbe 172c eb3e b6b4 0f3d
00000210: bfc3 cabe 682b 6bbe a920 d7be 6d2d bfbe
00000220: 70b0 0abf 9dce 79bc d2f4 cc3d 26c9 6cbe
00000230: e812 463e 7409 febe 1af7 83bd 9dd1 853e
00000240: e24e fc3e 9db6 1b3f 6f9f 973e da9a a83b
00000250: f8ad 483e ea58 8e3e c48b 2bbe 6dd9 b7bd
00000260: 27d6 6f3e 1ec8 44be 71cf ebbe f1bf 17bf
00000270: 847e 2f3e 4497 6d3f 4430 31be 4e1f d23d
00000280: 70de fd3b 4734 26bf 4b60 98be b9b0 4a3e
00000290: ffd6 e13e 4adc 16bf dd07 91be 0dfd 003f
000002a0: 90dd 513e 26d0 a3be cfb1 7e3e c850 c33e
000002b0: 4517 eabd f8a1 74be afa0 1f3e e354 5f3e
000002c0: e4de 4f3e 46cf b3be 1129 e13e 9963 f13e
000002d0: a023 1dbe 5900 cb3d fef6 71bc ba62 09be
000002e0: b70b 4ebe fb25 0e3d 1d53 37bd 58b1 c5be
000002f0: 8dbc 9fbc 25da 143e 29eb 293f 83fc d4be
00000300: f438 09bf 7f19 0fbf da63 373e 3fef f9be
00000310: 764d 7dbe fd01 8a3e 0319 183e 8881 bcbe
00000320: b52b 9b3e bc66 e5bd d123 dfbe 49eb f5bd
00000330: 32ed 493d a848 15bf 883f 443e 4abc 333f
00000340: 3416 523d 531b 15bc e3ff 5cbe 776c 0dbf
00000350: b48a a43e aed6 a43e 0884 713e f16c b53d
00000360: 4acf 8e3c 289f 2f3e c096 6ebd 4251 cfbe
00000370: 0184 9b3e 13dd 6cbf 10a7 90be eb83 e43e
00000380: 80d6 6a3c 2dc3 84bd 3b8d 8a3e e1c7 28be
00000390: 4a4d 9a3e 75a6 2d3e 76e7 003e 66ee d83d
000003a0: 3698 c83e fe9f a7bd c12d 7c3e 2fc4 2a3e
000003b0: eecc 9ebc 5ab2 d5be 2e6f 9ebe a32b 87bd
000003c0: 67d2 de3e 5831 393f e3bc 1d3f 83ed 353e
000003d0: 2f8d 9d3e 5733 a0be 9acb 37bd 70a6 a93e
000003e0: 14e6 d8be f69a fc3d da5d 043c fbae 093f
000003f0: b58d a93d ff39 0a3e 39c7 a7bd 195e 8cbe
0.029363273 -0.0022625213 -0.05367309 0.15629396 0.09311549 0.03577657 0.9073201 -0.09006785
0.11208537 0.50975055 -0.34766814 -0.41434118 0.4004192 0.45130065 -0.01437376 0.47417155
-0.5661702 -0.71146035 0.5723689 0.22604229 -0.48435763 0.058493294 0.6351247 -0.09101698
-0.30852953 -0.10457781 -0.36658576 0.0724279 -0.34600586 0.16625021 -0.030731197 -0.5133647
0.32499915 -0.41085047 0.509345 -0.21051213 0.17944686 0.20149735 -0.008421215 0.40164116
-0.33282995 -0.26061946 0.29129773 0.5356463 -0.43335128 0.18615903 0.21767157 0.67500305
0.11818341 -0.36853886 0.11275228 -0.35866773 -0.39215013 0.21931034 -0.21303731 0.19374856
0.08155511 0.5853096 -0.042807296 0.4810645 -0.29502004 0.23296233 -0.043986235 -0.34014237
-0.04743718 0.2898732 -0.20891427 -0.5991393 -0.013916747 -0.7631344 -0.27131492 -0.20743434
0.061977908 0.6875598 -0.053666297 -0.1336721 0.15726234 0.6059383 -0.071410544 -0.6044131
-0.024373746 -0.25054893 0.115463495 -0.472541 -0.26285952 -0.47161734 -0.34135514 0.18847564
0.21097839 0.095932774 0.12433279 -0.7869743 0.5192206 0.034705818 0.10318558 0.15748522
0.52013904 0.21376257 -0.67242485 -0.5649708 0.55585295 0.036855295 -0.9555262 -0.0027888492
0.06166159 -0.382126 -0.08942754 -0.25484562 0.10487168 0.008587422 -0.38353336 0.4962017
0.28331167 0.32174125 -0.22369903 0.03009503 -0.12604713 0.16073622 -0.47667775 -0.32225636
1.1264412 -0.012470533 0.38631216 -0.16132845 0.09260427 0.39803427 0.14852467 0.07519127
-0.73754483 -0.2339464 0.45932075 0.03508445 -0.39602467 -0.22965777 -0.42017105 -0.37339345
-0.5417547 -0.015247014 0.10007633 -0.23123607 0.1934315 -0.49616587 -0.06443615 0.26136485
0.49278933 0.6082552 0.29613826 0.005145413 0.19597614 0.2780221 -0.16752535 -0.089770176
0.23421536 -0.19216964 -0.46056703 -0.59277254 0.17138106 0.9280894 -0.17303568 0.10259877
0.007747464 -0.6492352 -0.29760966 0.19793977 0.44109342 -0.58929884 -0.28326312 0.50386125
0.20494676 -0.31994742 0.24872516 0.3814757 -0.114302196 -0.23889911 0.1558864 0.21809725
0.2029987 -0.35119075 0.43976644 0.471463 -0.15345621 0.09912176 -0.01476836 -0.13416567
-0.20121656 0.03470419 -0.044756997 -0.38611865 -0.019499088 0.1453634 0.6637445 -0.415989
-0.5360253 -0.5589828 0.17909184 -0.48815343 -0.2473658 0.26954642 0.14853291 -0.36817575
0.30306783 -0.11201236 -0.43582013 -0.12007768 0.049298473 -0.5831399 0.1916486 0.7020918
0.051290706 -0.009100753 -0.21581988 -0.5524363 0.32137072 0.32195038 0.23585522 0.088586695
0.017432828 0.17150557 -0.058249235 -0.40491682 0.30374148 -0.9252483 -0.2825246 0.44631895
0.014333367 -0.06482539 0.27060875 -0.16482498 0.30137092 0.1695803 0.12588295 0.10592346
0.39178628 -0.08184813 0.24626829 0.166764 -0.019384827 -0.41737634 -0.30944198 -0.0660012
0.435199 0.7234092 0.61616343 0.17766385 0.30771777 -0.3128917 -0.044871904 0.33134794
-0.42363036 0.12334244 0.008079017 0.53782624 0.082789816 0.13498686 -0.081922956 -0.2741554

network_body._body_endoder.seq_layers.2.bias f4 [256]
00000000: 75a0 e7bd 90a5 c73c e00d 1d3d 1b35 543c
00000010: 0dc3 0d3d ec9a 9fbc 29eb a9bd 84f1 36bd
00000020: 2068 363b 69f9 1bbd c4ae 11bd 88b1 acba
00000030: 5efc 81bd 916c a7bc 8879 19bc 0d34 a3bd
00000040: 2839 65bd 3fc0 83bc 9dec 513d b201 2ebd
00000050: 0962 24bd e162 7fbd 008b 31bd 9e48 52bd
00000060: 224d e73c 13b5 533b 1a12 c4bd a576 71bd
00000070: 7511 11ba cece 64bc 9a59 3a3d 3e89 60bd
00000080: 07da 48bd 9a22 0abe 0e1f 8a3d ee1d 3539
00000090: 5229 0bba e113 45bd fcb1 87bd b9c0 06bd
000000a0: bb92 aabd d286 90bd a509 5d3b 9a5a e5bd
000000b0: 03c6 47ba cd33 25bd 89e9 4b3d ca58 96bd
000000c0: aa36 ad3c e0c8 69bd 6947 34bd 82ca d0bd
000000d0: c4bb bbbb 1180 04bd b196 b23b b38f 04bc
000000e0: 38c9 26be a5c1 97bc 1e6c c2bc b802 83bd
000000f0: 11c9 a3bc 9e6b efbb 399c 9dbd 98d7 61bd
00000100: 2288 a33d af87 ccbc b39e 143d d6a1 18bd
00000110: 0e52 d63c 1563 03bc 83c4 583d e946 0cbd
00000120: 1cc9 b4bc 0f44 0cbd 8cf7 323d 519d 66bd
00000130: 00b5 97bb 71ca c7bc 395b 91bd 382c 443d
00000140: 26dc b03c 4893 d53c 1fe5 0f3d 649f a53d
00000150: 0cb4 433d 3a47 54bc 78cb acbc db70 15be
00000160: ad0f 64bd 5df4 0fbc fe5b 733d 7cc0 46bd
00000170: 27e5 03bd 4797 34bd 17d8 17be 61fc a83d
00000180: 4665 91bd f26e 3abc 269c a3bc 3a1d 89bd
00000190: 36c0 ce3c fb65 793d 46ca f6ba f9d2 18bc
000001a0: c650 923d 7f82 853c 1fdf c13d 1b9d 543d
000001b0: 755f 2abd f308 3fbc fb48 3c3c e545 c43d
000001c0: 9f6a d33d 1334 c1bc ec14 86bd 821e 6cbd
000001d0: f7bb 323d 0d8c 40bd d522 cc3c 0873 c6bd
000001e0: 6e1b 02bc fc49 4c3c 80dc 84bd 4ce8 923b
000001f0: 4efc 29bd ded0 8e3c 1fd8 b4bd 1568 613d
00000200: 1a04 80bc f4a6 b93c 91e8 acbd 12aa 4bbb
00000210: 4bf8 2c3d 4056 f3bc a1b4 54bd 47ab bdbc
00000220: c62c 2cbd d757 863b 6e50 07bc 6e36 8a3d
00000230: 4923 943c 7fef 6a3d 660a e73c 6a48 813c
00000240: 8931 6ebd b635 daba 45b0 de3b 165b b03d
00000250: 5959 2b3d 4b79 503d 5685 b6bd d56b 9d3d
00000260: c032 983c 6603 12bd 0320 8e3c 749d 22bd
00000270: 82d3 efbd 83d4 213d e1f5 24bd aa0c 753d
00000280: 1408 c9bd e29a 2b3e bcfa 3fbd f49e 43bd
00000290: 564a b0bd cde1 813d d68d ed3c 4be1 09bd
000002a0: cb2c 7ebd 7e4d 793d 0888 e1bc 17cc b63c
000002b0: 5ddb 66bd e796 8ebd 3bfa 643c 6ca1 97bc
000002c0: f6f4 d0bc 8f7f 323d 4f21 b1bc 2b2d ec3d
000002d0: 727f fb3c c09e af3c 0eff f53c 6810 503d
000002e0: 55e0 ae3d 0ad0 afbd 483d dcbc c2f2 663b
000002f0: 921a 5fbd b819 49bd f493 033e 4571 3fbb
00000300: 631a 783c 85fc d1bc 5dd7 bf3d 068e 60bd
00000310: 9fb9 1a3a 1af2 b5bd e6c5 113d f5a8 1f3d
00000320: 438e 90bd 6553 75bd cee8 013d 1f21 5f3d
00000330: ddbb acbb 3b03 3bbd f19d 7bbd c228 793c
00000340: 85de ecbc fa02 81bd 23b7 603d e371 c43c
00000350: 8890 3ebd d743 c9bb b38d 493c 7a36 5b3d
00000360: ac6f 97bd 2150 1dbd 1206 833d eab1 a7bd
00000370: 9be5 a03d 5c8e 54bc 376b 18bd 80e0 b3bd
00000380: bd36 3cbc f6f8 a5bc 5bca ce3c c715 b0bc
00000390: 00e3 b6bd fc0d 5fbc 763f 8c3d 0b4d 6ebd
000003a0: dc01 6e3d a732 04be b9be c73d e8b7 1c3d
000003b0: 8916 b33d a757 223d e9b2 d63c 5abf babc
000003c0: c4f2 60bc 86b3 37bd 5d67 12bd 9c00 ecbc
000003d0: 52e9 0cbd 6315 ed3d 709b f53d f4ef 55bc
000003e0: aedd 69bd c4a1 00bc 451d 533c 1af8 7a3c
000003f0: 9da5 64bd 4dc9 60bd 8b92 7fbd f413 1e3d
-0.113099016 0.024370939 0.03834331 0.012952114 0.034609843 -0.019483052 -0.08296806 -0.04466392
0.002783306 -0.038079653 -0.03556706 -0.0013175467 -0.06346963 -0.02043751 -0.009367354 -0.07968912
-0.05596271 -0.016082881 0.051251043 -0.042482086 -0.040132556 -0.062350158 -0.04334545 -0.051338784
0.028235022 0.0032303974 -0.09573765 -0.05895104 -0.00055339123 -0.013965322 0.045495607 -0.054818384
-0.049036052 -0.13489762 0.067442045 0.00017272655 -0.00053085864 -0.04811466 -0.06625745 -0.03289864
-0.08328768 -0.07056965 0.0033727672 -0.111989215 -0.00076207536 -0.040332604 0.049783263 -0.07341154
0.02114423 -0.057076335 -0.044013415 -0.10194875 -0.0057291705 -0.032348696 0.0054500927 -0.008090901
-0.16287696 -0.018524954 -0.023733195 -0.06397003 -0.019993337 -0.00730653 -0.07695813 -0.055137247
0.0798495 -0.024967043 0.03628416 -0.037263714 0.026162174 -0.0080192285 0.052921783 -0.034247313
-0.022068553 -0.034244593 0.04369311 -0.056302372 -0.004629731 -0.024388524 -0.070974775 0.047893733
0.02158935 0.026071206 0.035130616 0.08087042 0.047779128 -0.012956435 -0.021093115 -0.14593832
-0.055679012 -0.008786288 0.059413902 -0.04852341 -0.03220096 -0.04408958 -0.14828525 0.082512625
-0.070993945 -0.0113789905 -0.019971918 -0.06695028 0.025238138 0.06088827 -0.0018828593 -0.009327644
0.071443126 0.016297577 0.09466385 0.05190764 -0.04159494 -0.0116598485 0.011492009 0.09583644
0.10323071 -0.023584401 -0.06546959 -0.057646282 0.04363629 -0.047008563 0.024918953 -0.09689909
-0.00794111 0.012468811 -0.064873695 0.0044832584 -0.041500382 0.01743358 -0.08830284 0.0550309
-0.015626956 0.022662617 -0.08442796 -0.0031076712 0.042228978 -0.029704213 -0.051930074 -0.02315296
-0.042034887 0.004099827 -0.008258922 0.06748663 0.018083232 0.057357308 0.0282032 0.0157816
-0.05815271 -0.0016648087 0.0067959153 0.08611123 0.041833255 0.050896924 -0.089121506 0.07686583
0.018578887 -0.035647772 0.017349249 -0.03970094 -0.11710264 0.039509308 -0.04027355 0.05982653
-0.09815994 0.16758302 -0.04686998 -0.04775901 -0.086079285 0.06341896 0.028998297 -0.03366212
-0.062054437 0.060864918 -0.027530685 0.022314114 -0.056361545 -0.06962376 0.013975675 -0.01850959
-0.025507431 0.04357868 -0.021622328 0.115320526 0.03070042 0.021438003 0.030028846 0.050796896
0.08538882 -0.08584602 -0.02688469 0.003523991 -0.0544687 -0.049096793 0.12849408 -0.00292118
0.01514301 -0.025633106 0.09367249 -0.054822944 0.00059022935 -0.08884068 0.03558912 0.03897949
-0.07058384 -0.059893984 0.03171616 0.054474946 -0.0052714185 -0.045657378 -0.06142992 0.015207471
-0.0289147 -0.06299396 0.054862153 0.023980087 -0.046524554 -0.0061421203 0.01230185 0.05351875
-0.073943466 -0.038406495 0.06397642 -0.08188231 0.07856294 -0.012973394 -0.037211623 -0.08783054
-0.01148766 -0.020260315 0.025242975 -0.02149476 -0.089300156 -0.013614174 0.06848042 -0.058178943
0.058107242 -0.12909947 0.09753174 0.038261324 0.087445326 0.039634373 0.026208358 -0.022796322
-0.013729755 -0.04484894 -0.035743106 -0.028808884 -0.0344022 0.11576345 0.11992538 -0.013057698
-0.057096176 -0.007851068 0.012885396 0.015317941 -0.055822004 -0.054879475 -0.062395614 0.038593248
