Assets/Models/Baselines/Volleyball_Random.onnx (onnx, 291545 bytes, 15 tensors)

92 f4 [11]
0	0x3eafd177	0.34339496
1	0x3eb127be	0.34600633
2	0x3eb6a875	0.35675398
3	0x3f21b6ea	0.6316973
4	0x40c360b4	6.1055546
5	0x401ef668	2.4837894
6	0x4137d5d4	11.489704
7	0x400bea7c	2.1861868
8	0x40acc277	5.3987384
9	0x40189458	2.3840542
10	0x400dab7a	2.213591

action_model._discrete_distribution.branches.0.bias f4 [3]
0	0xba650026	-0.0008735679
1	0xb9aaf2d0	-0.00032605836
2	0x3a991a81	0.0011680872

action_model._discrete_distribution.branches.0.weight f4 [3, 256]
0	0x3b6f19a8	0.0036483798
1	0xbc1432e0	-0.009045333
2	0x3aec6770	0.0018036198
3	0x3ab931eb	0.0014129257
4	0xbb5c8cea	-0.0033653327
5	0x3be70520	0.0070501715
6	0x3bae8141	0.005325467
7	0xbac786af	-0.0015222634
8	0x3c6b3fb8	0.014358453
9	0xba91cde5	-0.0011123983
10	0x3ba38fec	0.004991522
11	0xbb121ce8	-0.0022295061
12	0xbc08b6ec	-0.008344393
13	0x3c864150	0.016388565
14	0x3b2dd323	0.0026523552
15	0x3a2934e8	0.0006454722
16	0xbb48c88c	-0.0030637113
17	0xbaf0c57b	-0.0018369401
18	0x3c07abe6	0.00828073
19	0x3c2fcfab	0.010730664
20	0xbba1bbb8	-0.004935708
21	0xbb6260c7	-0.0034542547
22	0x3c4fb306	0.01267696
23	0x3bfbc7bc	0.0076837223
24	0xbbcf0024	-0.0063171554
25	0xbb2392eb	-0.0024959396
26	0xba0c0f28	-0.00053428346
27	0x3c375f23	0.011192116
28	0xbb288949	-0.0025716594
29	0x3b20d3a6	0.0024540215
30	0x3c6e5eca	0.014548967
31	0x3bce46e1	0.0062950705
32	0x3bbcc0ce	0.005760289
33	0xbb0beb56	-0.0021349988
34	0xbba4ef51	-0.0050334116
35	0xbbc5bb7e	-0.0060343137
36	0x3bdbf35d	0.006712361
37	0x3aea57fa	0.0017879002
38	0x3ac53c94	0.0015047961
39	0xbc3ea882	-0.011636855
40	0x3bfacedf	0.0076540555
41	0x3bc1c5f5	0.005913491
42	0xbb05d8ae	-0.002042334
43	0xbc0fab1d	-0.008768824
44	0x3b389076	0.0028162277
45	0xbb93fab7	-0.0045159715
46	0xbc3ca7ba	-0.0115145985
47	0xbaf98fe1	-0.0019040072
48	0x3c336202	0.01094866
49	0xbbb7d604	-0.0056102294
50	0x3b72efb8	0.0037069153
51	0xbae76b0d	-0.0017655805
52	0xbbbfba8e	-0.0058510965
53	0xbbc461aa	-0.005993088
54	0x3b13141c	0.0022442406
55	0xbbe2543f	-0.0069070156
56	0xbb60e3dd	-0.0034315505
57	0x3bcd0c5c	0.006257577
58	0x3adae3d3	0.0016699977
59	0x3c334b8e	0.010943307
60	0x3c194144	0.009353939
61	0xbbf6e365	-0.0075344318
62	0xbbff9300	-0.007799506
63	0xbc6a1d10	-0.014289156
64	0xbbbe7d06	-0.005813244
65	0x3c0da789	0.0086459005
66	0x3b4569e6	0.0030122935
67	0xbb00237c	-0.00195524
68	0x3ac7ca04	0.00152427
69	0xbc027362	-0.00796208
70	0x3bb1326b	0.0054076216
71	0xba904efe	-0.001100987
72	0xbc1eccca	-0.00969238
73	0xbbfb3a29	-0.0076668453
74	0xbbca4e00	-0.006173849
75	0xbb946d95	-0.0045296648
76	0xbc26e422	-0.010186227
77	0xbc00d4a5	-0.007863198
78	0x3c42047f	0.011841892
79	0xbb66169f	-0.0035108698
80	0x3c074293	0.008255619
81	0x3c3e70c6	0.011623567
82	0x38c1861b	9.227936e-05
83	0x3c29c4bb	0.010361846
84	0x3b2eeab8	0.0026690196
85	0xbaf0ca67	-0.0018370867
86	0xbc086fdb	-0.00832745
87	0xbba7a5d8	-0.0051162057
88	0x3aec0a32	0.001800841
89	0x3b792e17	0.0038021856
90	0xbb8d8684	-0.004319014
91	0xbac85644	-0.0015284498
92	0x3c0064e4	0.007836554
93	0x3c37e604	0.011224274
94	0xb785d7e9	-1.5955377e-05
95	0xbbb1be19	-0.0054242727
96	0xbbb598ca	-0.0055418955
97	0xbbd5f60c	-0.006529575
98	0xba63acc8	-0.0008685109
99	0xbba07dc6	-0.004897806
100	0xbbe5ac09	-0.0070090336
101	0x3c3f74ae	0.011685533
102	0x3b9a65b9	0.0047118333
103	0xb9f1bcfc	-0.00046107906
104	0xbb73e9f8	-0.0037218314
105	0x3c045965	0.008077954
106	0xbbe15597	-0.006876658
107	0x3b374c6d	0.0027969137
108	0xbba703eb	-0.0050969026
109	0xbc1106cc	-0.008851718
110	0xba900114	-0.001098665
111	0x3c0aa832	0.008462952
112	0xba5fab22	-0.00085322757
113	0xbc29c2b4	-0.010361362
114	0xbb84eb16	-0.0040563447
115	0xbc185060	-0.009296507
116	0xbc16ac23	-0.009196314
117	0xbc10b234	-0.008831549
118	0x3b1f092f	0.0024266948
119	0x3be476a1	0.0069721495
120	0x3b218c1e	0.0024650167
121	0x3b9a892e	0.00471606
122	0xbb4802f9	-0.003051935
123	0x3c2f4bc7	0.010699219
124	0xbb7d86ff	-0.00386852
125	0x3c200d0b	0.009768735
126	0xbb4f3959	-0.0031619875
127	0xbc91c65e	-0.017794784
128	0x3be46b00	0.006970763
129	0x3bbcafa6	0.0057582436
130	0x3c129967	0.008947707
131	0x3c879ef3	0.016555285
132	0xbc09304a	-0.008373329
133	0xbb30f083	-0.0026998825
134	0xbc52b4c9	-0.012860485
135	0xbc29c90d	-0.010362876
136	0xbb1d68d2	-0.0024018777
137	0xba0836e3	-0.0005196167
138	0x3bff08cd	0.0077830316
139	0x3b34dfd1	0.0027599225
140	0xbc60f477	-0.01373016
141	0xbb243b9c	-0.0025059944
142	0x3b2904b8	0.0025790166
143	0x3a62969b	0.0008643658
144	0xbba25462	-0.004953907
145	0xbc03e515	-0.008050223
146	0x3b876135	0.004131461
147	0x3aa6b92a	0.0012719978
148	0x3bd76ce7	0.0065742615
149	0xbb46bb15	-0.0030323912
150	0xbb5319b2	-0.003221136
151	0x3bc0459e	0.005867674
152	0xbbede356	-0.0072597666
153	0x3a582e9d	0.0008246692
154	0x3b6e2bda	0.0036342056
155	0xbbcaf637	-0.006193902
156	0xbb77d78b	-0.0037817683
157	0xbb06e7cd	-0.0020584941
158	0xb91f565c	-0.00015195593
159	0x3ad5da80	0.0016315728
160	0xbb370d97	-0.0027931684
161	0x3ba43c16	0.0050120456
162	0xba38a9c0	-0.00070443377
163	0x39954126	0.00028468034
164	0x3aa2323e	0.0012374592
165	0xba25368f	-0.00063023804
166	0x3c000333	0.007813263
167	0xba8694bf	-0.0010267718
168	0x3c3e4ef7	0.011615506
169	0x3b69d90f	0.0035682356
170	0x3bab3d3a	0.0052258046
171	0x3c156a7e	0.009119628
172	0xbc2fbfd0	-0.010726884
173	0x3c63fa26	0.0139146205
174	0xbc21e129	-0.0098803425
175	0x3c0fe539	0.008782678
176	0xbc0ec801	-0.008714677
177	0x3c8d145b	0.01722162
178	0xb9dbeebd	-0.0004194881
179	0x3bc59983	0.006030263
180	0x3b64814f	0.0034867113
181	0x3b68afae	0.0035505104
182	0xba0893f0	-0.00052100327
183	0x3c3becb0	0.011470005
184	0xbc01f05e	-0.007930843
185	0x3bc559fa	0.006022689
186	0xba3fef3e	-0.00073217216
187	0x3b683106	0.003542961
188	0xbbc9193b	-0.006137041
189	0x3b84e918	0.0040561073
190	0xbc005a07	-0.007833964
191	0x3b9d30f4	0.0047970954
192	0x3c0e176b	0.0086725755
193	0x3b33d831	0.0027442093
194	0xbaec1054	-0.0018010237
195	0xbb59d99c	-0.0033241278
196	0xbb674556	-0.003528913
197	0x3b9ce299	0.0047877547
198	0xbb91c613	-0.004448661
199	0x3ad3a9af	0.0016148592
200	0x39f84877	0.00047356237
201	0x3c348586	0.011018163
202	0x3bcaceb2	0.006189191
203	0x3bd6d7b1	0.006556474
204	0x3a71a848	0.0009218496
205	0xba7eccc3	-0.0009719843
206	0x3bafd323	0.0053657456
207	0x3b961a7e	0.004580795
208	0x3bf758f6	0.0075484468
209	0xbb241c31	-0.0025041217
210	0x3c35eab7	0.011103324
211	0xbba4c201	-0.00502801
212	0xbb6e65fc	-0.0036376705
213	0xbc8914cd	-0.016733551
214	0x3c23afb9	0.009990626
215	0x3c556e65	0.013026808
216	0x3b3274c8	0.0027230252
217	0xbbb39a4b	-0.0054810396
218	0xbb6507c4	-0.0034947256
219	0xbb993f26	-0.0046767173
220	0xbaad5547	-0.0013224267
221	0xbb7265c8	-0.0036986936
222	0x3b5c8bd7	0.0033652687
223	0x3b319fb3	0.0027103245
224	0xbc178989	-0.0092490995
225	0xbb28aae2	-0.002573662
226	0xbc743344	-0.014904801
227	0xbc1569c5	-0.009119456
228	0x3c08af7e	0.008342622
229	0x3ba986a0	0.0051735193
230	0x3a6204d8	0.00086219376
231	0xbbb3fbcf	-0.0054926644
232	0x3c63ced9	0.013904297
233	0x3a732957	0.00092758745
234	0xbc0e9fc4	-0.008705083
235	0xb8f627fd	-0.000117376425
236	0xbbed3cdd	-0.0072399215
237	0xbb85ef5a	-0.004087371
238	0x3ba7bfb2	0.0051192874
239	0xbb73712b	-0.003714631
240	0x3a82f47b	0.0009991074
241	0xbc48fba0	-0.012267023
242	0x3c190fc5	0.009342139
243	0x3c47df26	0.012199199
244	0x3be1e431	0.0068936576
245	0xbc0e61b2	-0.008690285
246	0x3a0d0766	0.00053798256
247	0x39bc835d	0.00035956028
248	0x3ad07b8e	0.0015905963
249	0x3c088a86	0.008333808
250	0xbbe0e75d	-0.006863518
251	0x3abecc8a	0.0014556807
252	0x3b50d884	0.0031867335
253	0x3ae4c4d8	0.0017453684
254	0xbbb935ee	-0.005652181
255	0x3b985c7c	0.004649697

action_model._discrete_distribution.branches.1.bias f4 [3]
0	0xba93037f	-0.0011216252
1	0x3a9ac60c	0.001180829
2	0x37d3cd82	2.5248857e-05

action_model._discrete_distribution.branches.1.weight f4 [3, 256]
0	0x3c11dabd	0.008902249
1	0xbc6b51b3	-0.01436274
2	0xbb228db7	-0.0024803707
3	0xbb37567a	-0.0027975128
4	0xbc3037fa	-0.010755533
5	0xbb09fcb7	-0.002105517
6	0x39b27b7b	0.00034042806
7	0x3c076097	0.008262775
8	0xbb3cb9c5	-0.002879725
9	0xba919e18	-0.0011109738
10	0xbc0708dc	-0.008241858
11	0x3b5ef3cb	0.0034019824
12	0xb98fdc58	-0.00027439254
13	0x3bbe027e	0.005798637
14	0xbb39512b	-0.002827714
15	0x3b8aef66	0.0042399643
16	0x3ba60402	0.0050663957
17	0x3b70dc63	0.0036752454
18	0x3c17dd7e	0.009269116
19	0xbb387e24	-0.0028151358
20	0xbb981f17	-0.004642378
21	0xba802732	-0.0009777306
22	0xbc1a5668	-0.009420015
23	0xbba6fb73	-0.005095893
24	0xba85a4cf	-0.0010196212
25	0xbc8c1a92	-0.017102513
26	0xbb58ef87	-0.0033101754
27	0xbb75e570	-0.0037520789
28	0x381408d6	3.529418e-05
29	0xb9c5b459	-0.00037709138
30	0x3be0b902	0.006857992
31	0xbb828955	-0.0039836564
32	0x3c064513	0.0081951795
33	0xbbb23fd7	-0.005439739
34	0xbaa87041	-0.0012850837
35	0xbb1d9b86	-0.0024048998
36	0xbb903742	-0.0044011185
37	0x3bba4d05	0.005685451
38	0xbb8e8f0a	-0.0043505477
39	0xb902bdc2	-0.00012468456
40	0xbc118c3b	-0.008883531
41	0x3b8b16ea	0.004244675
42	0xba184465	-0.00058085314
43	0x3b9a6b29	0.0047124815
44	0xbc2db91c	-0.010603216
45	0xbb3e5379	-0.0029041453
46	0x3b34250d	0.0027487904
47	0xbb2e10e5	-0.0026560363
48	0xbbda6266	-0.006664562
49	0xbb9fac2e	-0.0048728203
50	0x3b221a3f	0.0024734882
51	0xbbb1a31f	-0.005421057
52	0xbbe10345	-0.006866845
53	0x3bb09f92	0.005390116
54	0xbc2e1086	-0.010624057
55	0x3c0fc8f1	0.0087759355
56	0xbb717811	-0.0036845247
57	0xbc57ffb8	-0.013183527
58	0x37fd83c4	3.0221308e-05
59	0xbb1c1982	-0.0023818915
60	0x3a89388a	0.001046912
61	0x3aa3eb73	0.0012506082
62	0xbbd2c42f	-0.0064320783
63	0x3b822e00	0.003972769
64	0xbb99d943	-0.004695089
65	0x3b62b990	0.0034595467
66	0xbc0d0484	-0.008607034
67	0x3abdb167	0.0014472426
68	0xbbcff163	-0.006345914
69	0xbb89105d	-0.004182859
70	0x3a7ae51c	0.0009570883
71	0x3ab0cbcd	0.0013488472
72	0xbbbfed3d	-0.0058571384
73	0x3b0a2178	0.0021077078
74	0xbc34cbef	-0.01103495
75	0xbb584567	-0.0033000351
76	0xbc7884f4	-0.015168417
77	0x3b7b22b6	0.003832025
78	0xbbb0b4a0	-0.005392626
79	0xbbab2db4	-0.005223954
80	0x3b9a991c	0.004717959
81	0x3c7e9c1e	0.015540151
82	0x3a28ba18	0.00064364215
83	0xbbed1a37	-0.007235791
84	0xbbcb2f98	-0.006200742
85	0x3be08b24	0.0068525244
86	0x3bdcb0f3	0.006734961
87	0xbbe31979	-0.006930527
88	0x3ac5f395	0.00151025
89	0x3bc523f2	0.006016248
90	0x3b908e54	0.004411498
91	0xbbbf53a7	-0.0058388296
92	0xbb748c04	-0.00373149
93	0x3c1d1572	0.0095876325
94	0x3ba3fda6	0.0050046025
95	0xbb08d2a9	-0.0020877516
96	0xbbb6cbad	-0.0055784793
97	0xbb10f2f7	-0.0022117475
98	0xbb133e5c	-0.002246759
99	0xbc5f9e23	-0.013648543
100	0x3a2d89e8	0.0006619976
101	0x3c3dcbbb	0.011584218
102	0x3c73181d	0.014837292
103	0xbb953aa0	-0.004554108
104	0x3b862db7	0.004094805
105	0x3bba45e8	0.005684603
106	0x3b2ddcca	0.0026529306
107	0xbc959644	-0.018260129
108	0x3b60c5fe	0.00342977
109	0xba4ad9fd	-0.0007738171
110	0xbb17ef3a	-0.0023183362
111	0x3bf88e3e	0.007585316
112	0x3a0e0eaf	0.0005419058
113	0x3bef3eb8	0.007301178
114	0x3b244b72	0.0025069383
115	0x3b17682c	0.0023102863
116	0xba741a7d	-0.00093118084
117	0xbbeb85ad	-0.0071875663
118	0x3a5143fe	0.0007982849
119	0x3be550de	0.0069981655
120	0x3bb69897	0.0055723893
121	0x3c53cbbf	0.012926995
122	0x3bd02f8c	0.0063533243
123	0x3b8624ee	0.004093758
124	0x3a80f7de	0.0009839495
125	0x3a4d0c4b	0.0007821961
126	0x3c3f3b24	0.011671815
127	0x3b4db318	0.0031387266
128	0x3a856822	0.0010178129
129	0x3c5362b5	0.012901952
130	0xbc11dcaf	-0.008902713
131	0xbbd86c53	-0.00660471
132	0x3c3320c3	0.010933104
133	0x3b5a75b6	0.0033334321
134	0x3c72cd07	0.01481939
135	0x3b708e72	0.0036705998
136	0x390e0755	0.00013544907
137	0xbba3f8b6	-0.005004014
138	0xbc516dd4	-0.012782533
139	0xbaa05f0f	-0.0012235361
140	0xbc3b546e	-0.011433704
141	0xb9daf95e	-0.00041765993
142	0x3c8d3399	0.017236518
143	0x3ba9b4bd	0.0051790164
144	0xb9269d53	-0.00015889601
145	0x3ae073b2	0.0017124324
146	0xba866a44	-0.0010255058
147	0xba926e3b	-0.0011171767
148	0x3b94fb6c	0.0045465734
149	0xbb4d7a7b	-0.0031353522
150	0x3a238db2	0.0006239071
151	0x3b30b5bb	0.0026963789
152	0x3afa52f9	0.0019098214
153	0xbbc07b38	-0.005874064
154	0xbb86c6c3	-0.0041130497
155	0x3b26b4c0	0.0025437325
156	0x3abf3a9f	0.0014589614
157	0x3c1e31dd	0.009655443
158	0x3b0c60cb	0.0021419998
159	0xb986d693	-0.00025718342
160	0x3c87d1b0	0.016579479
161	0x3b8f1495	0.0043664672
162	0x3b09e76a	0.0021042475
163	0xbbe0cb1a	-0.006860149
164	0x3bf9e9d4	0.0076267514
165	0x3b227609	0.0024789593
166	0x3c144981	0.009050728
167	0xbb5a1026	-0.0033273785
168	0xba853137	-0.0010161762
169	0x3b1fefc4	0.0024404386
170	0xbbbb72c1	-0.005720467
171	0x3bf94025	0.0076065236
172	0xbbe281eb	-0.00691246
173	0xbb0c00e2	-0.002136283
174	0xbba9f955	-0.0051871934
175	0x3bd534d8	0.0065065436
176	0xbc0dbc0f	-0.008650794
177	0xbaf2a12e	-0.001851117
178	0x3b138e64	0.0022515291
179	0xbbb558e0	-0.0055342764
180	0xb8a81ed5	-8.016607e-05
181	0x3bb1bf30	0.0054244027
182	0xbc4f6de6	-0.012660479
183	0x3c12fd3b	0.008971508
184	0xbb76a167	-0.0037632824
185	0x3c38b63e	0.011273919
186	0xba26d942	-0.00063647714
187	0x3abd53a4	0.0014444483
188	0xbb92a65d	-0.0044753985
189	0x3be4ecd6	0.006986241
190	0xbb8c2907	-0.004277352
191	0x3c681967	0.014166213
192	0xbb3c1241	-0.0028697404
193	0x3a9e65ef	0.0012084822
194	0xbb52bd28	-0.0032156203
195	0x3bde0e56	0.0067766113
196	0x3b5a4e9f	0.0033311022
197	0xbb43309b	-0.002978361
198	0x3a03feba	0.00050352106
199	0xbc00db09	-0.007864722
200	0xbbd5f360	-0.0065292567
201	0xba8ca6b4	-0.0010730834
202	0x3c110ecf	0.008853628
203	0x3bea0e2a	0.007142802
204	0xbc261f97	-0.010139368
205	0xbc671095	-0.014103075
206	0x3a6866d4	0.000886542
207	0x3bad51f2	0.0052893097
208	0xbbaa1773	-0.0051907836
209	0xbb971511	-0.0046106656
210	0x3c08b31d	0.008343485
211	0x3b8fda2b	0.0043900213
212	0x3bc70192	0.0060731852
213	0xbaea45a4	-0.0017873538
214	0xba9fea7a	-0.0012200617
215	0x3c3240c8	0.010879703
216	0x3b90cdc1	0.004419059
217	0x3c4305d7	0.011903248
218	0x3be2f5f8	0.0069262944
219	0xbbb6dfe8	-0.005580891
220	0x3c27d645	0.010243957
221	0x3b294235	0.0025826816
222	0x3c5f7e99	0.013641023
223	0xbbb76d4f	-0.0055977474
224	0x3bc122dd	0.0058940486
225	0x3ba00233	0.0048830747
226	0xbba1d6be	-0.0049389293
227	0xbb380efa	-0.0028085099
228	0x3ad97182	0.0016589614
229	0x3c753540	0.014966309
230	0xbb90503f	-0.0044040973
231	0xbbc9256c	-0.0061384942
232	0x3c8d8010	0.017272979
233	0x3b7e870c	0.0038837818
234	0x3bc36280	0.00596267
235	0xbac2542b	-0.0014826109
236	0xbc6b710c	-0.014370214
237	0xbbb4d979	-0.005519089
238	0x3b81fea7	0.0039671245
239	0x3be5bf3e	0.0070113232
240	0xbb68f111	-0.0035544077
241	0xbba11b6e	-0.0049166
242	0xba6805b0	-0.0008850945
243	0x3815ede9	3.574594e-05
244	0xbbb42abf	-0.00549826
245	0x3b288999	0.002571678
246	0x3b4ce649	0.003126519
247	0x3c469076	0.012119403
248	0xbb4736f0	-0.0030397736
249	0xbc5495fb	-0.012975211
250	0xbb3996d7	-0.0028318667
251	0x3a17bffe	0.0005788802
252	0xbb341f73	-0.0027484566
253	0x3beb9970	0.007189922
254	0x3a878f84	0.0010342454
255	0x3ad06a73	0.0015900865

action_model._discrete_distribution.branches.2.bias f4 [3]
0	0xbb3ab6eb	-0.0028490375
1	0xbaa654ca	-0.0012690064
2	0x3b39de88	0.0028361399

action_model._discrete_distribution.branches.2.weight f4 [3, 256]
0	0xba857536	-0.0010182026
1	0xbc3cbb70	-0.011519298
2	0xba9636fe	-0.0011460481
3	0x3ba3efc5	0.005002948
4	0xbbd5c670	-0.0065238997
5	0xbbadd773	-0.0053052246
6	0xbad83e30	-0.0016498026
7	0xbb7a2944	-0.003817157
8	0x3c32d5e7	0.010915256
9	0x3c03441a	0.008011842
10	0x3c5d9663	0.0135246245
11	0xbad5bf13	-0.0016307555
12	0x3b97746d	0.0046220333
13	0x3c1c1d79	0.009528511
14	0xbbc62ff3	-0.0060481965
15	0xbc15939b	-0.00912943
16	0xbb7fff15	-0.0039061953
17	0xbb1ca12c	-0.0023899777
18	0xbabde088	-0.0014486471
19	0xbba1cc49	-0.0049376828
20	0x3c65804a	0.014007637
21	0x3c1e4f56	0.00966247
22	0xbbc8a28d	-0.006122893
23	0xbbeba6fe	-0.007191538
24	0xbba7ca0e	-0.0051205223
25	0xbbcc258a	-0.006230061
26	0x3b1a4aea	0.0023543187
27	0x3c291d83	0.010321978
28	0x3c066238	0.008202128
29	0xbb03afbc	-0.002009376
30	0x3c053a02	0.008131506
31	0xbc325f9f	-0.010887056
32	0xbb18e201	-0.0023328068
33	0x3bffd7df	0.0078077163
34	0x3c2986b5	0.010347058
35	0x3c8c4ed0	0.017127424
36	0x3b15d4be	0.00228624
37	0x3991a811	0.00027781774
38	0xbb7916d9	-0.0038008003
39	0x3b525335	0.0032093052
40	0xbbbc5eff	-0.005748629
41	0xbbe83889	-0.0070868176
42	0x394254b6	0.00018532839
43	0xbc0c6fa5	-0.00857154
44	0xbb01cd47	-0.0019806193
45	0x3bb58a6f	0.005540184
46	0xba1d484f	-0.00059998495
47	0xbbb2c629	-0.0054557514
48	0xbace7d5c	-0.0015753913
49	0xba70ff6f	-0.0009193336
50	0xba288dd9	-0.00064298284
51	0xbc0dcf8f	-0.008655443
52	0xbc062226	-0.008186853
53	0xbb166133	-0.002294612
54	0x3a95a310	0.0011416394
55	0xbb9db626	-0.0048129736
56	0xb9e86a76	-0.00044329808
57	0x3c4ece31	0.012622402
58	0xbaa394dd	-0.0012480278
59	0x3c31dc0a	0.010855684
60	0x3c0b2f5e	0.00849518
61	0xbb7c6848	-0.0038514305
62	0x3ad3e060	0.0016164891
63	0xbbad2c4d	-0.005284822
64	0xbc960038	-0.018310651
65	0xbc0cc919	-0.008592867
66	0xbb190e32	-0.0023354408
67	0x3c533079	0.012889975
68	0xbb0f198e	-0.00218353
69	0x3a019af3	0.00049440487
70	0x3b39b879	0.0028338714
71	0x3bd6a372	0.006550246
72	0x3c68545d	0.01418027
73	0xbb7f228c	-0.0038930504
74	0xbb78350c	-0.0037873415
75	0xbb343b7a	-0.002750127
76	0x3aef2ccb	0.0018247602
77	0x3b562e01	0.003268123
78	0x3b8c5801	0.004282952
79	0x39b673f7	0.00034800146
80	0x3c816ba2	0.015798394
81	0x3c296f9b	0.01034155
82	0xbc07babc	-0.008284267
83	0x3bc51c52	0.006015339
84	0x3b817fd6	0.003952007
85	0xbc20d3ab	-0.009816091
86	0xbb1b48f4	-0.0023694606
87	0xba2aa9ae	-0.00065102696
88	0xba743b27	-0.0009316676
89	0x3b1f2c57	0.0024287903
90	0xbb71bd4e	-0.0036886516
91	0x3c23c933	0.0099967
92	0x3c3e3f73	0.011611807
93	0xbba953ec	-0.005167475
94	0x3a7848a7	0.0009471275
95	0xbc25866d	-0.01010285
96	0x3ad5d03f	0.0016312673
97	0x3a1584e3	0.00057037006
98	0xbbef582c	-0.007304212
99	0x3bf0d48a	0.0073495554
100	0xbbdc66b3	-0.00672611
101	0xbc2dcb8c	-0.010607611
102	0xbb8df7b5	-0.0043325075
103	0xbafa03c7	-0.0019074612
104	0x3bad6ff6	0.005292888
105	0xb9b056aa	-0.00033633906
106	0xbc8c4fff	-0.017127989
107	0x3a41b5d2	0.0007389459
108	0xba165c2b	-0.000573578
109	0xbb98426f	-0.0046465914
110	0xbbd9d8c9	-0.0066481573
111	0xbb6f78ca	-0.0036540502
112	0x3c1f02c6	0.009705251
113	0xb91015b5	-0.00013740997
114	0xbba35cc8	-0.0049854256
115	0xbbaf854b	-0.005356466
116	0xbc0135d1	-0.007886366
117	0xba54328c	-0.000809469
118	0xbb893f96	-0.0041884882
119	0x3b3830ad	0.0028105185
120	0x3c0d11b7	0.008610181
121	0xbbe750fe	-0.0070592156
122	0x3c0c7ea9	0.00857512
123	0xbc2d2c90	-0.010569707
124	0xbc5c96c5	-0.013463681
125	0x3c134f98	0.008991145
126	0xbc1050e1	-0.0088083455
127	0x3b4c614d	0.0031185925
128	0xbbbd1fba	-0.0057716044
129	0xbbebcaf9	-0.007195827
130	0x3b70f559	0.0036767332
131	0x3b9ea6ab	0.0048416457
132	0x3bd29203	0.0064260974
133	0x3a5bcbe7	0.0008384571
134	0x3ba5e4d0	0.005062677
135	0x3b752239	0.0037404431
136	0xbae48a4b	-0.0017436234
137	0x3b64f7bc	0.00349377
138	0xbb234ff0	-0.0024919473
139	0x3c09f17d	0.008419392
140	0xbbe213e0	-0.006899342
141	0xba1cf349	-0.000598718
142	0x3be0eeff	0.006864428
143	0xbb137f78	-0.0022506397
144	0x3b0f0b94	0.002182697
145	0x3bfbdfc3	0.0076865866
146	0x3c7b7c03	0.015349391
147	0x3c6db3d1	0.014508204
148	0xbc2e95a8	-0.010655798
149	0xbbe66d0e	-0.0070320433
150	0x3c20e309	0.009819754
151	0xbbbfb5a5	-0.005850511
152	0x3b0f5214	0.002186899
153	0xbc8fc0e4	-0.017548032
154	0x3c08a735	0.0083406465
155	0x3b3ce941	0.0028825554
156	0x3a152252	0.0005689013
157	0x3a96660f	0.0011474508
158	0xbbadcf65	-0.0053042644
159	0x3b66abf4	0.0035197707
160	0xbba031ed	-0.004888764
161	0xbc151e3b	-0.009101446
162	0x3c3b6975	0.011438717
163	0xbbde5ea2	-0.0067861835
164	0xbb874eb6	-0.004129256
165	0xbbf54a55	-0.0074856677
166	0x3c5c496f	0.013445242
167	0xbc625478	-0.013814084
168	0xbbb7cc99	-0.0056091067
169	0xbc23d224	-0.009998832
170	0x3a8de424	0.0010825437
171	0xb8aa7741	-8.1284445e-05
172	0x3983015c	0.0002498728
173	0x3c402593	0.011727708
174	0xbb1b033d	-0.0023653053
175	0x3bb9dd92	0.005672165
176	0xbc36f650	-0.011167124
177	0x3bcb3450	0.0062013045
178	0xbc4a31f4	-0.012341011
179	0x3bc2eb1b	0.005948437
180	0xbab2407f	-0.0013599544
181	0xbad57974	-0.0016286806
182	0xbc792205	-0.015205865
183	0xbbb0d1f1	-0.0053961207
184	0xbbff3a14	-0.007788906
185	0x3ad8e4a7	0.0016547636
186	0xbb162a3f	-0.0022913364
187	0xbb29221b	-0.0025807682
188	0xbb7f7d23	-0.00389845
189	0xbadee307	-0.0017004915
190	0xbba31704	-0.004977109
191	0xbb91037c	-0.004425464
192	0xb9ff768d	-0.00048725717
193	0x3abd72fa	0.0014453821
194	0x3be1ca44	0.006890567
195	0xbc7d554a	-0.015462229
196	0xbb868e00	-0.004106283
197	0x3ad9c7df	0.0016615352
198	0x3c3b5b07	0.011435277
199	0xbb1d0d7b	-0.0023964334
200	0xbc063bc2	-0.008192958
201	0xbc7aefe6	-0.015315985
202	0xbbebaf23	-0.007192509
203	0x3c3aba48	0.011396952
204	0x3b3e7021	0.0029058533
205	0x3b2f85b3	0.0026782572
206	0x3b93d748	0.0045117475
207	0x3b191111	0.002335612
208	0xbc528fc5	-0.01285166
209	0x39959236	0.0002852843
210	0xbc8521a5	-0.016251395
211	0x3bb36136	0.005474235
212	0x3b3a3c19	0.0028417169
213	0xb7bbb791	-2.2377617e-05
214	0x38c4094a	9.3477385e-05
215	0x3c055b6f	0.008139475
216	0xbbc0a0f2	-0.005878561
217	0x3b9beef8	0.004758712
218	0x3b94dfab	0.004543265
219	0x3b228c44	0.0024802843
220	0xbb9fa907	-0.0048724446
221	0xbbaf8fda	-0.0053577246
222	0x3c604bb2	0.013689922
223	0xbbc58b66	-0.0060285805
224	0x3ad16f7f	0.0015978663
225	0xbc8d57e7	-0.01725383
226	0x3c57bf9b	0.013168241
227	0x3bb56d66	0.005536723
228	0xbb3cfee6	-0.0028838455
229	0xbc0d3ef0	-0.0086209625
230	0xbb8c7d43	-0.0042873933
231	0x3b717bb9	0.0036847426
232	0x3ae462b7	0.0017424439
233	0xbb675f6f	-0.0035304686
234	0xbaf4c37d	-0.0018673983
235	0x3b35a76a	0.0027718195
236	0xba56c0ee	-0.0008192201
237	0x3c4f90f3	0.012668836
238	0x3b5ef63e	0.0034021283
239	0xbbb3c5a6	-0.005486208
240	0xbb9d679a	-0.00480361
241	0x3a3462e8	0.0006881193
242	0x3b409339	0.0029384627
243	0xbc115e8a	-0.0088726375
244	0x3bad4c63	0.005288647
245	0xbb89ab0b	-0.004201298
246	0x3b47c64a	0.003048318
247	0x3bc57863	0.006026314
248	0xbbba9b34	-0.005694771
249	0x3af2a6d5	0.0018512855
250	0xbc497e0e	-0.01229812
251	0x3c63df61	0.013908238
252	0x3c26ac75	0.010172953
253	0xb948ce88	-0.00019150425
254	0xbbe7910c	-0.0070668515
255	0x3c19129c	0.009342816

action_model._discrete_distribution.branches.3.bias f4 [2]
0	0xba9c5f8e	-0.0011930333
1	0x3a9c5f8c	0.0011930331

action_model._discrete_distribution.branches.3.weight f4 [2, 256]
0	0x3b5ab5ef	0.00333726
1	0xbb7b61b3	-0.0038357794
2	0xb9ca1210	-0.000385419
3	0xba4d287b	-0.00078261615
4	0xbbfe1ccf	-0.007754899
5	0x3aef491e	0.0018256044
6	0xbb9083ff	-0.0044102664
7	0x3c3adb54	0.011404831
8	0xbbbf043e	-0.005829363
9	0x3c5adb40	0.013357937
10	0xbb15fd6e	-0.0022886652
11	0xbbb7acd7	-0.005605321
12	0x3b2e702e	0.0026617157
13	0x3bf1323f	0.007360726
14	0xbc092749	-0.008371183
15	0xba81144e	-0.000984797
16	0xbbbc6618	-0.005749475
17	0x3c5f8506	0.013642555
18	0xbb3bb6ee	-0.002864297
19	0xb96a34aa	-0.00022335598
20	0xba89d506	-0.0010515756
21	0x3b98d43d	0.0046639726
22	0x3bb29d55	0.0054508843
23	0x3bbc78f5	0.005751724
24	0xba5482d0	-0.0008106651
25	0xbb8a54d0	-0.004221536
26	0x3c1f8feb	0.009738903
27	0x3b4b4915	0.0031018902
28	0x3c27d879	0.010244482
29	0xbc7aee57	-0.015315614
30	0xbbc7cea5	-0.006097632
31	0x3b409280	0.0029384196
32	0xbb111a56	-0.0022140942
33	0x3bbb4674	0.005715186
34	0xbbc1a2d1	-0.005909302
35	0xbc092894	-0.008371491
36	0xbc32df1c	-0.010917451
37	0xba5ae1f3	-0.0008349709
38	0x3b6d324b	0.0036193307
39	0xbbda3c90	-0.0066600516
40	0x3ba6fcc1	0.0050960486
41	0x3c176ee2	0.009242745
42	0xbb5dc383	-0.0033838458
43	0x3b62cc1c	0.0034606522
44	0x3b243eea	0.0025061914
45	0xbb157675	-0.0022806202
46	0xb9c05447	-0.00036683885
47	0x3ab9f4ae	0.00141873
48	0x3bcac770	0.0061883256
49	0xbc0c0682	-0.008546473
50	0xbbf92131	-0.0076028337
51	0x3bd68141	0.00654617
52	0xbbeb13da	-0.0071739974
53	0x3bdbe58e	0.0067107147
54	0xbb664a65	-0.0035139557
55	0x3ab68f05	0.0013928121
56	0xbbe9ca25	-0.007134693
57	0x3964a1c1	0.00021804032
58	0xbc2fbb55	-0.010725816
59	0x3c366ddf	0.011134594
60	0x3bc2a761	0.0059403633
61	0x3bca8936	0.0061809076
62	0x3aa156b0	0.001230916
63	0xba0de990	-0.00054135267
64	0x3c2ba08d	0.01047529
65	0xbb8ae041	-0.004238159
66	0x3b45cc5d	0.0030181624
67	0x3b3fb828	0.0029254053
68	0xbc1cc706	-0.009568935
69	0x3b8ade53	0.004237929
70	0x3aa50c3a	0.0012592145
71	0x3a8d4b11	0.0010779818
72	0x3b970d85	0.004609766
73	0x3b6a7e06	0.0035780682
74	0xbba92f6c	-0.005163124
75	0xbbde213d	-0.0067788647
76	0xbc2237cc	-0.009900998
77	0xbc0556d1	-0.008138374
78	0xbc0e904d	-0.008701396
79	0xbbb21090	-0.0054341033
80	0xbaff3551	-0.0019470846
81	0x3aac0bb8	0.0013126051
82	0x3be3d46e	0.006952814
83	0xbb6a86e9	-0.003578598
84	0xbb9cc629	-0.0047843647
85	0xbb24607a	-0.0025081919
86	0xbb15b17a	-0.002284138
87	0xbb4b3881	-0.003100902
88	0x3b6aea19	0.00358451
89	0x3bf5072f	0.007477663
90	0x3b5f2ed5	0.0034055014
91	0x3bc162ef	0.0059016864
92	0x3ba88b2b	0.0051435432
93	0xbb9da884	-0.0048113484
94	0x3bcdb40c	0.006277567
95	0xbb504970	-0.0031782053
96	0x3b4c6c88	0.003119262
97	0x3b18f8ab	0.0023341577
98	0xbb286381	-0.0025694075
99	0xbc16fff0	-0.009216294
100	0x3b3365d7	0.0027373934
101	0x3c05d5d4	0.008168656
102	0xbaccf642	-0.0015637355
103	0x3c00a340	0.007851422
104	0x3bbc363c	0.00574377
105	0xbc2028da	-0.009775365
106	0xbb7a3a0d	-0.0038181574
107	0x3b59e4ee	0.0033248025
108	0x3a228045	0.0006198923
109	0x3bed4d5b	0.0072418875
110	0xbc21f5e4	-0.009885285
111	0x3a8cc2a7	0.0010739163
112	0x3bd4f417	0.0064988243
113	0x3bcba284	0.0062144417
114	0x3a9db9f7	0.0012033571
115	0x3bd8e492	0.0066190446
116	0xbc045156	-0.008076033
117	0xba8fc5c7	-0.0010968976
118	0xb888946b	-6.51263e-05
119	0xbc03c1d6	-0.00804182
120	0xbb36d0cd	-0.002789545
121	0xbbe3a960	-0.0069476813
122	0x3b2767f1	0.0025544132
123	0x3c41bc08	0.011824615
124	0xbc00c40a	-0.007859239
125	0xbb7332f7	-0.0037109235
126	0x3bae7297	0.005323719
127	0x3b0e2815	0.0021691371
128	0x3a02563c	0.00049719564
129	0x3abe7b84	0.001453266
130	0xbc271425	-0.010197674
131	0xbbfb0239	-0.007660177
132	0x3c71a7cd	0.0147494795
133	0xbb452019	-0.0030078946
134	0x3c5cfba5	0.013487731
135	0x3b40c8b0	0.0029416494
136	0x3b08a4ea	0.002085025
137	0x3b193b59	0.0023381321
138	0x3a6316c4	0.0008662755
139	0x3ac57630	0.001506513
140	0xbb5845df	-0.003300063
141	0x3c149122	0.0090678055
142	0x3be3450a	0.0069357203
143	0xbba2e183	-0.0049707307
144	0xbbf3b21d	-0.0074370042
145	0xbc2aec25	-0.010432278
146	0xbaf05525	-0.0018335922
147	0xbc4a3797	-0.012342355
148	0x3c8b91af	0.01703724
149	0xbbe7e864	-0.0070772637
150	0xbb909293	-0.0044120043
151	0xbc19f393	-0.0093964515
152	0x3b784317	0.0037881786
153	0xbbf10d84	-0.0073563475
154	0x3c353007	0.011058814
155	0x3c347923	0.011015209
156	0x3c1a344c	0.009411883
157	0xbba1133e	-0.004915624
158	0xbb0079b1	-0.0019603784
159	0xbc07d5b2	-0.008290695
160	0xbc2826a5	-0.01026312
161	0xbc8a0b93	-0.016851222
162	0xbb835fdf	-0.0040092315
163	0xbb2d7cb2	-0.002647203
164	0x3a891962	0.0010459835
165	0x3c2ee3fa	0.010674471
166	0x3bc49699	0.005999398
167	0xbae4d932	-0.0017459749
168	0xbba1e758	-0.0049409084
169	0x395bb7db	0.00020953959
170	0x3b658d0e	0.0035026702
171	0x3b5c62d4	0.0033628242
172	0xbb9f0851	-0.0048532863
173	0xbbd5d613	-0.006525764
174	0x3bdd168e	0.0067470735
175	0xbb851f8b	-0.004062598
176	0x3b45f538	0.0030205976
177	0xbba75b9c	-0.0051073562
178	0x38d8f366	0.00010345019
179	0xbb9d0e2e	-0.00479295
180	0x3aaf5d8d	0.0013379321
181	0xbba9ee53	-0.005185881
182	0xbc393920	-0.011305124
183	0x3aaf6828	0.0013382481
184	0x3c1e2269	0.009651759
185	0x3b3c19d3	0.0028701916
186	0x3bc60d38	0.0060440563
187	0xb85b7bfe	-5.2329146e-05
188	0xbbbe0ddf	-0.0057999934
189	0xbb89b9c4	-0.004203053
190	0x3b46e9a6	0.0030351668
191	0xbb58947e	-0.0033047493
192	0x3c301458	0.010747038
193	0x3a8a6804	0.0010559564
194	0x3b03a95b	0.0020089957
195	0x3c77fcf2	0.01513599
196	0xbc374602	-0.011186125
197	0x3a7e4b89	0.00097005867
198	0x38316e9b	4.2303098e-05
199	0x3c1eeb17	0.0096996045
200	0xbb986236	-0.0046503795
201	0x3bd7adfa	0.006582019
202	0xbc37e11a	-0.011223102
203	0x3c62a925	0.0138342725
204	0xbb109f10	-0.0022067465
205	0xbbbaeb57	-0.005704324
206	0xbb531af6	-0.0032212115
207	0xbc017e8d	-0.007903707
208	0xbb636d31	-0.0034702534
209	0xbb488a7c	-0.0030600121
210	0xbc061f04	-0.008186106
211	0xbb3be634	-0.0028671147
212	0x3c63e7d4	0.013910253
213	0xbb4b5cb7	-0.0031030604
214	0x3b24b512	0.002513234
215	0xbc42103d	-0.011844692
216	0x3c222e8b	0.009898792
217	0xbb377f05	-0.0027999294
218	0xbb8edc36	-0.0043597473
219	0x3b49db33	0.003080082
220	0xbb8d1b95	-0.0043062665
221	0xbb6b5b50	-0.003591258
222	0x3bd35422	0.0064492384
223	0xbbedaaeb	-0.007253041
224	0x3ba45776	0.005015309
225	0xbb619eaa	-0.0034426847
226	0x3b2762d4	0.0025541084
227	0x3a7b1f92	0.00095795945
228	0xbb9243c8	-0.0044636466
229	0xbbba094b	-0.0056773773
230	0xbba155e9	-0.0049235714
231	0xba92ba8b	-0.001119451
232	0xbb8bd668	-0.0042675026
233	0xbbba259d	-0.0056807534
234	0xb9951f35	-0.00028442746
235	0x3b323216	0.0027190498
236	0xbb72b97d	-0.003703683
237	0x3c380069	0.011230567
238	0x3ac228be	0.0014813168
239	0xbc004e90	-0.007831231
240	0xba2a23fc	-0.00064903474
241	0x3b323327	0.0027191134
242	0x3b516e6f	0.0031956693
243	0xbc96c459	-0.018404173
244	0x3aa80a60	0.0012820475
245	0x3aef7e21	0.0018271842
246	0xbb89a28d	-0.0042002858
247	0x3c1c0ea6	0.009524977
248	0xbb689442	-0.003548876
249	0xb9f2ea2d	-0.00046332311
250	0xbb34df76	-0.0027599013
251	0xb92af532	-0.00016303806
252	0xbc3f6655	-0.011682113
253	0xbc0e04b5	-0.008668114
254	0xbbcbf929	-0.0062247706
255	0x3c165048	0.009174414

discrete_action_output_shape f4 [1, 4]
0	0x40400000	3.0
1	0x40400000	3.0
2	0x40400000	3.0
3	0x40000000	2.0

network_body._body_endoder.seq_layers.0.bias f4 [256]
0	0x3aebb4c2	0.0017982947
1	0x3b80a6b1	0.003926121
2	0xbaa1dcbd	-0.001234911
3	0xba4db48c	-0.0007847033
4	0x3ac366c7	0.0014907949
5	0xba8d603f	-0.001078613
6	0x3b0fd70b	0.0021948244
7	0x396ab03e	0.00022381634
8	0x3b9325d8	0.0044905953
9	0x37740271	1.4544102e-05
10	0x3916f0e6	0.00014394856
11	0x39312d13	0.00016896827
12	0xb96f41e2	-0.0002281736
13	0xbabfa96b	-0.0014622634
14	0xbaf3f50c	-0.0018612458
15	0xba88d534	-0.0010439516
16	0xbadf62ca	-0.0017042991
17	0xbab70de4	-0.0013965932
18	0xba6110e4	-0.0008585586
19	0x3afb6a1a	0.0019181401
20	0x395018a6	0.00019845608
21	0xbb0de3bd	-0.0021650635
22	0x3ae64ccb	0.0017570494
23	0x3ad38364	0.001613718
24	0xbada5630	-0.0016657766
25	0xba68ced6	-0.00088809186
26	0x3b50d540	0.0031865388
27	0x3ad9a660	0.001660537
28	0x3b0fbd0f	0.0021932756
29	0xba91de70	-0.0011128914
30	0x3b360d6a	0.0027778991
31	0x3b097d82	0.002097935
32	0xbb35fcbb	-0.0027769047
33	0x3a82c226	0.0009976074
34	0xba1c6425	-0.00059658504
35	0x38f067f2	0.00011463453
36	0xbb383551	-0.002810795
37	0x3a5d24db	0.0008435973
38	0x3a171098	0.00057626655
39	0xba877eeb	-0.0010337507
40	0xba802b3f	-0.0009778513
41	0x39855997	0.00025434486
42	0x3acdff53	0.0015716351
43	0x3b59592c	0.0033164723
44	0x3994c5f7	0.00028376255
45	0xb97427dc	-0.00023284502
46	0x39fd229a	0.000482817
47	0x3b15b302	0.0022842293
48	0x3b1c3783	0.0023836799
49	0x3a0fc32d	0.00054841005
50	0xba6551a7	-0.0008747824
51	0xbb0a5d26	-0.002111265
52	0x3b724aeb	0.0036970924
53	0x3b2edccf	0.0026681905
54	0xba918782	-0.0011103007
55	0xbaa93122	-0.001290832
56	0x3ab1973e	0.0013549102
57	0xbb280843	-0.002563969
58	0x3a1d8408	0.0006008749
59	0xbb08964f	-0.0020841544
60	0x3b2b2dda	0.002611986
61	0x3a77eae8	0.0009457306
62	0xbabbdf58	-0.0014333529
63	0x3a9064b3	0.0011016339
64	0x3b849229	0.004045744
65	0x3b3dd803	0.0028967864
66	0x3a532362	0.00080542837
67	0xb992fcda	-0.0002803568
68	0x3b5f1edd	0.0034045496
69	0xbb0b3804	-0.0021243105
70	0x3b589607	0.0033048408
71	0xbb410a92	-0.0029455763
72	0x3ae33946	0.0017335794
73	0xbab81ecc	-0.0014047264
74	0x3aa6956c	0.0012709326
75	0xb9998738	-0.0002928318
76	0x39471fba	0.00018989938
77	0x3b0f1e1c	0.0021838015
78	0xba60fe0f	-0.00085827796
79	0xbaea67ad	-0.0017883681
80	0x39cd81ed	0.0003919745
81	0xbb35f908	-0.0027766842
82	0x3a7dd3b2	0.0009682729
83	0xbb689f54	-0.0035495358
84	0x3aee4570	0.0018178653
85	0x3ae45680	0.0017420799
86	0xbb20617a	-0.0024472163
87	0xbadc0e27	-0.0016788886
88	0x3a9ea2a8	0.0012102919
89	0xba4b2893	-0.00077498815
90	0x3b149010	0.0022668876
91	0xbad6cc3f	-0.0016387774
92	0x3aca23df	0.0015422067
93	0xbb69a663	-0.0035652153
94	0x3b36d242	0.002789632
95	0xbaa6a469	-0.0012713793
96	0x3b194c20	0.0023391321
97	0x39a7aff6	0.00031983823
98	0xbaa40db4	-0.0012516291
99	0xba3bde2c	-0.000716659
100	0xbb15a2cf	-0.0022832637
101	0x3b26db61	0.002546035
102	0x3a26b83c	0.00063598505
103	0x399e05c4	0.00030140404
104	0x3b26758f	0.002539966
105	0x3a45eb80	0.0007550046
106	0x3b276b02	0.002554596
107	0x3968ac72	0.00022189485
108	0x3b265882	0.0025382345
109	0x3b07c10d	0.0020714432
110	0x3a014432	0.00049311214
111	0xb99b2294	-0.00029589667
112	0x3b02d179	0.0019961281
113	0x39ae9355	0.00033297637
114	0x3adaf603	0.0016705397
115	0x3b1a92ef	0.0023586114
116	0x3b5067e2	0.00318002
117	0x3b7df48e	0.0038750502
118	0x3b626919	0.0034547506
119	0xbb65e0ce	-0.003507662
120	0xba80739b	-0.0009800078
121	0x39a41ea8	0.00031303358
122	0xb93116cd	-0.0001688853
123	0x3b3c8b5e	0.0028769593
124	0xb92f9268	-0.00016743841
125	0xbb1e54cf	-0.0024159437
126	0x39b94d74	0.00035343657
127	0x39edd1cc	0.00045360473
128	0xbb12799a	-0.0022350312
129	0x3af8908c	0.0018963977
130	0x397f9e6a	0.00024377709
131	0x38d03051	9.9272125e-05
132	0xbb80d258	-0.003931325
133	0xba9a6c49	-0.0011781539
134	0xb924be1a	-0.00015711077
135	0x3b326437	0.0027220377
136	0x3afee972	0.0019448234
137	0xb8d330d1	-0.00010070357
138	0xbb3b1254	-0.002854486
139	0x39fcdb29	0.00048228473
140	0x3a246f19	0.00062726584
141	0x3ae71954	0.001763145
142	0x3a08c22a	0.0005216921
143	0x39ddc48c	0.00042298844
144	0xba89ef0b	-0.0010523511
145	0xbb4ceb27	-0.0031268091
146	0x3added5a	0.0016931698
147	0x3aeba07d	0.0017976906
148	0x3af27137	0.0018496875
149	0x3a6ae11f	0.0008959937
150	0xbaa793cb	-0.0012785135
151	0x3a2b0bd0	0.00065248925
152	0x39c2c4a7	0.0003714908
153	0xbab037ab	-0.0013444325
154	0x392060b0	0.00015294808
155	0x3ac06784	0.0014679288
156	0x3b8e8318	0.0043491237
157	0x3b165ee0	0.0022944734
158	0x3a4248b9	0.0007411349
159	0xbb6a078b	-0.0035710062
160	0xbb303864	-0.002688908
161	0xbaa84b0b	-0.0012839747
162	0x38a4ec9a	7.8642e-05
163	0x3a9216de	0.0011145731
164	0x3b1c913d	0.002389028
165	0xba11bbac	-0.00055592763
166	0xb95fc806	-0.00021341452
167	0xb99320f6	-0.00028062583
168	0x3b3366c8	0.0027374495
169	0xbb3ca456	-0.0028784475
170	0x3b3c16dc	0.0028700149
171	0xbad9fd12	-0.0016631207
172	0x3ac43a92	0.0014971069
173	0x3b15631c	0.002279467
174	0x3b0dc277	0.0021630803
175	0x3b74d577	0.003735868
176	0x3a945232	0.0011316
177	0x3a0786a0	0.0005169902
178	0xba163fef	-0.0005731573
179	0x3b6ea7f1	0.003641602
180	0xbb6aaf57	-0.0035810077
181	0x3aa1a290	0.0012331773
182	0xbab4c7ec	-0.0013792492
183	0xbabfaa07	-0.0014622816
184	0x3b51b09d	0.003199614
185	0xbb209ec2	-0.002450869
186	0xbaf34f5b	-0.0018563078
187	0xbb382c2b	-0.0028102498
188	0xba1341ed	-0.00056174287
189	0x3a229ce1	0.00062031863
190	0x388f5947	6.8354006e-05
191	0xbb4e0cc0	-0.0031440705
192	0xbb3d2597	-0.0028861517
193	0xba2f983b	-0.00066984043
194	0x3b64dcbb	0.0034921605
195	0x3a1a5502	0.0005887301
196	0xbb32d999	-0.0027290343
197	0x3b5d1f08	0.003374042
198	0x3b545f4c	0.0032405434
199	0x3ab0336d	0.001344306
200	0x3a94cf65	0.0011353312
201	0x3ae2f0c1	0.0017314182
202	0xb9c21c48	-0.00037023635
203	0x3b1e9009	0.0024194738
204	0xba198c95	-0.0005857435
205	0xb9205da3	-0.00015293671
206	0x3a6d5299	0.00090531405
207	0x3adf7d28	0.0017050849
208	0x3b10d5e7	0.0022100152
209	0x39ef257f	0.0004561357
210	0xb976b85f	-0.00023529072
211	0x3aeb94d9	0.0017973437
212	0xba918a0c	-0.0011103763
213	0x3a34c749	0.0006896151
214	0xba51dce2	-0.00080056314
215	0x39745c95	0.00023304143
216	0xba512f7e	-0.0007979794
217	0x3b37d325	0.0028049436
218	0x3a9d76fc	0.001201361
219	0xb963b739	-0.00021716663
220	0xba8f6845	-0.0010941109
221	0x394001da	0.00018311237
222	0xbabd1477	-0.0014425655
223	0xbb368aa1	-0.0027853625
224	0xb9a7fa04	-0.00032038998
225	0xb94f430f	-0.0001976604
226	0xbaa64ec9	-0.0012688275
227	0x3aa833e3	0.0012832846
228	0x3aa3da20	0.0012500919
229	0xb90ae3fa	-0.00013245633
230	0x3b6d58a4	0.0036216164
231	0x3a4c977a	0.0007804554
232	0x3a5291ee	0.00080326095
233	0x3afe070b	0.0019380761
234	0x3a720231	0.0009231894
235	0x3a85cfd5	0.0010209033
236	0xbab1b86a	-0.0013558988
237	0x3ab63a32	0.0013902842
238	0x3b28a655	0.0025733907
239	0x3ab44b2e	0.0013755315
240	0x3a0ec8e5	0.0005446806
241	0xb99fc0c0	-0.00030470453
242	0xbb14e32d	-0.0022718415
243	0x3a1b7478	0.0005930136
244	0x3b848437	0.0040440816
245	0x3b1da043	0.0024051822
246	0xbac69984	-0.0015151952
247	0xb9faaeea	-0.00047814037
248	0x3b28994b	0.0025726135
249	0x3b1560ac	0.0022793217
250	0xbab3d490	-0.0013719965
251	0xbae351b4	-0.0017343075
252	0x3b2f5faf	0.0026759913
253	0x3b50c637	0.0031856427
254	0x3b920b90	0.0044569448
255	0xb9cdd425	-0.00039258707

network_body._body_endoder.seq_layers.0.weight f4 [256, 11]
0	0x3f44284d	0.76623994
1	0xbd9430bc	-0.07235858
2	0xbd8a50a9	-0.06753666
3	0x3e91aa1a	0.2845009
4	0xbf250f19	-0.6447616
5	0xbd1a7bf8	-0.037715882
6	0x3ececfbb	0.4039286
7	0x3d25373c	0.04033588
8	0x3e647d97	0.22313534
9	0x3e8b10e4	0.27161324
10	0xbe3055de	-0.17220256
11	0x3e38d1f2	0.18048838
12	0x3c985c63	0.01859874
13	0x3ec8e73a	0.39238912
14	0x3e4d2f5c	0.20037597
15	0x3df06f86	0.117400214
16	0xbea8ba8a	-0.32954818
17	0x3d53b1b8	0.051683158
18	0x3e0858a6	0.13315067
19	0x3cd5fc38	0.026121244
20	0x3e52e83c	0.20596403
21	0xbe43437a	-0.19068709
22	0x3e3a2f6d	0.18182154
23	0xbe12a919	-0.14322318
24	0x3ec96885	0.39337555
25	0x3d06d478	0.03291747
26	0xbe63c70b	-0.22243898
27	0x3cbf20a9	0.023331003
28	0xbe022a6f	-0.127115
29	0xbe82cacd	-0.2554535
30	0x3dabc02f	0.083862655
31	0xbe4cf0f0	-0.20013785
32	0xbe714710	-0.23562264
33	0x3ea0d8b0	0.3141532
34	0xbd87a8ee	-0.06624018
35	0x3da92ebe	0.082608685
36	0x3e2993a8	0.16560233
37	0xbe882a1d	-0.2659463
38	0xbe41cb17	-0.18925129
39	0xbe11c312	-0.1423457
40	0xbd31dd98	-0.04342422
41	0x3d9066de	0.0705087
42	0xbd8616f9	-0.065473504
43	0x3b0377a0	0.0020060316
44	0x3cc9a9a8	0.024617031
45	0x3e76b11f	0.24091004
46	0xbd176652	-0.036962815
47	0x3e11099c	0.14163822
48	0xbeabacee	-0.33530372
49	0xbf36c970	-0.7140112
50	0x3ea37cd4	0.31931174
51	0xbf160a3f	-0.58609384
52	0xbe812a9f	-0.2522783
53	0xbe822c3b	-0.2542437
54	0xbd5256f3	-0.051352452
55	0xbe635d73	-0.22203617
56	0x3df25956	0.11833446
57	0x3ec9d708	0.39421868
58	0xbe8bd9e4	-0.27314675
59	0x3dd1d269	0.10245211
60	0xbdcd73b1	-0.10031832
61	0x3e9a34c6	0.30118388
62	0xbde47466	-0.11155014
63	0xbf467c0f	-0.7753305
64	0xbe58d302	-0.21174243
65	0x3dceafa0	0.100920916
66	0xbd7aae76	-0.061201535
67	0xbdb7292b	-0.08943399
68	0x3d8e581a	0.06950398
69	0xbf1a0a8a	-0.6017233
70	0xbe21d807	-0.15805064
71	0x3dbfd4f6	0.09366791
72	0xbcd32846	-0.02577604
73	0xbd80faf9	-0.06297869
74	0x3d16bb7d	0.036799897
75	0x3d34ad7d	0.044110764
76	0x3e898d7e	0.26865762
77	0xbe56fe26	-0.20995387
78	0xbcff180e	-0.0311394
79	0xbed04a05	-0.40681472
80	0x3f0661e3	0.52493113
81	0xbea46dd6	-0.32115048
82	0x3dc51579	0.09623236
83	0xbd052b96	-0.03251227
84	0x3ce50cbe	0.027960178
85	0xbf48a443	-0.78375643
86	0xbdc64480	-0.09681034
87	0xbf0db2cf	-0.55350965
88	0x3e9237d5	0.2855822
89	0x3e2da0e2	0.16955903
90	0x3e2a0d83	0.16606717
91	0xbe6b2126	-0.22961864
92	0x3e89f951	0.26948026
93	0xbf0215f3	-0.5081474
94	0x3e8ca2de	0.27468008
95	0xbeb6f1b0	-0.35731268
96	0xbde58cd3	-0.11208501
97	0xbd9c60b2	-0.07635631
98	0x3e79199d	0.24326177
99	0xbe146bc4	-0.14494234
100	0x3d36c712	0.044623442
101	0x3cb58952	0.022160206
102	0x3c2a3938	0.010389619
103	0xbeb508f1	-0.35358384
104	0xbe7faa30	-0.24967265
105	0xbf13bbdf	-0.57708544
106	0xbee9ed6d	-0.45688954
107	0x3e9b23fa	0.30300885
108	0x3ea55a49	0.32295445
109	0xbdd95c92	-0.106133595
110	0xbd4e78cb	-0.050408166
111	0xbe1096b4	-0.14119989
112	0xbbb067b6	-0.005383457
113	0x3c9a2a16	0.018818896
114	0xbe8a93b0	-0.27065802
115	0xbe43689c	-0.19082874
116	0x3e700364	0.23438793
117	0xbcdd89d3	-0.027043259
118	0x3d67f627	0.056631234
119	0x3e2a3bc8	0.16624367
120	0x3e36f92e	0.17868492
121	0x3d7d3f68	0.061828047
122	0xbbe7d225	-0.0070746117
123	0x3df2c0c6	0.11853175
124	0xbd510134	-0.051026538
125	0x3e530809	0.20608534
126	0xbdf78d0c	-0.120874494
127	0xbeb00ec6	-0.3438627
128	0x3e2153b1	0.15754582
129	0xbea54ef5	-0.32286802
130	0x3e17850f	0.14796852
131	0x3e8ee696	0.27910298
132	0x3dcc9517	0.09989374
133	0x3e338bf9	0.17533864
134	0xbe794c4a	-0.24345508
135	0xbde2193a	-0.11039968
136	0xbdb2d9bb	-0.08732935
137	0x3e589791	0.21151568
138	0xbdd68dff	-0.10476302
139	0x3debcb0f	0.1151334
140	0xbe49b153	-0.1969655
141	0xbdbca0de	-0.092103705
142	0x3b5408b8	0.003235383
143	0x3e37c276	0.17945275
144	0xbd854b7b	-0.065085374
145	0xbe83ebbb	-0.25765786
146	0xbe6d952a	-0.23201433
147	0xbedb17bd	-0.42791548
148	0x3ec5c2ec	0.38625276
149	0xbefd10f7	-0.49427006
150	0x3ec81864	0.3908111
151	0x3f01f700	0.5076752
152	0xbe9aeeb0	-0.3026023
153	0x3e69838c	0.22804087
154	0xbf39282b	-0.72326916
155	0x3edcb4fe	0.43106836
156	0xbf15727a	-0.583778
157	0x3e94f46a	0.29092723
158	0x3e1f1d3a	0.15538493
159	0xbe9b511b	-0.30335316
160	0xbf0dd458	-0.55402136
161	0x3e4d90f3	0.20074825
162	0x3d9740af	0.07385384
163	0x3cbb15ee	0.022837605
164	0x3dc0b81f	0.09410118
165	0x3ddb4dc1	0.1070819
166	0x3ea56254	0.3230158
167	0x3d411541	0.04713941
168	0x3dcbb18e	0.09945975
169	0x3eabea6b	0.33577284
170	0xbf00d1f4	-0.50320363
171	0x3e328a71	0.17435624
172	0xbe71c704	-0.23611075
173	0xbdaac4f5	-0.08338348
174	0xbe8428fa	-0.25812513
175	0x3ee4eb71	0.44710878
176	0x3ec796c7	0.3898222
177	0x3de4b229	0.11166794
178	0x3e1f21e4	0.15540272
179	0xbce0347e	-0.02736878
180	0x3d395e86	0.04525616
181	0xbd30e71e	-0.04318916
182	0xbecd7cfd	-0.4013442
183	0x3e4e1847	0.20126449
184	0xbd41032e	-0.047122173
185	0x3ec2af98	0.38024592
186	0x3e96d11a	0.29456407
187	0x3e932e7e	0.28746408
188	0xbe50f4ed	-0.20405932
189	0xbe0e6b18	-0.1390804
190	0xbed3dedd	-0.4138097
191	0x3e8467ac	0.25860345
192	0xbede406b	-0.43408522
193	0x3d27cd0d	0.040967036
194	0xbecef45d	-0.4042081
195	0xbe326d5b	-0.17424528
196	0xbe70b27e	-0.2350559
197	0xbe3538cd	-0.17697449
198	0xbe3ed28a	-0.18635002
199	0xbdcd229a	-0.10016365
200	0xbf60e4b9	-0.87849003
201	0x3dfa0c6f	0.12209403
202	0x3ec0e68d	0.37675896
203	0x3dfcb915	0.12339989
204	0xbe196f30	-0.14983821
205	0x3cd5e252	0.026108894
206	0xbf0b4fbc	-0.5441854
207	0x3d5c92ff	0.053851124
208	0xbe5923da	-0.21205083
209	0xbe60b8c3	-0.21945481
210	0x3eaeb208	0.34120202
211	0x3df8e159	0.12152357
212	0x3e662b67	0.22477494
213	0xbeeef453	-0.4667078
214	0x3f23dcaa	0.6400858
215	0xbee6bf49	-0.45067814
216	0x3ee8fe88	0.45506692
217	0x3dbd844a	0.09253748
218	0x3de4d8ff	0.11174201
219	0x3e2428da	0.16031209
220	0xbe5d07e9	-0.21585049
221	0xbd98ec58	-0.07466954
222	0x3e9eebb6	0.31039208
223	0xbdf0c694	-0.11756626
224	0x3d3e8d21	0.04652131
225	0x3e47e106	0.19519433
226	0xbe6cffa2	-0.23144391
227	0xbdbe421e	-0.092899546
228	0x3f0d0fb0	0.5510206
229	0x3e7579a0	0.23972178
230	0xbdfe481a	-0.12416096
231	0x3e78134d	0.24226113
232	0x3e9ad4af	0.3024039
233	0xbdec9fe7	-0.115539365
234	0x3e63a01a	0.22229043
235	0x3b640680	0.0034793913
236	0x3e6357d2	0.2220147
237	0xbeae34ef	-0.3402476
238	0x3dab80c6	0.08374171
239	0x3c443823	0.011976275
240	0xbed68ac4	-0.41902745
241	0xbf03b57d	-0.51448804
242	0x3d828286	0.063725516
243	0x3e65a759	0.2242712
244	0xbd68758c	-0.056752726
245	0x3daa7897	0.08323782
246	0xbed3e7c8	-0.41387773
247	0x3dc7d101	0.09756661
248	0xbeea1109	-0.45716122
249	0x3ea96f76	0.3309285
250	0xbe704c7a	-0.23466673
251	0x3f1507b7	0.58214897
252	0xbdcd77d4	-0.10032621
253	0xbd0e01da	-0.034669735
254	0xbe1c6c5e	-0.15275714
255	0x3f0b5a98	0.5443511

network_body._body_endoder.seq_layers.2.bias f4 [256]
0	0xbb66d44c	-0.0035221754
1	0x3aeafabd	0.0017927509
2	0xba68678e	-0.00088655285
3	0x3acbefe6	0.0015559166
4	0x3a81912a	0.0009885181
5	0x3a9a2b4b	0.001176217
6	0xbaf4de1f	-0.001868192
7	0x3a8f55be	0.0010935587
8	0xbaef3273	-0.0018249288
9	0x395908aa	0.0002069796
10	0xbac60d3e	-0.0015110148
11	0xba703513	-0.0009163182
12	0xbae2dd37	-0.0017308359
13	0xb9700107	-0.00022888566
14	0x3af44fbb	0.0018639484
15	0xba9233f5	-0.00111544
16	0x3ace8c25	0.0015758319
17	0xbaf7a871	-0.0018894804
18	0x3abd4ff6	0.0014443386
19	0x39efc5e0	0.0004573306
20	0xbb0aa965	-0.0021158096
21	0xb829c54f	-4.0476498e-05
22	0xb9e3f861	-0.0004348187
23	0x3ab51b26	0.0013817295
24	0x3aeaaf83	0.001790509
25	0x3b944213	0.004524478
26	0xbb0000a7	-0.0019531639
27	0xbb46fa6d	-0.0030361668
28	0xbb0cb50f	-0.0021470224
29	0x3b2a51e0	0.0025988743
30	0xbb177ac9	-0.0023113957
31	0x3aa94b31	0.0012916086
32	0x3afe8996	0.0019419666
33	0xbac374f1	-0.0014912171
34	0x3a96fe51	0.0011519884
35	0xbb22e2c7	-0.0024854408
36	0xba85d87e	-0.0010211614
37	0xbaa658b1	-0.0012691227
38	0x3ad59ea5	0.001629789
39	0xbab81ab3	-0.0014046043
40	0x3a1c7305	0.0005968067
41	0xb9569502	-0.0002046414
42	0x3b67b2ae	0.0035354304
43	0x3adc2b10	0.0016797502
44	0xba92c87c	-0.0011198665
45	0xbb0120c3	-0.0019703365
46	0x39a9134a	0.00032248563
47	0x3b060727	0.002045104
48	0xbae676e7	-0.0017583043
49	0x3b3ea528	0.002909014
50	0x3ad99ddb	0.0016602831
51	0x3acb3649	0.0015503849
52	0x3b967100	0.0045911074
53	0x3b317d67	0.0027082802
54	0x3b04827e	0.002021938
55	0x3a145511	0.0005658428
56	0xbabfe44d	-0.0014640182
57	0x3b259879	0.0025267883
58	0x3ab5323c	0.0013824175
59	0xbaf92117	-0.0019007054
60	0xbaabdfe1	-0.0013112986
61	0x3ab81dcc	0.0014046966
62	0xba8f1eb1	-0.0010919181
63	0x3b118983	0.0022207208
64	0x3b51d2b8	0.0032016467
65	0xbab7b78e	-0.0014016496
66	0x3a2b4d9d	0.00065346976
67	0xbaaa097d	-0.0012972798
68	0x3a4ba590	0.0007768506
69	0xbae479ac	-0.001743128
70	0xba92d6e7	-0.0011202962
71	0xbaa131d6	-0.0012298177
72	0xbaaa3be8	-0.0012987824
73	0x3b095503	0.0020955212
74	0x3b347904	0.0027537951
75	0x3ac26e50	0.0014833901
76	0x3b353de6	0.0027655303
77	0xb9fe37c9	-0.00048488218
78	0xb9f06df4	-0.0004585829
79	0x3b37a1c3	0.0028020001
80	0xba8c4e27	-0.0010704444
81	0xbb2803e9	-0.0025637096
82	0x3ad79b54	0.001644949
83	0x3a62c0cb	0.0008649944
84	0x3a1639aa	0.00057306385
85	0x38e961db	0.00011128533
86	0x3aeda4ea	0.0018130813
87	0x3a9ae392	0.0011817089
88	0x3b16550f	0.0022938882
89	0xb9c92c05	-0.00038370505
90	0xbb1d757a	-0.002402632
91	0xbae6edaa	-0.0017618437
92	0xba9e6c59	-0.0012086733
93	0xbab317cd	-0.0013663709
94	0xb9c600cf	-0.00037766105
95	0x3b02a9cb	0.001993763
96	0xbb2302a2	-0.0024873395
97	0xbaa3ceb8	-0.001249752
98	0x3b3fd7a9	0.002927283
99	0x3ae0800a	0.0017128002
100	0x3b2b2813	0.0026116415
101	0x3a02fa86	0.00049964373
102	0xba6319b8	-0.0008663195
103	0xbab8e1e3	-0.0014105405
104	0xbac4cf67	-0.0015015424
105	0xba84c9b9	-0.0010130919
106	0x3a89689f	0.001048345
107	0x3b0ade89	0.002118977
108	0x3b475c20	0.00304199
109	0x389c9a8a	7.467445e-05
110	0x3af261f0	0.0018492322
111	0x3a874f68	0.0010323348
112	0xbafecee3	-0.0019440319
113	0x3a6a7666	0.00089440343
114	0x3ac9e0ad	0.0015402042
115	0x3a489c7e	0.00076527137
116	0x3ad3c5f9	0.0016157023
117	0x39a597a4	0.00031584234
118	0xba7e62c4	-0.0009704048
119	0x3a957a25	0.00114042
120	0xbad0733e	-0.0015903485
121	0x3ac185f8	0.0014764657
122	0x38ccfef2	9.774965e-05
123	0x3a80a0c7	0.000981354
124	0x38800d78	6.1060244e-05
125	0x39ad4557	0.00033048794
126	0x3aaecc6c	0.0013336069
127	0x3af5f4e9	0.0018765006
128	0x3b37b4e5	0.0028031406
129	0x3a8e1a7c	0.0010841633
130	0x3b84b452	0.004049816
131	0xba6e55c8	-0.0009091762
132	0xbab6a95d	-0.0013935972
133	0xbb032fa1	-0.0020017403
134	0xbac4e6b3	-0.0015022367
135	0x3aeeb590	0.0018212069
136	0x3af01494	0.001831668
137	0xb9ceae6f	-0.00039421345
138	0x3b013040	0.0019712597
139	0x3ab1543f	0.0013529136
140	0x3b49516c	0.0030718697
141	0xbb2b3c4f	-0.0026128476
142	0x39c5fc7f	0.00037762892
143	0x3aaeb960	0.0013330393
144	0x3995107e	0.00028431782
145	0xb872abd3	-5.785732e-05
146	0xba616c6d	-0.00085992255
147	0x3a4c52fc	0.0007794348
148	0x3a761d59	0.00093885284
149	0xb9769641	-0.00023516362
150	0xbb229256	-0.0024806461
151	0xb9a70a54	-0.00031860417
152	0x3b027bca	0.001991021
153	0x3b627698	0.003455555
154	0xba6ed0be	-0.00091100845
155	0xbb3200a5	-0.0027161029
156	0xb6a4765a	-4.901359e-06
157	0xba117bdf	-0.0005549769
158	0xb8cfd8a1	-9.9108795e-05
159	0x3954bc38	0.00020288012
160	0xb91d70d6	-0.00015014721
161	0xbac9cb34	-0.0015395642
162	0x3a679af6	0.00088350417
163	0x399d056d	0.00029949416
164	0x3ab7a54d	0.0014011055
165	0x3a802f16	0.0009779658
166	0x3aedd461	0.0018144959
167	0x3b7a6e70	0.0038212799
168	0xba0bd7ea	-0.0005334603
169	0x3b7da989	0.0038705787
170	0x3b207203	0.0024482019
171	0xbb0c0cb4	-0.0021369876
172	0x3b17f2ab	0.0023185413
173	0x3a1866a3	0.0005813634
174	0xb9a1702f	-0.00030791896
175	0xb8cf3d1d	-9.8819124e-05
176	0x3ac8f052	0.001533041
177	0xbb18fbdb	-0.0023343477
178	0x3b0da5e8	0.002161378
179	0xba6c9d0d	-0.0009026088
180	0xba88b073	-0.0010428563
181	0xba45af6c	-0.00075410935
182	0x3b962018	0.0045814626
183	0x3a893971	0.0010469389
184	0x3b8326fc	0.00400245
185	0xbb6b0b9b	-0.0035865072
186	0x39a56607	0.0003154727
187	0xbb33f8df	-0.002746157
188	0x3b245a51	0.0025078247
189	0x3b0ce2fa	0.0021497593
190	0x3b8a9cc1	0.0042301123
191	0x3b026cea	0.0019901344
192	0xbaa1886a	-0.001232398
193	0xb9c4ce14	-0.00037537573
194	0xbaf702e2	-0.0018845464
195	0x3b1c7e7e	0.0023879106
196	0x3a85f5e5	0.0010220377
197	0xb6ae011e	-5.185734e-06
198	0xb8bd3aec	-9.023197e-05
199	0x3a5184c7	0.00079925027
200	0x3ac2f855	0.0014875034
201	0x3b4aeb56	0.0030963025
202	0x3a5d84d1	0.0008450272
203	0x3ad74f5e	0.0016426852
204	0x3b60c445	0.0034296673
205	0x3b0a41d0	0.0021096356
206	0xba682c76	-0.0008856723
207	0x3a9637de	0.0011460742
208	0x3aa19efe	0.0012330709
209	0x3b2c1c9f	0.0026262177
210	0x3ad471c4	0.0016208221
211	0x3aca305b	0.0015425788
212	0xbb36f674	-0.0027917894
213	0x3803dd7d	3.143911e-05
214	0x3a28ab00	0.00064341724
215	0xbb135aa1	-0.002248444
216	0x3929eae5	0.00016204601
217	0xb9583170	-0.00020617782
218	0x3b4e2d1a	0.0031459988
219	0xb9ea03fd	-0.0004463493
220	0xb911f6ce	-0.0001392022
221	0x3b0ca4d0	0.002146054
222	0x3a6ee889	0.000911363
223	0x3a8fd4e0	0.0010973476
224	0x3a833a30	0.0010011848
225	0x3aa553fa	0.0012613528
226	0xbae9ff96	-0.001785266
227	0x3b08d579	0.0020879193
228	0x3abc7b4f	0.001438001
229	0x3af44b58	0.0018638177
230	0xba676e36	-0.00088283734
231	0xbb174d7b	-0.0023086953
232	0xbaa75d00	-0.0012768805
233	0xba7fa9a3	-0.0009752756
234	0x3a978aa6	0.0011561706
235	0x3a2de5ad	0.00066336506
236	0xb975a45f	-0.00023426254
237	0xba172996	-0.00057663897
238	0xbaedfa1c	-0.0018156203
239	0xba5fca1b	-0.0008536891
240	0x3a9d8260	0.0012017004
241	0x3b61d86c	0.0034461273
242	0xba2d4bfe	-0.000661075
243	0x3b2576b5	0.0025247757
244	0xbad44aa2	-0.0016196559
245	0x3ac53547	0.0015045785
246	0xba9e1828	-0.0012061642
247	0x3ab69ef6	0.0013932872
248	0x397434c8	0.00023289316
249	0xbab37602	-0.0013691785
250	0x3b5e6b18	0.0033938345
251	0xbb59aa8b	-0.0033213224
252	0xba905a86	-0.0011013306
253	0x3a0503ec	0.0005074132
254	0x3b16d424	0.002301463
255	0xbad42ebc	-0.0016188244
