Assets/Models/Volleyball.onnx (onnx, 291545 bytes, 15 tensors)

92 f4 [11]
0.26972014 0.25485852 0.31106153 0.37486574 7.325862 3.8765101 11.732924 4.6432996
7.874577 5.5758758 2.7335608
00000000: c218 8a3e d17c 823e 7543 9f3e 67ee bf3e
00000010: 766d ea40 be18 7840 0fba 3b41 e995 9440
00000020: 89fc fb40 936d b240 a9f2 2e40

action_model._discrete_distribution.branches.0.bias f4 [3]
0.04132294 0.0023171692 -0.05014584
00000000: 3e42 293d a6db 173b b965 4dbd

action_model._discrete_distribution.branches.0.weight f4 [3, 256]
-0.09904972 0.015510305 0.024545204 -0.05868708 -0.05904283 0.0024847058 0.014703998 -0.0050248015
-0.0057892534 -0.0031457506 -0.11660622 -0.009321816 -0.06708859 0.0237405 -0.02224621 -0.0066990373
0.09936015 0.04340515 0.009001466 0.003783272 0.013905616 -0.023401242 0.045393962 -0.08636432
-0.031891376 0.018541055 -0.019673308 0.03795059 -0.018630872 -0.008844391 0.011120037 0.10350961
0.017375154 -0.05934268 -0.06649792 0.110156454 0.052904997 0.010742557 0.00981513 0.0054101706
0.04037968 0.072738945 -0.058415066 -0.012271843 -0.05207795 0.02061523 0.03589229 0.05745691
-0.044451725 -0.026886337 -0.05170185 0.0012197884 0.026553005 -0.026628286 -0.036814615 -0.021540085
-0.062289137 0.0062369243 0.006207285 0.070667855 0.0017275903 0.015604139 0.001953451 -0.06942278
0.012381197 -0.0672226 0.04436728 -0.07479147 -0.025329048 0.002966199 -0.033365496 0.06005597
-0.04208656 0.04816276 -0.013489631 0.058844484 -0.16328685 -0.062085547 0.004951612 -0.020203076
0.027377652 -0.019391863 -0.036232974 0.039330482 0.0038638609 0.075465724 0.04644485 -0.068302445
-0.036432333 0.011785987 -0.15225263 -0.021760628 0.003078817 0.010832031 -0.1835637 -0.0090503525
0.035829816 0.024860796 0.020721776 0.07288485 -0.069628805 0.059844702 -0.0035564587 0.042166803
0.04591634 0.022785474 0.0409031 0.017422192 0.0075326036 -0.020933947 -0.09952707 0.034530222
-0.0127155725 0.08309545 0.057699747 -0.013815992 0.011079278 -0.025083616 -0.06455452 0.0023506028
-0.0060786186 0.0044291746 0.02145933 0.045566764 0.049775884 -0.02719029 -0.000798702 -0.113686144
0.013424606 0.02051999 -0.04660153 -0.21088585 0.040646505 -0.042441353 -0.045683883 -0.018146787
0.010406597 -0.013279702 0.04863015 0.02806451 -0.070059605 -0.01749735 -0.010455743 0.024907596
-0.052896462 0.04647974 -0.119896956 0.080859825 0.03622098 -0.0027642455 0.009794852 -0.024925709
0.020897387 0.041644383 0.09119809 0.0068505043 0.00091343466 0.0022094438 -0.040947918 -0.10692947
0.00089909276 -0.015749818 -0.22421677 0.04766201 -0.0011026509 0.01827864 0.056740385 0.0068499204
0.06762688 0.06478813 -0.014517182 0.029282164 0.043092854 0.049081605 -0.031830605 0.012759919
0.0045182416 -0.032867867 -0.0014830439 0.010104971 -0.044926643 0.02560316 0.00039340818 0.015069026
-0.015546565 -0.013467125 0.016327048 0.016390437 -0.0065281126 0.07482711 -0.002873057 -0.0373339
-0.034802478 0.007781843 -0.16465183 0.003554078 0.01913876 0.013249725 0.028302684 0.02575716
0.031291246 0.044609927 0.043726224 0.051158622 0.012881366 0.06493506 -0.012726352 0.0237275
-0.019345 0.009436543 -0.1501051 0.02976759 -0.011207977 -0.011355941 -0.115210995 0.0063294945
0.023159206 0.035251424 -0.05918004 0.016465615 -0.056120455 -0.027638778 -0.025170175 0.039774098
-0.14483021 0.024800323 0.03187849 -0.033150963 0.045875378 0.020859288 0.0090099815 0.07635341
-0.05397236 0.0008193552 0.024362497 -0.06363963 0.04522169 0.00041955148 0.009516467 0.051496897
0.03362855 -0.047122948 0.013475649 0.004267228 0.07536973 -0.005115864 0.017943913 0.021209154
0.05200686 0.021952815 -0.021474548 0.08494335 -0.031105852 0.050021213 -0.06900372 -0.012557205
00000000: 94da cabd ef1e 7e3c 0613 c93c dd61 70bd
00000010: e5d6 71bd 72d6 223b 0ae9 703c 17a7 a4bb
00000020: c7b3 bdbb f028 4ebb 3ecf eebd 88ba 18bc
00000030: be65 89bd 707b c23c af3d b6bc 9983 dbbb
00000040: 567d cb3d 99c9 313d e37a 133c c6f0 773b
00000050: 61d4 633c f6b3 bfbc 05ef 393d c7df b0bd
00000060: 88a0 02bd 69e3 973c eb29 a1bc 1472 1b3d
00000070: c59f 98bc 11e8 10bc d130 363c d9fc d33d
00000080: 5756 8e3c 4f11 73bd 1030 88bd b599 e13d
00000090: e9b2 583d 8d01 303c a4cf 203c cd47 b13b
000000a0: 2a65 253d 28f8 943d a344 6fbd d70f 49bc
000000b0: b04f 55bd 45e1 a83c cb03 133d f057 6b3d
000000c0: 0313 36bd bc40 dcbc 52c5 53bd 4fe1 9f3a
000000d0: b085 d93c 9023 dabc ecca 16bd d574 b0bc
000000e0: e522 7fbd 1d5f cc3b 7b66 cb3b 4fba 903d
000000f0: 5070 e23a 81a8 7f3c 7805 003b 882d 8ebd
00000100: 81da 4a3c 01ac 89bd 77ba 353d 452c 99bd
00000110: dd7e cfbc 9064 423b 42aa 08bd 40fd 753d
00000120: f562 2cbd 5046 453d 9d03 5dbc ea06 713d
00000130: ab34 27be 6a4d 7ebd 2241 a23b ec80 a5bc
00000140: 1947 e03c afdb 9ebc 0769 14bd 0019 213d
00000150: d438 7d3b c68d 9a3d f43c 3e3d 27e2 8bbd
00000160: 123a 15bd 031a 413c 1de8 1bbe 5843 b2bc
00000170: fac5 493b d578 313c 1ff8 3bbe ee47 14bc
00000180: 49c2 123d dea8 cb3c b7c0 a93c a744 953d
00000190: 8c99 8ebd b81f 753d 7a13 69bb 19b7 2c3d
000001a0: c612 3c3d 9aa8 ba3c 028a 273d fcb8 8e3c
000001b0: 0fd4 f63b ab7d abbc d9d4 cbbd 906f 0d3d
000001c0: fa54 50bc f32d aa3d 9256 6c3d 785c 62bc
000001d0: dc85 353c 287c cdbc 2935 84bd 920c 1a3b
000001e0: 262f c7bb 9c22 913b 7acb af3c 37a4 3a3d
000001f0: cce1 4b3d 2cbe debc fc5f 51ba 48d4 e8bd
00000200: e1f2 5b3c 8a19 a83c 3fe1 3ebd 76f2 57be
00000210: f37c 263d fcd6 2dbd 061f 3bbd 92a8 94bc
00000220: 6e80 2a3c 1b93 59bc 6830 473d 8be7 e53c
00000230: 697b 8fbd 9a56 8fbc 914e 2bbc 040b cc3c
00000240: f6a9 58bd 8a61 3e3d 898c f5bd d699 a53d
00000250: 735c 143d 5828 35bb 967a 203c 0031 ccbc
00000260: ff30 ab3c 4d93 2a3d 10c6 ba3d 327a e03b
00000270: 9073 6f3a 51cc 103b 01b9 27bd d7fd dabd
00000280: 18b1 6b3a c305 81bc 1599 65be 3d39 433d
00000290: d386 90ba 16bd 953c 9b68 683d 4c75 e03b
000002a0: f67f 8a3d a4af 843d 79d9 6dbc 26e1 ef3c
000002b0: 2282 303d cb09 493d cf60 02bd fb0e 513c
000002c0: c20d 943b 75a0 06bd b262 c2ba 528f 253c
000002d0: 0005 38bd b8bd d13c 5a42 ce39 13e4 763c
000002e0: 05b7 7ebc 37a5 5cbc 4dc0 853c 3d45 863c
000002f0: c7e9 d5bb f53e 993d e649 3cbb 6eeb 18bd
00000300: 0b8d 0ebd d5fe fe3b 7d9a 28be 89eb 683b
00000310: e4c8 9c3c 6015 593c 08db e73c ae00 d33c
00000320: 402b 003d e6b8 363d 451a 333d b48b 513d
00000330: 5d0c 533c acfc 843d 3082 50bc 2d60 c23c
00000340: 6879 9ebc bb9b 1a3c 27b5 19be 29db f33c
00000350: aaa1 37bc 450e 3abc bef3 ebbd a667 cf3b
00000360: 60b8 bd3c cc63 103d c566 72bd e6e2 863c
00000370: 90de 65bd b86a e2bc af31 cebc 2aea 223d
00000380: 5f4e 14be 0c2a cb3c 0593 023d 4ec9 07bd
00000390: d2e7 3b3d 19e1 aa3c 9a9e 133c 2d5f 9c3d
000003a0: 1f12 5dbd ffc9 563a dc93 c73c 7f55 82bd
000003b0: 613a 393d 3ff7 db39 f5ea 1b3c 69ee 523d
000003c0: 17be 093d fe03 41bd f8c8 5c3c 1ad4 8b3b
000003d0: 725b 9a3d faa2 a7bb 1dff 923c d2be ad3c
000003e0: 2505 553d 64d6 b33c 64eb afbc c7f6 ad3d
000003f0: b3d1 febc 0be3 4c3d d351 8dbd bcbc 4dbc

action_model._discrete_distribution.branches.1.bias f4 [3]
0.057018593 -0.016382152 -0.044868134
00000000: 548c 693d dd33 86bc a6c7 37bd

action_model._discrete_distribution.branches.1.weight f4 [3, 256]
0.021501534 -0.018106349 -0.01721405 -0.036003232 -0.0014901742 -0.028993376 -0.007069736 -0.043978248
-0.016803138 0.0331141 -0.03272616 -0.02471696 -0.037047632 0.016737888 -0.017857177 -0.050878376
0.023149911 -0.027478505 0.0053788833 0.054969635 0.03354322 0.001972553 0.016229384 -0.016977185
-0.020740494 -0.007937193 0.009303269 0.01073227 -0.034181625 0.036189783 -0.025730232 -0.069520354
0.049563576 -0.053235207 -0.05028613 -0.018957337 0.005953793 0.014229575 -0.032528464 0.012689079
0.015396517 -0.03326417 -0.07744118 -0.020833598 -0.00014416229 0.046601295 0.08489047 0.016955141
-0.006491317 0.033630446 -0.07650477 -0.008943796 0.021177731 -0.05024141 -0.0045396136 -0.015942447
-0.061952192 0.0039469227 -0.013712502 0.040612508 -0.003412657 -0.022345928 -0.029141942 -0.034736022
-0.016027337 -0.0022235697 0.017294692 -0.008873514 -0.02856009 -0.012061404 0.09699576 0.0053939973
-0.015211428 0.0117023075 0.030328397 0.0038429822 0.042948484 0.019933933 -0.0028655306 0.0038599458
-0.019092573 -0.0023945782 -0.021009006 -0.029656716 0.013192866 0.025765738 0.010802736 -0.05224773
-0.012614882 0.022316385 0.076768376 -0.060302716 0.03571491 0.052210424 0.015370611 0.026042461
0.043263476 -0.010989022 -0.01041048 -0.015143433 0.052792046 0.030146811 -0.009653208 0.012682876
-0.021248486 0.016141932 -0.01929944 -0.011608221 0.034099866 0.012111364 -0.05174215 -0.0062457053
0.02238715 0.03195372 -0.062269025 0.0026989228 0.013280646 -0.049654074 -0.033331104 0.007771966
-0.006751403 -0.009621397 0.006097647 0.022102771 0.004637575 -0.031248739 -0.037839502 -0.03772894
0.02327476 -0.009101598 -0.069290705 0.05157353 -0.002109302 0.007828895 -0.017464785 -0.00962602
0.0036367287 -0.016884148 0.031057084 -0.02493664 -0.037333857 0.041990984 0.021310065 0.03422157
-0.034658287 0.025679661 -0.07583209 0.008436142 0.02609112 -0.020322558 0.022730881 -0.03946411
0.02098303 -0.01956556 0.06621635 0.017462907 0.028567472 -0.015195305 -0.07366512 0.0016142516
0.01746183 -0.020642981 0.021152647 0.0019992879 0.004940242 0.07470956 0.043612666 -0.02262315
0.037018698 0.053000476 -0.030872611 -0.028735776 0.024929183 0.012886059 -0.03301718 -0.010905524
0.03230214 -0.009276781 -0.0073501985 0.04725542 -0.010584159 0.020796968 -0.011546044 -0.013512663
-0.030261194 -0.010896006 -0.009677697 0.043175276 0.016048187 -0.045857128 0.03202736 -0.023986215
-0.018822268 -0.046802007 0.0038830314 -0.07628693 0.0062533696 0.009562993 0.0072239605 0.028025914
-0.0029529536 0.05180242 0.029089775 0.03207692 0.047773175 0.0034569032 0.0036476844 -0.0053289984
0.007730012 0.0029781358 0.04037676 -0.032802887 -0.008043045 0.023609348 0.003940911 0.015140969
0.02839561 -0.04585906 -0.031903747 0.04376498 -0.033338487 -0.022594059 0.0024902849 0.016124366
0.03563951 0.037319828 0.010473909 -0.03386806 0.013966978 -0.0049785445 0.012951065 0.032152023
-0.04297837 0.025398478 0.025190555 -0.023089053 -0.008166087 -0.04409495 0.0011333409 0.0104481485
0.03670339 0.017565977 0.03805138 0.008770854 0.08798667 -0.034128312 -0.035019245 0.012788948
0.013282985 -0.01706261 -0.0071628923 0.051048186 -0.06365625 0.0019110739 0.0751324 -0.015783729
00000000: fc23 b03c c453 94bc 7b04 8dbc 2078 13bd
00000010: f351 c3ba 8483 edbc 3ea9 e7bb 8922 34bd
00000020: bca6 89bc a7a2 073d de0b 06bd 397b cabc
00000030: 42bf 17bd e51d 893c 3749 92bc d865 50bd
00000040: e2a4 bd3c 9a1a e1bc 5841 b03b d727 613d
00000050: 9e64 093d f345 013b 7cf3 843c bd13 8bbc
00000060: f8e7 a9bc 000b 02bc bd6c 183c 67d6 2f3c
00000070: 0802 0cbd bd3b 143d 35c8 d2bc b060 8ebd
00000080: 2d03 4b3d 290d 5abd d4f8 4dbd 6b4c 9bbc
00000090: 0918 c33b 2a23 693c 913c 05bd dbe5 4f3c
000000a0: ac41 7c3c 0340 08bd 7b99 9ebd 39ab aabc
000000b0: 452a 17b9 00e1 3e3d 0edb ad3d 82e5 8a3c
000000c0: 1db5 d4bb 14c0 093d 88ae 9cbd 0089 12bc
000000d0: ec7c ad3c f0c9 4dbd 0ac1 94bb bc99 82bc
000000e0: 95c1 7dbd 3055 813b 67aa 60bc 4d59 263d
000000f0: e2a6 5fbb cf0e b7bc 15bb eebc 5c47 0ebd
00000100: c34b 83bc 4fb9 11bb 99ad 8d3c 3762 11bc
00000110: daf6 e9bc 329d 45bc b7a5 c63d 21c0 b03b
00000120: 5a39 79bc 09bb 3f3c 4273 f83c 8bda 7b3b
00000130: c0ea 2f3d 7d4c a33c a0cb 3bbb 25f7 7c3b
00000140: 0768 9cbc 5bee 1cbb 141b acbc a4f2 f2bc
00000150: e426 583c ab12 d33c f5fd 303c b701 56bd
00000160: a6ae 4ebc dad0 b63c bd38 9d3d fbff 76bd
00000170: cc49 123d 99da 553d 04d5 7b3c 0057 d53c
00000180: 0b35 313d 4d0b 34bc b890 2abc 291c 78bc
00000190: 793c 583d 72f6 f63c 7d28 1ebc d6cb 4f3c
000001a0: 4e11 aebc 163c 843c dc19 9ebc 6830 3ebc
000001b0: 4dac 0b3d be6e 463c 94ef 53bd c6a8 ccbb
000001c0: 4265 b73c e7e1 023d ce0d 7fbd 69e0 303b
000001d0: 1197 593c 1262 4bbd 3286 08bd faab fe3b
000001e0: e03a ddbb 10a3 1dbc c5ce c73b df10 b53c
000001f0: ccf6 973b 5bfd ffbc 98fd 1abd a989 1abd
00000200: b6aa be3c de1e 15bc 49e8 8dbd c43e 533d
00000210: 373c 0abb c444 003c 4f12 8fbc 74b6 1dbc
00000220: 2f56 6e3b a050 8abc 6d6b fe3c ed47 ccbc
00000230: 63eb 18bd bdfe 2b3d 7292 ae3c eb2b 0c3d
00000240: d9f5 0dbd 275e d23c db4d 9bbd be37 0a3c
00000250: 0bbd d53c 7e7b a6bc 1d36 ba3c 1ea5 21bd
00000260: 9ae4 ab3c f447 a0bc 709c 873d 5f0e 8f3c
00000270: 5506 ea3c bbf5 78bc bddd 96bd 4c95 d33a
00000280: 1d0c 8f3c 781b a9bc 5148 ad3c 7c06 033b
00000290: c1e1 a13b 5301 993d 32a3 323d 2f54 b9bc
000002a0: eba0 173d 0717 593d 8fe8 fcbc 4a67 ebbc
000002b0: 4938 cc3c 0c20 533c 063d 07bd 15ad 32bc
000002c0: 404f 043d a4fd 17bc efd9 f0bb e68e 413d
000002d0: 2e69 2dbc 675e aa3c 9e2b 3dbc 3764 5dbc
000002e0: 53e6 f7bc 2985 32bc 348f 1ebc 8fd8 303d
000002f0: 7d77 833c afd4 3bbd 1f2f 033d bd7e c4bc
00000300: 2831 9abc 76b3 3fbd 757a 7e3b 523c 9cbd
00000310: 11e9 cc3b 1aae 1c3c f9b6 ec3b 9a96 e53c
00000320: 5786 41bb c62e 543d ae4d ee3c 1763 033d
00000330: cead 433d 368d 623b fd0d 6f3b e19e aebb
00000340: 0a4c fd3b d42c 433b 1a62 253d 525c 06bd
00000350: fac6 03bc 6468 c13c c222 813b d411 783c
00000360: e99d e83c b6d6 3bbd 81ad 02bd e842 333d
00000370: f08d 08bd 2d17 b9bc 0c34 233b 3f17 843c
00000380: bcfa 113d addc 183d c29a 2b3c 3cb9 0abd
00000390: c0d5 643c 0f23 a3bb b430 543c d7b1 033d
000003a0: 160a 30bd 7810 d03c 6c5c ce3c 4125 bdbc
000003b0: 0dcb 05bc e89c 34bd 9c8c 943a b62e 2b3c
000003c0: 4b56 163d 86e6 8f3c c4db 1b3d a1b3 0f3c
000003d0: 5b32 b43d 21ca 0bbd 5770 0fbd bc88 513c
000003e0: e1a0 593c e3c6 8bbc b2b6 eabb e717 513d
000003f0: 355e 82bd 007d fa3a 04df 993d e14c 81bc

action_model._discrete_distribution.branches.2.bias f4 [3]
0.019402139 -0.07957129 0.0528343
00000000: 3cf1 9e3c 46f6 a2bd c768 583d

action_model._discrete_distribution.branches.2.weight f4 [3, 256]
0.13921566 0.025023704 -0.0324367 -0.049940176 0.02901576 0.0060033803 -0.019159151 -0.042737722
-0.06427558 -0.0468672 0.15114562 -0.10899771 -0.0048195934 0.038107578 -0.004124206 0.05377846
-0.008434787 -0.053343266 0.0076923664 -0.0022420015 0.07812882 0.093948156 0.032149047 0.044161838
0.14006084 -0.08617813 -0.02291652 0.02503594 0.11809019 -0.05710398 0.08920059 -0.10146439
0.06835316 -0.007304271 -0.0639577 -0.0031828184 -0.017995128 0.035120044 0.0086664725 -0.100646995
-0.0021663574 0.019240748 -0.03867373 0.028017307 0.049766585 0.0547295 -0.01729476 0.009415859
0.034370985 0.022540957 0.0448843 -0.028689913 0.035622362 0.123023145 -0.0073373844 0.066356346
0.009663085 0.053052872 0.04420714 0.007491734 0.02533587 0.01443921 -0.023144921 0.002707205
0.039774816 0.044756908 -0.07493413 -0.021117905 -0.012100951 -0.056372125 -0.06414348 -0.044289455
-0.016668743 -0.17012396 -0.003753346 -0.025800625 0.1624436 0.07406191 -0.005507854 0.005528214
0.023325862 0.08416824 0.0014178847 0.012655988 0.01803219 -0.041470993 -0.0030204875 0.09939835
0.03890859 0.05774381 0.1282415 -0.070726626 0.0024606627 0.019839602 0.20777917 0.050580695
0.023685934 -0.008096214 0.00038515133 -0.01637607 0.15646547 -0.0031439492 0.042017277 0.01194766
0.046282567 0.09506274 0.026672363 0.008355742 0.027134834 0.050839007 0.013975363 -0.0074278684
-0.014905073 -0.14684784 -0.058870886 0.048449837 -0.10786961 -0.019815784 -0.05526764 0.020205837
0.03670174 -0.04624564 0.01130935 -0.009188263 -0.059467353 -0.010401141 0.015295841 0.019304965
-0.0009304638 0.012217371 -0.008215255 0.13497907 0.06804711 -0.044017363 -0.22655286 0.088700145
0.01819703 -0.0067806793 0.0088621285 -0.08553734 0.040785767 -0.05321133 0.0042131306 0.024546029
-0.068641804 -0.18271427 -0.03204475 -0.11699775 -0.12826504 0.005371768 0.021214504 -0.062689945
-0.027454928 -0.00024413558 0.040503714 0.024952177 -0.06679771 0.025622208 -0.08093911 0.0135236755
-0.077144735 0.011931646 0.09085567 0.0074931025 0.08897767 -0.0012445176 0.024214268 -0.049640004
-0.015793182 0.0035200636 0.0041918484 0.005043132 -0.020803913 0.03415684 0.0020900788 0.056529887
0.021851234 -0.03648073 0.01470099 0.0017079092 0.025321733 0.030512992 0.085644886 -0.053314023
-0.061931375 -0.1302156 0.008895157 0.053543143 0.12758675 -0.12393453 -0.06116389 -0.021127772
0.088250324 -0.05753985 0.05701535 -0.011306568 0.010864394 0.027973015 -0.0032692368 -0.031939678
-0.0271418 0.0015552946 -0.066424064 -0.11731752 0.05941124 -0.034656186 -0.0517575 -0.05545636
-0.07710385 -0.0042921286 0.13156165 0.030257896 -0.010233754 0.018176211 0.08165194 0.08743791
0.09106941 0.03927192 0.04890502 0.053342607 -0.043576088 -0.04028089 -0.024048489 -0.08130348
0.21096025 -0.06407286 -0.048187766 0.07858963 -0.061314974 0.0062206644 -0.03197519 -0.007912005
-0.0071155895 0.0073814252 -0.050633837 -0.024876509 -0.06918836 -0.003805012 0.0140763605 -0.027637357
0.0408531 -0.014385755 -0.080342695 0.029501272 0.0185482 -0.002437059 -0.059615906 0.04025503
0.07429718 -0.035796594 -0.07037972 -0.011018983 -0.027758446 -0.03893231 0.14073816 -0.06181865
00000000: 8d8e 0e3e 83fe cc3c 58dc 04bd 128e 4cbd
00000010: 76b2 ed3c 01b8 c43b a7f3 9cbc c00d 2fbd
00000020: eaa2 83bd d2f7 3fbd ebc5 1a3e 313a dfbd
00000030: aeed 9dbb b116 1c3d 5924 87bb cd46 5c3d
00000040: 1032 0abc 787e 5abd 3f10 fc3b 8bee 12bb
00000050: 0102 a03d e467 c03d b8ae 033d 0be3 343d
00000060: 1c6c 0f3e 297e b0bd 6dbb bbbc 2c18 cd3c
00000070: 45d9 f13d dde5 69bd cdae b63d 90cc cfbd
00000080: befc 8b3d ab58 efbb 41fc 82bd d596 50bb
00000090: 856a 93bc 09da 0f3d d2fd 0d3c 0320 cebd
000000a0: 72f9 0dbb c69e 9d3c 5868 1ebd 8d84 e53c
000000b0: 0cd8 4b3d 0a2c 603d bead 8dbc fa44 1a3c
000000c0: 97c8 0c3d d0a7 b83c 9ad8 373d 1c07 ebbc
000000d0: c1e8 113d 8ff3 fb3d 716e f0bb d6e5 873d
000000e0: eb51 1e3c f84d 593d 8c12 353d 387d f53b
000000f0: 2c8d cf3c 7092 6c3c 6b9a bdbc 5d6b 313b
00000100: ebea 223d 0553 373d 1177 99bd 75ff acbc
00000110: 1143 46bc 75e6 66bd a85d 83bd dc68 35bd
00000120: e38c 88bc fa34 2ebe b2fa 75bb d55b d3bc
00000130: 9d57 263e c5ad 973d 3a7b b4bb 0526 b53b
00000140: e115 bf3c 6660 ac3d 51d8 b93a 105b 4f3c
00000150: 3eb8 933c 7ddd 29bd 5ff3 45bb 5d91 cb3d
00000160: 9d5e 1f3d c684 6c3d bd51 033e 1fd9 90bd
00000170: 1243 213b a986 a23c 10c4 543e b42d 4f3d
00000180: 0109 c23c fca5 04bc 23ee c939 1c27 86bc
00000190: 7c38 203e b70a 4ebb 4f1a 2c3d 1ec0 433c
000001a0: ca92 3d3d 41b0 c23d 0080 da3c 86e6 083c
000001b0: df49 de3c 903c 503d ecf8 643c 7a65 f3bb
000001c0: 6834 74bc 485f 16be 9922 71bd 5673 463d
000001d0: beea dcbd b654 a2bc 5260 62bd b686 a53c
000001e0: 9054 163d 116c 3dbd da4a 393c 5e8a 16bc
000001f0: 0a94 73bd 8c69 2abc 689b 7a3c 7225 9e3c
00000200: 5eea 73ba 5e2b 483c 4799 06bc f437 0a3e
00000210: 495c 8b3d 8d4b 34bd 79fd 67be 6ca8 b53d
00000220: f011 953c 7630 debb 7632 113c 332e afbd
00000230: fa0e 273d 20f4 59bd 4d0e 8a3b c114 c93c
00000240: 1394 8cbd 7319 3bbe 5b41 03bd 849c efbd
00000250: e957 03be a805 b03b 0aca ad3c 9663 80bd
00000260: 28e9 e0bc a5fe 7fb9 39e7 253d 8268 cc3c
00000270: 3dcd 88bd aae5 d13c 67c3 a5bd 6892 5d3c
00000280: 0ffe 9dbd f37c 433c 8a12 ba3d b388 f53b
00000290: ed39 b63d 151f a3ba 005d c63c 5153 4bbd
000002a0: b460 81bc deb0 663b c65b 893b dc40 a53b
000002b0: f86c aabc 0be8 0b3d b4f9 083b e28b 673d
000002c0: 5c01 b33c d16c 15bd 6cdc 703c ecdb df3a
000002d0: 866f cf3c 62f6 f93c 9666 af3d ce5f 5abd
000002e0: c1ab 7dbd 3d57 05be febc 113c 0e50 5b3d
000002f0: 1aa6 023e 63d1 fdbd fd86 7abd 2614 adbc
00000300: 96bc b43d e8ae 6bbd ed88 693d 2f3f 39bc
00000310: 9200 323c aa27 e53c b140 56bb 2ed3 02bd
00000320: 7b58 debc 07db cb3a 5709 88bd 2b44 f0bd
00000330: 3359 733d a5f3 0dbd acff 53bd 3526 63bd
00000340: a0e8 9dbd fca4 8cbb 19b8 063e 68df f73c
00000350: 7aab 27bc 47e6 943c 2239 a73d a612 b33d
00000360: 9982 ba3d 98db 203d a150 483d c77d 5a3d
00000370: d77c 32bd 93fd 24bd 5601 c5bc 7082 a6bd
00000380: f705 583e a238 83bd 8960 45bd 9af3 a03d
00000390: 6925 7bbd b7d6 cb3b 6bf8 02bd 5ba1 01bc
000003a0: e429 e9bb e2df f13b 6d65 4fbd d2c9 cbbc
000003b0: a0b2 8dbd 825d 79bb 89a0 663c bd67 e2bc
000003c0: 9555 273d 3bb2 6bbc b68a a4bd a7ac f13c
000003d0: 65f2 973c 11b7 1fbb cf2f 74bd 75e2 243d
000003e0: 1f29 983d 739f 12bd 3e23 90bd f788 34bc
000003f0: ae65 e3bc 7c77 1fbd aa1d 103e 8e35 7dbd

action_model._discrete_distribution.branches.3.bias f4 [2]
-0.0006766119 0.0006768474
00000000: a85e 31ba 766e 313a

action_model._discrete_distribution.branches.3.weight f4 [2, 256]
0.08476627 -0.035541926 0.043196406 0.030922014 -0.13051333 -0.14151461 0.0041784095 -0.10463159
0.027225647 -0.12637196 0.05753184 0.03395837 -0.015902407 0.032213215 -0.00036822708 0.008044446
0.1342671 -0.21864736 0.03345799 0.031640425 0.036332894 -0.06753746 0.008296801 -0.0055845673
0.04154676 0.11168737 0.09764305 -0.012695812 -0.038410414 0.012488355 -0.10015548 0.051400032
-0.050312337 -0.034035522 0.10638333 -0.113930166 0.05142827 0.055719227 0.10374259 0.021138081
-0.026846237 -0.022018827 0.050688636 0.12178186 0.16747724 0.004390992 -0.116181426 0.10918932
0.095960245 0.11916872 0.09372714 0.04162733 0.023365708 0.028767774 0.026894253 -0.20637397
0.06513948 -0.003072301 -0.013457095 0.03105509 0.0981326 -0.03152965 0.09892992 -0.018377522
-0.029359428 0.016470786 -0.16915677 -0.011124833 0.10979236 -0.052846067 0.0031637158 -0.0013142341
0.04743579 -0.08532365 -0.072667904 -0.037151787 0.08417092 -0.009633747 -0.1449674 -0.076342985
0.08977694 -0.017629515 -0.05265766 0.021031722 0.087789446 -0.05794033 0.08717301 0.016480811
0.02353341 0.018436756 0.09763551 0.083652236 0.08397234 -0.10937135 0.08922901 -0.04648679
-0.060770247 0.029185167 -0.061768662 -0.050480247 0.11484026 -0.051260915 0.07706824 0.07787404
-0.10863173 0.08137803 -0.03454953 0.10599668 -0.017444814 0.065644 0.0849862 -0.007928582
-0.06653526 -0.09025166 0.11116198 -0.14205408 0.061311886 -0.037132904 -0.0036078787 0.018944146
0.04013756 -0.13939176 0.081614055 -0.025215438 -0.044524908 0.110327035 0.025092317 0.015243904
0.03349591 -0.011735954 0.12241772 0.06654514 0.084783785 0.07284749 -0.017927371 -0.15025736
0.027970886 -0.102723524 0.0476997 -0.04418602 -0.09546551 -0.04446246 0.013641984 -0.08808846
0.051572353 0.01621984 0.081683874 0.09988112 -0.03227249 -0.11841951 -0.1424203 0.082707055
-0.057659287 -0.09385002 0.03010136 0.14879672 0.014123371 0.06346875 -0.19533196 0.03175802
-0.032261908 -0.051591296 0.066757575 -0.022938589 0.06096396 -0.1986842 0.00075796974 -0.07076866
-0.04080238 -0.021989737 -0.15496546 0.048247594 0.056217987 0.027342517 -0.15743966 -0.10246254
0.046209324 -0.015871916 0.04198394 -0.14844513 0.007755966 0.08523781 -0.0028328886 0.03637029
-0.04160537 0.04002937 -0.028221797 -0.0022444471 0.1414885 0.12578382 -0.021235028 0.049412534
0.0016678162 0.08364103 0.0524457 0.052983556 -0.010271712 0.08229158 0.040762346 0.015355782
-0.041600093 -0.02717348 0.006735535 0.022722417 -0.049466874 -0.024838869 0.05270846 -0.07310374
0.03201269 -0.0211437 0.08399211 -0.08739918 0.088369235 0.02922935 0.099732 0.12167395
-0.03547734 -0.0052036275 -0.15430298 0.06940695 -0.0017311316 -0.123361826 0.019549474 -0.11899877
0.120407715 -0.092655614 -0.04450052 -0.08769363 -0.11415488 0.063147254 0.030609794 0.011133745
0.097364195 0.060350705 -0.022395354 0.06527505 0.1066929 0.1550407 0.039086834 0.032142587
-0.08360453 -0.13462949 0.045574915 -0.007054355 0.032683745 0.111176796 0.0019102611 -0.039262243
-0.012934011 0.048123714 0.008217876 -0.1005635 -0.025043907 -0.009291796 0.09620081 0.004610534
00000000: f099 ad3d 6994 11bd b7ee 303d 2a50 fd3c
00000010: 49a5 05be 35e9 10be 0aeb 883b 1649 d6bd
00000020: 5208 df3c a767 01be 82a6 6b3d ef17 0b3d
00000030: c445 82bc 01f2 033d 9a0e c1b9 dacc 033c
00000040: 517d 093e 18e5 5fbe 3f0b 093d 6499 013d
00000050: cdd1 143d 1451 8abd 4eef 073c bffe b6bb
00000060: ef2c 2a3d 59bc e43d 14f9 c73d 1802 50bc
00000070: 3d54 1dbd f59b 4c3c 511e cdbd d788 523d
00000080: 4f14 4ebd d568 0bbd 81df d93d 3854 e9bd
00000090: 73a6 523d d839 643d ff76 d43d c529 ad3c
000000a0: a4ec dbbc d460 b4bc e39e 4f3d c568 f93d
000000b0: 277f 2b3e 50e2 8f3b 87f0 edbd a69e df3d
000000c0: ce86 c43d bb0e f43d 04f4 bf3d 6b81 2a3d
000000d0: 7169 bf3c 65aa eb3c 5651 dc3c b353 53be
000000e0: d967 853d a858 49bb 267b 5cbc 3e67 fe3c
000000f0: bff9 c83d 3c25 01bd c59b ca3d 758c 96bc
00000100: 2f83 f0bc beed 863c 6f37 2dbe ee44 36bc
00000110: d1da e03d 1e75 58bd 5856 4f3b 6142 acba
00000120: 084c 423d 2abe aebd e9d2 94bd 792c 18bd
00000130: ce61 ac3d ddd6 1dbc 5672 14be b659 9cbd
00000140: f9dc b73d c66b 90bc 8faf 57bd b84a ac3c
00000150: f4ca b33d d752 6dbd c387 b23d c402 873c
00000160: 23c9 c03c ae08 973c 20f5 c73d dd51 ab3d
00000170: b1f9 ab3d 16fe dfbd b3bd b63d ef68 3ebd
00000180: 39ea 78bd bb15 ef3c 2301 7dbd 60c4 4ebd
00000190: 5f31 eb3d f7f6 51bd f4d5 9d3d 6d7c 9f3d
000001a0: 507a debd 86a9 a63d cf83 0dbd ca14 d93d
000001b0: 6de8 8ebc 5d70 863d 3f0d ae3d e2e6 01bc
000001c0: a343 88bd ddd5 b8bd e4a8 e33d a076 11be
000001d0: 2c22 7b3d ac18 18bd 2972 6cbb c130 9b3c
000001e0: 4867 243d b7bc 0ebe 4525 a73d 9b90 cebc
000001f0: c05f 36bd 24f3 e13d 678e cd3c 91c1 793c
00000200: 0233 093d 2948 40bc 24b6 fa3d d248 883d
00000210: 1fa3 ad3d 1131 953d 6cdc 92bc 11dd 19be
00000220: 3323 e53c b660 d2bd c360 433d 66fc 34bd
00000230: 6c83 c3bd 451e 36bd a182 5f3c b967 b4bd
00000240: 883d 533d 78df 843c e049 a73d 798e cc3d
00000250: 2930 04bd ee85 f2bd a1d6 11be 5162 a93d
00000260: 252c 6cbd 7034 c0bd 2197 f63c 2b5e 183e
00000270: b665 673c e7fb 813d 1a05 48be b314 023d
00000280: 1025 04bd 6551 53bd 32b8 883d b5e9 bbbc
00000290: 58b5 793d df73 4bbe 7db2 463a 29ef 90bd
000002a0: 6520 27bd d223 b4bc 44af 1ebe 459f 453d
000002b0: d544 663d 6afd df3c dd37 21be e1d7 d1bd
000002c0: fd45 3d3d d205 82bc 5af7 2b3d 0002 18be
000002d0: c225 fe3b 2991 ae3d fca7 39bb 03f9 143d
000002e0: 646a 2abd d6f5 233d 6631 e7bc 9317 13bb
000002f0: 5de2 103e 79cd 003e 15f5 adbc cc64 4a3d
00000300: a09a da3a fd4b ab3d 4dd1 563d 4905 593d
00000310: af4a 28bc 7d88 a83d 6bf6 263d d196 7b3c
00000320: dc64 2abd eb9a debc c3b5 dc3b 5d24 ba3c
00000330: c79d 4abd e27a cbbc d3e4 573d 6ab7 95bd
00000340: bd1f 033d 8e35 adbc 0e04 ac3d 57fe b2bd
00000350: eefa b43d 6472 ef3c 4a40 cc3d 3130 f93d
00000360: b050 11bd 3183 aabb 9a01 1ebe 3b25 8e3d
00000370: 23e7 e2ba 20a5 fcbd 3826 a03c a1b5 f3bd
00000380: 5298 f63d 3ac2 bdbd 2d46 36bd b898 b3bd
00000390: 09ca e9bd 5953 813d 64c1 fa3c 506a 363c
000003a0: e166 c73d 4d32 773d 7676 b7bc edae 853d
000003b0: cf81 da3d fdc2 1e3e 8419 203d f2a7 033d
000003c0: da38 abbd 50dc 09be c3ac 3a3d 3828 e7bb
000003d0: 64df 053d a9b0 e33d ba61 fa3a 72d1 20bd
000003e0: 2de9 53bc 5f1d 453d 45a4 063c 3cf4 cdbd
000003f0: e128 cdbc 9e3c 18bc ee04 c53d f613 973b

discrete_action_output_shape f4 [1, 4]
3.0 3.0 3.0 2.0
00000000: 0000 4040 0000 4040 0000 4040 0000 0040

network_body._body_endoder.seq_layers.0.bias f4 [256]
-0.05962987 -0.0175286 -0.016002085 -0.064123176 -0.0249909 0.02935246 0.01683592 0.039905056
0.13596343 -0.0003829629 0.21630672 -0.039169513 -0.020367458 0.04022993 0.050176386 -0.048189603
0.064314246 0.066081695 0.27727923 0.11654951 0.042408705 0.11824452 0.19840045 0.008074808
-0.00060329575 0.013513421 -0.05478323 0.19030853 -0.004646305 -0.042296696 0.09649277 0.25775388
-0.013749309 0.050881226 -0.048581414 0.3610399 0.030370232 0.09462936 0.2540689 -0.034378674
-0.094591595 0.023785532 0.32033414 0.009378532 0.0043220585 0.15903915 -0.030520339 -0.0527791
0.0003071868 0.45505342 0.05567282 0.20961998 0.07396981 0.09111632 0.02600302 0.040924776
0.063971356 -0.008868848 0.15005516 0.047526546 0.06615585 0.1233383 0.10973269 0.08628996
0.24000481 -0.057286218 0.06845977 0.03186437 0.022586375 -0.027710687 -0.0097247595 0.25313392
0.050142534 0.017522084 -0.03285036 0.1329599 0.0015294424 -0.003735331 0.10057954 0.021098593
0.16562442 -0.026411831 0.08760656 0.34797746 0.048633534 0.0776649 0.17791669 0.2685542
0.061888386 0.03400165 0.012165394 0.21774217 0.21186434 0.02842791 0.012983271 0.0028227298
0.07692155 0.05303269 0.06511873 0.05060526 0.09507793 0.067099124 0.12578416 0.04742282
0.3092488 0.29892993 -0.0019988394 -0.050645445 -0.012864493 0.031979237 0.0971179 0.005623339
-0.002533642 0.087750085 -0.015456958 0.11525267 -0.030045697 0.087703764 0.009487299 0.020664565
0.08927865 0.021872494 -0.050062455 -0.05309323 0.21297096 0.025925292 0.040638212 0.07271745
0.32726285 0.15997486 0.08962253 0.07161879 0.049193773 0.22120345 0.08916651 0.11847735
0.00048849516 0.3206985 -0.036276016 0.042001504 0.08402159 0.02178147 0.18028447 0.07449607
0.061108258 0.17961258 0.008149176 0.017215166 0.01878434 -0.05743826 0.07488378 -0.041482124
0.026132477 0.02940129 0.041546974 0.09886687 0.07930646 0.22380619 -0.03645109 -0.093613125
0.09682851 0.031145604 0.062360026 0.14517148 0.12883513 0.022662275 0.056649987 0.08236434
0.10404881 0.035355203 -0.0065438235 0.05164408 0.057842474 0.09629382 -0.07243043 0.057434924
0.02149093 0.043847527 0.049317166 0.09104311 0.0049688173 0.030924378 -0.010192836 0.030532617
0.26034603 -0.03219738 0.060106024 -0.006868971 0.10324995 -0.037246976 -0.04123777 0.12897272
0.006716002 0.009195216 0.10920194 0.021332325 0.13488531 0.07038419 0.38108963 -0.0017869488
-0.02700171 0.045524403 0.12968458 0.03645985 0.079929695 0.03591674 0.04397611 0.08189699
0.26758572 0.04669401 0.22772549 0.099112585 0.021854177 0.35721982 0.05877929 0.07742443
0.032064237 0.07740158 0.011019069 0.017817015 -0.010602384 0.10930096 0.2712801 0.041233044
0.06590727 0.035820767 0.10884498 -0.06439607 0.050081972 0.0646117 0.2615318 0.017698461
0.01757835 0.020933045 0.0984798 0.11074905 0.06897769 0.09143102 0.053570338 0.14567482
-0.07817515 0.061598442 0.104527 0.1510517 0.004925335 0.17128606 0.105339766 0.6019468
-0.0074136495 0.06293837 0.12841111 0.3557917 0.043267407 0.36302847 0.08392887 -0.05137849
00000000: 733e 74bd 2398 8fbc ce16 83bc 0353 83bd
00000010: b7b9 ccbc 9274 f03c 7ceb 893c 7c73 233d
00000020: ff39 0b3e 69c8 c8b9 827f 5d3e 3670 20bd
00000030: a8d9 a6bc 24c8 243d c185 4d3d 7662 45bd
00000040: 30b7 833d d755 873d 8bf7 8d3e 82b1 ee3d
00000050: c0b4 2d3d 2f2a f23d 7d29 4b3e 334c 043c
00000060: 7e26 1eba 6567 5d3c 6164 60bd 3de0 423e
00000070: 0840 98bb 4d3f 2dbd 009e c53d 51f8 833e
00000080: c844 61bc d568 503d 4efd 46bd 39da b83e
00000090: feca f83c 0acd c13d 5215 823e a7d0 0cbd
000000a0: 3db9 c1bd e0d9 c23c d602 a43e 6aa8 193c
000000b0: 0ea0 8d3b 29db 223e ca05 fabc e62e 58bd
000000c0: ea0d a139 c3fc e83e 2f09 643d 9fa6 563e
000000d0: 7c7d 973d 319b ba3d 4904 d53c bda0 273d
000000e0: 6a03 833d a54e 11bc 0fa8 193e 32ab 423d
000000f0: b87c 873d ca98 fc3d 88bb e03d cab8 b03d
00000100: d2c3 753e f4a4 6abd a334 8c3d 3784 023d
00000110: 1007 b93c 8601 e3bc 9954 1fbc c59a 813e
00000120: 4262 4d3d 798a 8f3c 198e 06bd a426 083e
00000130: 9277 c83a 74cc 74bb a5fc cd3d f5d6 ac3c
00000140: 7399 293e a05d d8bc 116b b33d 1a2a b23e
00000150: f533 473d c60e 9f3d cb2f 363e f07f 893e
00000160: ad7e 7d3d 5045 0b3d 5c51 473c cef7 5e3e
00000170: f7f2 583e a6e1 e83c c9b7 543c 8cfd 383b
00000180: 0c89 9d3d ce38 593d f85c 853d 7647 4f3d
00000190: 38b8 c23d 446b 893d 90cd 003e 6e3e 423d
000001a0: dc55 9e3e 580d 993e f6fe 02bb 9971 4fbd
000001b0: 98c5 52bc a9fc 023d c0e5 c63d fd43 b83b
000001c0: 760b 26bb 51b6 b33d 2e3f 7dbc 9809 ec3d
000001d0: 6522 f6bc 089e b33d 9e70 1b3c bc48 a93c
000001e0: bad7 b63d f22d b33c 4a0e 4dbd 4978 59bd
000001f0: 0f15 5a3e 4761 d43c 4174 263d e3ec 943d
00000200: ff8e a73e 73d0 233e 048c b73d dfac 923d
00000210: 697f 493d 2883 623e ee9c b63d 41a4 f23d
00000220: 5b0e 003a 9832 a43e 2996 14bd c509 2c3d
00000230: 8313 ac3d 0e6f b23c 7e9c 383e 6591 983d
00000240: a74c 7a3d 5cec 373e 1f84 053c d206 8d3c
00000250: 9ee1 993c 6244 6bbd ab5c 993d 29e9 29bd
00000260: c713 d63c f9da f03c 292d 2a3d b77a ca3d
00000270: 6d6b a23d 732d 653e bd4d 15bd 3db8 bfbd
00000280: 074e c63d 1125 ff3c 3a6d 7f3d d5a7 143e
00000290: 5bed 033e 3ca6 b93c d109 683d a3ae a83d
000002a0: 8b17 d53d 9ed0 103d 926d d6bb be88 533d
000002b0: 3bec 6c3d b235 c53d 6856 94bd e240 6b3d
000002c0: bf0d b03c 7799 333d cc00 4a3d cf74 ba3d
000002d0: 76d1 a23b 1f55 fd3c daff 26bc 8a1f fa3c
000002e0: 134c 853e 66e1 03bd bc31 763d 1b15 e1bb
000002f0: b674 d33d 4990 18bd f0e8 28bd 6d11 043e
00000300: e811 dc3b 88a7 163c 44a5 df3d 21c1 ae3c
00000310: 601f 0a3e 9625 903d 2e1e c33e 0d38 eaba
00000320: b132 ddbc cc77 3a3d 09cc 043e ec56 153d
00000330: 2eb2 a33d 6e1d 133d 4b20 343d 9cb9 a73d
00000340: ff00 893e 3842 3f3d df30 693e 8afb ca3d
00000350: 8807 b33c 84e5 b63e 8ec2 703d b390 9e3d
00000360: ca55 033d b884 9e3d 5389 343c fdf4 913c
00000370: 9fb5 2dbc 2fd9 df3d 3ae5 8a3e fbe3 283d
00000380: 64fa 863d ccb8 123d 1eea de3d 16e2 83bd
00000390: c122 4d3d 2453 843d 7fe7 853e 5dfc 903c
000003a0: 7900 903c c77b ab3c c7af c93d 66d0 e23d
000003b0: 2d44 8d3d 3040 bb3d 926c 5b3d c82b 153e
000003c0: 4b1a a0bd a64e 7c3d 4012 d63d 4cad 1a3e
000003d0: b464 a13b 9d65 2f3e 60bc d73d 2f19 1a3f
000003e0: 33ee f2bb d5e5 803d 347e 033e 542a b63e
000003f0: 2a39 313d dede b93e e6e2 ab3d 4072 52bd

network_body._body_endoder.seq_layers.0.weight f4 [256, 11]
-0.4213604 0.10046878 0.21562703 0.1987665 -0.2046923 -0.43444425 -0.4067491 0.07642673
0.1891039 0.5260641 -0.07742547 0.028862257 0.40573823 -0.1670113 -0.43387493 -0.04654151
-0.0645297 0.7498792 -0.13225235 -0.09708757 0.61146253 0.20057319 -0.31861508 0.08439335
0.17971964 0.35514212 0.42829442 -0.17622851 -0.077965714 -0.35330358 -0.09069842 0.67456615
-0.33938318 -0.032026052 -0.2709479 -0.17487767 0.2567941 0.0002369114 0.14137463 0.241281
-0.40472898 0.37985867 0.2095942 0.5522584 -0.31202728 0.17777902 -0.014228266 -0.22137123
-0.023000648 -0.8898532 -0.32485256 0.35333082 -0.24890977 0.01704269 -0.18079403 -0.6850997
0.18767057 0.09644948 0.76466036 -0.40136415 0.28227985 -0.050931167 0.6014291 -0.08247232
-0.15008946 -0.058984563 0.32302028 0.24694614 0.65911645 0.24749231 -0.5550107 -0.5572625
-0.36284924 -0.26024443 -0.28743398 0.1946737 -0.212465 0.46032813 0.05597086 0.40459272
-0.36925286 0.38894698 -0.12771343 -0.42201272 -0.058558192 0.120647565 0.107306644 0.5168588
-0.000618894 0.52612674 0.5552347 0.44788858 0.33288693 -0.18310806 0.29458204 0.03988715
-0.60375524 0.4681589 -0.313798 -0.40799326 0.007962824 0.21363482 -0.77674836 -0.16027142
-0.31143597 -0.25557104 -0.102885544 -0.43681327 0.00055917643 0.15276478 0.16332608 -0.34560472
-0.7696578 0.9115009 0.7162326 0.04277321 0.1715267 0.113804586 0.056564175 0.19640456
-0.20331842 0.05836719 -0.059453208 0.3267557 0.30020213 0.2818441 0.22440809 -0.22004698
0.8874398 0.1183238 0.79339236 0.06838073 -0.48039517 -0.05847307 -0.54674935 -0.4718845
-0.24662042 0.166286 0.2137199 -0.16440685 0.6156662 0.2810804 -0.13915658 0.88941777
0.07200478 0.27893886 -0.33808023 -0.5483482 -0.4542981 0.13257636 0.09605435 0.27056587
-0.2994562 -0.4428163 0.3318232 0.13583788 0.3691067 0.14043255 0.3200964 -0.5240563
-0.42771155 -0.41504222 -0.10259496 0.18623297 -0.30966055 -0.06033512 -0.32432434 0.04375558
-0.27356994 -0.32950565 -0.5747376 0.1260184 -0.33934045 0.014005768 0.5491629 -0.15573812
0.6893185 -0.8397111 0.086489275 -0.34775847 -0.3221198 0.01233802 0.2437801 -0.10841485
-0.20699236 0.011548084 -0.10654771 0.42818332 -0.340788 -0.37120542 -0.0114733875 -0.20613256
-0.12903067 -0.048814036 -0.47179934 -0.5830645 -0.50647855 0.088712335 0.29140475 -0.07479303
-0.54937893 -0.0352022 0.6878515 0.082837455 1.0014371 -0.27579823 0.25732118 0.08764337
-0.056178376 0.07738169 0.33653426 0.4336432 -0.15461926 0.3139467 -0.3063739 0.6569569
-0.15787432 -0.31760678 0.21529984 -0.34005633 -0.623221 -0.2971674 0.11840394 -0.18390237
-0.015796248 -0.13847779 0.2594995 0.1368544 0.08499702 -0.16012478 0.14289574 -0.21723527
0.42813858 -0.24465191 -0.6917737 0.35136253 0.23979895 -0.16836633 -0.0065816958 -0.0858169
0.05264232 0.08654449 0.68265975 0.01526357 -0.014452025 0.7337341 0.2389705 0.34813514
0.35918897 0.07985205 -0.427101 -0.4026074 -0.63339746 0.03037489 0.17358056 0.3813289
00000000: 8dbc d7be 93c2 cd3d 55cd 5c3e 7289 4b3e
00000010: dc9a 51be 7a6f debe 6b41 d0be 9e85 9c3d
00000020: 74a4 413e 23ac 063f 3f91 9ebd 8a70 ec3c
00000030: ecbc cf3e 0305 2bbe db24 debe 4fa2 3ebd
00000040: 2628 84bd 15f8 3f3f 296d 07be d9d5 c6bd
00000050: cf88 1c3f 0f63 4d3e 8421 a3be 6cd6 ac3d
00000060: 6d08 383e 30d5 b53e 6849 db3e 3f75 34be
00000070: 7dac 9fbd 35e4 b4be 18c0 b9bd 5eb0 2c3f
00000080: a2c3 adbe c02d 03bd afb9 8abe 2213 33be
00000090: 847a 833e 6b6b 7839 83c4 103e 5e12 773e
000000a0: a338 cfbe d67c c23e dd9f 563e ce60 0d3f
000000b0: 0ac2 9fbe b40b 363e ac1d 69bc 24af 62be
000000c0: db6b bcbc 6bcd 63bf 1353 a6be c7e7 b43e
000000d0: 34e2 7ebe 1d9d 8b3c 1222 39be b262 2fbf
000000e0: b72c 403e 4e87 c53d c8c0 433f 9a7f cdbe
000000f0: fc86 903e 339d 50bd 42f7 193f 3fe7 a8bd
00000100: 0db1 19be cc99 71bd ea62 a53e 73df 7c3e
00000110: dbbb 283f a06e 7d3e 2e15 0ebf c1a8 0ebf
00000120: 60c7 b9be c23e 85be 8c2a 93be 8b58 473e
00000130: 6d90 59be 21b0 eb3e b341 653d c726 cf3e
00000140: b60e bdbe 0f24 c73e 4fc7 02be 0d12 d8be
00000150: b7da 6fbd 1216 f73d 96c3 db3d dc50 043f
00000160: 463d 22ba 3eb0 063f dc23 0e3f a751 e53e
00000170: 2870 aa3e ae80 3bbe 75d3 963e b560 233d
00000180: b48f 1abf 86b2 ef3e 22aa a0be 7ee4 d0be
00000190: 8176 023c 16c3 5a3e fbd8 46bf 311e 24be
000001a0: 8974 9fbe 35da 82be a8b5 d2bd fda5 dfbe
000001b0: b295 123a 5f6e 1c3e f43e 273e 1af3 b0be
000001c0: 4b08 45bf 1f58 693f 055b 373f f632 2f3d
000001d0: b2a4 2f3e 6112 e93d d6af 673d 471e 493e
000001e0: b432 50be 6f12 6f3d 3585 73bd 864c a73e
000001f0: 18b4 993e df4d 903e 3ccb 653e ff53 61be
00000200: 412f 633f c053 f23d c31b 4b3f 320b 8c3d
00000210: 5bf6 f5be 7581 6fbd c4f7 0bbf d89a f1be
00000220: 108a 7cbe e146 2a3e 64d9 5a3e 455a 28be
00000230: 4d9c 1d3f c5e9 8f3e 107f 0ebe e2b0 633f
00000240: 3e77 933d 13d1 8e3e da18 adbe 8c60 0cbf
00000250: c399 e8be 19c2 073e 25b8 c43d 9c87 8a3e
00000260: 5352 99be d1b8 e2be bbe4 a93e 1619 0b3e
00000270: 8efb bc3e 8dcd 0f3e ade3 a33e 8e28 06bf
00000280: 02fd dabe 6a80 d4be 4e1d d2bd dbb3 3e3e
00000290: d48b 9ebe f521 77bd d70d a6be 0d39 333d
000002a0: 5c11 8cbe f7b4 a8be 0122 13bf f80a 013e
000002b0: 08be adbe 7378 653c f195 0c3f d079 1fbe
000002c0: 2d77 303f 4ff7 56bf 4a21 b13d 660d b2be
000002d0: e3ec a4be 6825 4a3c 7ea1 793e 9b08 debd
000002e0: cef5 53be 2d34 3d3c b035 dabd d83a db3e
000002f0: c47b aebe a30e bebe e0fa 3bbc 6a14 53be
00000300: 9e20 04be 3af1 47bd af8f f1be b743 15bf
00000310: 94a8 01bf d0ae b53d 0133 953e 172d 99bd
00000320: 19a4 0cbf 2f30 10bd 0917 303f afa6 a93d
00000330: 172f 803f 6d35 8dbe 9abf 833e 5e7e b33d
00000340: 4c1b 66bd 4b7a 9e3d 384e ac3e 7b06 de3e
00000350: 8354 1ebe 9fbd a03e 0add 9cbe 542e 283f
00000360: cea9 21be 5b9d a2be 9077 5c3e dd1b aebe
00000370: 698b 1fbf 5326 98be c47d f23d e750 3cbe
00000380: 2267 81bc 1fcd 0dbe 1edd 843e 8f23 0c3e
00000390: eb12 ae3d c0f7 23be 4353 123e ec72 5ebe
000003a0: fb34 db3e 0886 7abe 1518 31bf cae5 b33e
000003b0: db8d 753e 3968 2cbe 44ab d7bb c5c0 afbd
000003c0: 799f 573d 3d3e b13d cac2 2e3f 0d14 7a3c
000003d0: 30c8 6cbc ffd5 3b3f afb4 743e c53e b23e
000003e0: 9ee7 b73e 7989 a33d fbac dabe 8f22 cebe
000003f0: 5626 22bf c3d4 f83c 1abf 313e 8b3d c33e

network_body._body_endoder.seq_layers.2.bias f4 [256]
0.014729119 0.020124977 -0.083784334 -0.08742218 -0.008774462 0.004890977 -0.053956594 -0.024626467
-0.002408343 -0.0008799288 -0.027093098 -0.03009732 -0.05485762 -0.026527796 -0.020292658 -0.067175105
-0.0806646 -0.037982475 -0.000730447 -0.048859973 -0.0013069699 0.024395024 0.030006627 0.110372044
-0.01845268 -0.045932263 0.026940962 0.012546728 0.012436279 0.009512431 0.05889754 -0.07148216
0.020118523 -0.0067339493 -0.035450645 -0.012777006 -0.06510914 -0.034492616 -0.09162942 0.014657573
0.008893857 -0.0019200485 -0.11347811 -0.046515953 0.00882451 0.055916667 0.007618885 -0.0050369315
-0.004398584 -0.03881257 -0.04969676 -0.033125244 -0.03285517 0.032869633 -0.018343776 0.071757585
-0.056170817 -0.0053878934 -0.05751457 -0.017242793 -0.05358022 -0.00052398036 -0.037320085 -0.043258887
0.07636482 0.0057150363 0.00828546 -0.057710398 -0.05645141 0.017769203 -0.06902897 0.0054279887
-0.050060317 -0.01129417 -0.024098849 -0.03021664 -0.029385619 -0.057544626 0.012513162 0.005547098
-0.05848889 -0.009190877 -0.006889083 -0.034870315 0.0030316336 0.00034072794 -0.0020940262 -0.052098405
0.0015017637 -0.010072395 -0.054144956 -0.050485633 0.037993625 0.011777776 -0.017761715 0.026744153
0.01933469 -0.02974801 -0.0065391385 -0.012803465 0.00097280456 0.020936193 -0.065517545 -0.064326204
0.019422766 -0.043008246 -0.0071707144 -0.078454755 0.0698093 -0.05403334 -0.056197893 -0.05161574
0.028685661 -0.030899195 -0.071484365 0.041001685 -0.05035002 -0.034824558 -0.05784401 0.012823756
-0.02056147 -0.00372821 0.0065801134 0.008626473 0.008541435 -0.069637194 -0.022329763 -0.06177552
-0.018436227 0.020595724 -0.063139044 -0.0433722 -0.054295372 0.007346202 -0.066461176 0.05628472
-0.010082585 -0.008459854 -0.05487308 0.00455588 -0.025182603 0.005011465 0.06827798 0.017733287
-0.081404455 0.01055948 -0.064172246 -0.077378035 -0.033640813 0.043659635 0.06367534 -0.046605065
-0.0040185885 0.03566154 0.01229482 -0.089346975 -0.058516808 -0.07509674 -0.028538374 -0.047480635
0.017780734 0.022451602 -0.062445983 0.014010248 0.050193843 0.026514959 -0.018867515 -0.0010975596
0.0027504645 0.04217598 0.016296132 -0.056401927 -0.03448207 -0.038209066 0.007451332 0.026868893
-0.0076123797 0.028755568 0.012610082 0.00042093376 0.003984223 -0.022552593 0.08177575 -0.0054305946
-0.0075319065 -0.042978417 0.03281551 -0.0021938742 -0.053242303 -0.07522519 -0.061020702 0.0006691765
-0.011255627 -0.07212505 -0.06041926 -0.06125757 0.005353507 -0.07638133 -0.031069387 0.010339456
0.050000995 -0.016734473 -0.045873497 -0.09452944 0.04589164 0.0022466637 -0.022321932 0.0051758657
-0.0047383197 0.038379032 -0.006861 0.014328163 -0.10082478 -0.03767529 -0.010300458 -0.0071783173
-0.00558132 -0.005993413 0.036858194 -0.013167515 -0.07901897 0.012670241 -0.034310184 -0.018847119
-0.050395116 0.0069363215 -0.0068377266 0.028473312 0.048394654 -0.049239825 -0.04869371 -0.009754858
-0.078608066 -0.073548615 -0.029972082 -0.05630171 -0.067476824 -0.047979176 -0.032409623 -0.040673573
0.050526142 -0.0023560748 0.0023624257 -0.028478168 -0.015793847 -0.061572168 0.02113284 0.048444882
0.057136305 -0.026993038 -0.0039637648 0.0353588 -0.024443278 -0.0029179254 -0.054270122 -0.02317285
00000000: 6752 713c 23dd a43c 1f97 abbd 660a b3bd
00000010: c3c2 0fbc 7d44 a03b 9701 5dbd 72bd c9bc
00000020: 4ad5 1dbb 06ab 66ba 58f2 ddbc a88e f6bc
00000030: 62b2 60bd d250 d9bc ca3c a6bc 1a93 89bd
00000040: 7b33 a5bd 8393 1bbd 787b 3fba 6521 48bd
00000050: a24e abba 13d8 c73c 75d0 f53c bd0a e23d
00000060: 132a 97bc 7823 3cbd 4bb3 dc3c cb90 4d3c
00000070: 89c1 4b3c 07da 1b3c 8c3e 713d 3d65 92bd
00000080: 9acf a43c 76a8 dcbb b234 11bd a656 51bc
00000090: f157 85bd 2148 0dbd 35a8 bbbd 5126 703c
000000a0: 8ab7 113c 23aa fbba 3667 e8bd 8387 3ebd
000000b0: ad94 103c e008 653d d7a7 f93b d80c a5bb
000000c0: ff21 90bb eef9 1ebd d48e 4bbd 56ae 07bd
000000d0: 2593 06bd 4fa2 063d b045 96bc a4f5 923d
000000e0: 5f13 66bd ed8c b0bb 6694 6bbd c240 8dbc
000000f0: ef76 5bbd ba5b 09ba f2dc 18bd 3b30 31bd
00000100: 2965 9c3d 3345 bb3b bdbf 073c bd61 6cbd
00000110: 9839 67bd b890 913c 105f 8dbd 45dd b13b
00000120: 0c0c 4dbd 2f0b 39bc f36a c5bc e388 f7bc
00000130: 1cba f0bc eab3 6bbd 0104 4d3c 6ec4 b53b
00000140: 0c92 6fbd 5595 16bc d1bd e1bb 2dd4 0ebd
00000150: 5fae 463b bba3 b239 ee3b 09bb 2365 55bd
00000160: d4d6 c43a b006 25bc 1ac7 5dbd 06ca 4ebd
00000170: 349f 1b3d 93f7 403c 0481 91bc 8e16 db3c
00000180: c963 9e3c 19b2 f3bc 4546 d6bb a0c5 51bc
00000190: cf03 7f3a 6182 ab3c 102e 86bd 75bd 83bd
000001a0: 7e1c 9f3c 6a29 30bd 50f8 eabb e3ac a0bd
000001b0: 2ef8 8e3d 1052 5dbd c32f 66bd 076b 53bd
000001c0: 31fe ea3c 4f20 fdbc 6566 92bd 62f1 273d
000001d0: d33b 4ebd 32a4 0ebd d7ed 6cbd bb1a 523c
000001e0: 8770 a8bc fc54 74bb fe9d d73b 0d56 0d3c
000001f0: 60f1 0b3c f29d 8ebd e8ec b6bc 5408 7dbd
00000200: 9207 97bc 5db8 a83c 0b4f 81bd 0ca7 31bd
00000210: d364 5ebd 69b8 f03b cc1c 88bd ce8a 663d
00000220: 6d31 25bc 339b 0abc 98c2 60bd 7e49 953b
00000230: bf4b cebc 3737 a43b 53d5 8b3d 6645 913c
00000240: 61b7 a6bd ab01 2d3c bd6c 83bd 6078 9ebd
00000250: f3ca 09bd 72d4 323d 3768 823d f4e4 3ebd
00000260: 5dae 83bb d611 123d 3670 493c 8cfb b6bd
00000270: 52af 6fbd 52cc 99bd 4fc9 e9bc 0e7b 42bd
00000280: e7a8 913c 6cec b73c 5cc7 7fbd 3d8b 653c
00000290: 0f98 4d3d e635 d93c 0c90 9abc fddb 8fba
000002a0: 2341 343b b8c0 2c3d 777f 853c b505 67bd
000002b0: 123d 0dbd 1c81 1cbd 4e2a f43b 271c dc3c
000002c0: 4571 f9bb cc90 eb3c 849a 4e3c c6b0 dc39
000002d0: 168e 823b 37c0 b8bc 0b7a a73d 21f3 b1bb
000002e0: 36ce f6bb 230a 30bd 8e69 063d 1ac7 0fbb
000002f0: 9a14 5abd aa0f 9abd d8f0 79bd ad6b 2f3a
00000300: 8569 38bc 4cb6 93bd 307a 77bd 38e9 7abd
00000310: 796c af3b d16d 9cbd 3a85 febc d266 293c
00000320: d8cd 4c3d bc16 89bc d9e5 3bbd a798 c1bd
00000330: dff8 3b3d c33c 133b 7cdc b6bc 4f9a a93b
00000340: e843 9bbb 5533 1d3d 3dd2 e0bb acc0 6a3c
00000350: 397d cebd 6851 1abd 41c3 28bc 1738 ebbb
00000360: 81e3 b6bb 6464 c4bb 9ef8 163d 90bc 57bc
00000370: b3d4 a1bd d896 4f3c d688 0cbd 4665 9abc
00000380: 1c6b 4ebd 154a e33b 020f e0bb dd40 e93c
00000390: 7939 463d b3af 49bd 0e73 47bd d7d2 1fbc
000003a0: 44fd a0bd a8a0 96bd 0388 f5bc 9f9c 66bd
000003b0: 4a31 8abd d085 44bd f4bf 04bd 5599 26bd
000003c0: 80f4 4e3d 6068 1abb edd2 1a3b 0c4b e9bc
000003d0: 1962 81bc 1933 7cbd c71e ad3c 246e 463d
000003e0: c207 6a3d 8120 ddbc 78e2 81bb 64d4 103d
000003f0: 453d c8bc aa3a 3fbb 594a 5ebd fdd4 bdbc
