Assets/Models/Volleyball.onnx (onnx, 289481 bytes, 15 tensors)

92 f4 [9]
00000000: 33ee 193e b7a2 883d 0d61 0b3f ca9f 1f3f
00000010: 43ab d03e f7b2 d13e 61be 113e 8748 1b3e
00000020: 0f3f 043f
0.15032272 0.066716604 0.5444496 0.62353194 0.40755662 0.40956852 0.1423278 0.15164386
0.5165872

action_model._discrete_distribution.branches.0.bias f4 [3]
00000000: cf66 43bc dd51 08bd 0532 413d
-0.011926367 -0.033281196 0.047166843

action_model._discrete_distribution.branches.0.weight f4 [3, 256]
00000000: 5d2f da3c ff87 3a3c 44f8 a13d 2786 eabc
00000010: 8fb2 5abc 208d 163b d51d 133c 21f8 583c
00000020: 3b68 3bbd d6b0 dd3c de72 3e3c 4bc5 113d
00000030: c04e 0a3c 42a8 1e3d 4ba2 a93b c058 8d3b
00000040: 0194 333d 02d7 213d b5e7 0a3d bf6b e23c
00000050: 76d9 e1bb 32e2 3ebc 4600 66bb 706d 2c3d
00000060: a428 293b 859b 7c3d 2c03 a03c 3b71 0bbc
00000070: 4891 bcbd e01f db3c 8ab5 6ebb a9b0 ebbb
00000080: 3bc7 273d 04e5 1f3d a9b2 96bc 7410 1b3c
00000090: 3569 5c3c 9fb9 143d ce84 c7bc 24d5 b33c
000000a0: 08ef 4d3d 9388 fbbc b5d8 3c3b f8c0 a0bc
000000b0: b147 04bd 2624 dc3b c50f 60bc b1b3 04bd
000000c0: f35c 133d e846 cabc de1e 42bc 72a7 043d
000000d0: b970 06bc b7b2 a13c 137c 8abc d4c8 b63b
000000e0: a493 f2bc 0986 cebc 9645 a83a a6a1 5b3c
000000f0: 9ac1 203c 0e93 05bc f77b 1bbc e2d8 b6bc
00000100: f037 2fbd c5d8 52bc 171d 4a3d 6085 85bd
00000110: d42e 0c3c 37bc cf3a ab28 fabb 0822 f23c
00000120: f058 f73c 1fc6 4abd ffc5 5dbc ed19 283c
00000130: a4d5 173d afc5 a73c faa6 693d 7f7c 32bb
00000140: b35f 44bb 48b5 ea3c 3dab bdbc 7fb5 8a3c
00000150: 2a1b 92bc c7da 75bc 6ad7 f6bc 9ba1 3fba
00000160: 58b1 903b a6dd 1b3b d6da 433d 15ff 24bb
00000170: cda5 423d 6525 123d d1ef 02bc faa8 723b
00000180: fc81 033c 21ca 223d 4553 22bd 879d f5ba
00000190: 2b7a 01bc 937d 833c e6d8 dc3b 8290 9c3c
000001a0: eecf a23c 5005 1ebb 5f8a 893c 4bb6 f43c
000001b0: 8ddb ae3a eeec 5e3d b30e 85bc 1301 973c
000001c0: ffb1 98bc ca12 8a3c 431f 91bb be9e afbd
000001d0: 0494 6fbc 30c4 4a3d a722 15bc f0d5 6c3c
000001e0: 4fe4 e23c d850 d13c 5da6 d13c 7cde a83c
000001f0: dc64 81bc a969 983c c72b 22bc b760 9ebd
00000200: 45ef 2a3c 9497 dd3a d3dc 003c 06a6 e43c
00000210: 08ab 313d 6b39 8c3b 311f c1bc b6ff 05bd
00000220: 73a2 dfbc ab3c 513d 1257 88bc 886d 05bc
00000230: cb77 73ba 2025 8a3d f909 48bc 2baa 2c3d
00000240: 7900 80bc e011 9d3c 3349 31bd 37ac 003d
00000250: e206 1b3d 8629 b73c 5c6b 723d 2776 803c
00000260: c76c 97bc 2ecd 05bc 4afc ed3b 1f13 5c3d
00000270: a41e 9ebc a924 c03b 5330 f9bc ecf7 323c
00000280: a8a3 0f3c 6e28 6d3c c464 2d39 8dec 0bbd
00000290: d073 08bb 463e 27bd 549d 8e3a f4cf 08bd
000002a0: 1300 a43c 821a 473d 48d5 0d3d 6bcf 4a3c
000002b0: 8779 12bd 1fd9 7f3c 32c3 ffbc ff74 3abd
000002c0: 9f30 863d 37c0 8e3c ba0c 413c ff19 a6bc
000002d0: 7dd1 723b b66b 373c 7a0f 2cbb fe37 733d
000002e0: e6be 183d ba74 a0bc b5a9 7abc 89a2 ec3b
000002f0: 3ddc a93b fccb ce3c b471 b63c daaf 52bc
00000300: 9fb6 aa3c 920a bd3c 37a0 a43c cd1a bbbc
00000310: e59e 273d e104 353c b1b4 00bd 0c72 4b3c
00000320: ae1d 1538 93c1 73bd 2980 2bbd 3881 37bb
00000330: 7b77 25bd ea30 d4bc 2659 273d a0f1 493d
00000340: 231c 423d 704f 213b 8d48 ce3c 6041 34bc
00000350: 7ac8 30bc 90fe 713c 1adf 053d 2f91 12bd
00000360: 84ed d63c 6dcc 36bb 20b6 13bd 1ed8 9e3c
00000370: ddfa d73c a205 3b3d 61b5 413c 4f0c 8fbb
00000380: 069b 7c39 80b2 6ebc 80d6 b23c ee44 37ba
00000390: 54a8 5b3d 372f ba3c 59ce 663b acac 53bb
000003a0: 0900 4cbc 79aa d0bc 1ffe c5bc e26b 023d
000003b0: 652a 503c 1b87 0cbd a7d6 92bc 0d37 1dbd
000003c0: 001f 833b f501 00bc 058f 19bd 3124 2d3b
000003d0: 3cd1 29bd 023c dcbb 22b7 643d 19fb 513d
000003e0: f051 1fbd 78f2 163c 134f 4c3d 5f43 4fbc
000003f0: d721 543c 2946 b8ba 5105 f43c 8a64 883c
0.026633913 0.011384963 0.07908681 -0.028628422 -0.013348236 0.00229723 0.0089792805 0.013242752
-0.0457537 0.027061861 0.011624066 0.035588544 0.008441627 0.038734682 0.0051768175 0.0043135583
0.04384232 0.039511688 0.03391238 0.027639268 -0.0068923784 -0.011650609 -0.0035095378 0.042096555
0.0025811577 0.061671752 0.019532762 -0.008510883 -0.09207398 0.026748598 -0.0036424124 -0.0071926904
0.040961485 0.039036766 -0.018395739 0.009464372 0.013452818 0.036309835 -0.024355318 0.02195222
0.050276786 -0.030704772 0.002881569 -0.019623265 -0.032294933 0.0067181764 -0.013675635 -0.03239793
0.035977315 -0.024692014 -0.01184818 0.03238625 -0.008205586 0.019738538 -0.016904866 0.00557814
-0.029611416 -0.025210397 0.0012838121 0.013405239 0.009811783 -0.008152736 -0.009490005 -0.022320215
-0.042777956 -0.012869065 0.04934415 -0.0651958 0.008556087 0.0015848939 -0.0076342425 0.029557243
0.030193776 -0.04950535 -0.0135359755 0.010260087 0.037068978 0.020480005 0.057044007 -0.002723485
-0.0029964268 0.028650895 -0.023152942 0.016932247 -0.017835218 -0.015005774 -0.030132014 -0.0007310153
0.0044156723 0.0023783236 0.04781612 -0.0025176455 0.0475214 0.035680193 -0.007991747 0.0037026987
0.008026596 0.039743546 -0.039630193 -0.0018738963 -0.007902662 0.01605109 0.0067397235 0.019111875
0.01987454 -0.0024112053 0.016789613 0.02987208 0.0013340578 0.054425173 -0.01624236 0.01843313
-0.018639563 0.016854662 -0.0044287755 -0.085751995 -0.014622692 0.049503505 -0.0091025 0.014455304
0.027696757 0.025551245 0.025592024 0.020613901 -0.015795164 0.01860507 -0.009898133 -0.07733291
0.010433023 0.0016906136 0.007865149 0.027911197 0.043376 0.0042793057 -0.023574444 -0.032714568
-0.027299142 0.051083248 -0.01664308 -0.00814379 -0.0009287565 0.06745362 -0.012209409 0.042154472
-0.015625225 0.019173563 -0.0432827 0.031414237 0.03784836 0.022358667 0.059184417 0.01568134
-0.018484486 -0.008166594 0.007262741 0.053729173 -0.01930172 0.005863745 -0.03041855 0.010923367
0.008767046 0.014474971 0.00016536104 -0.03416114 -0.0020820983 -0.040830873 0.0010880628 -0.033401445
0.020019567 0.048609264 0.03462723 0.012378554 -0.03576043 0.015615731 -0.031221006 -0.045521732
0.065522425 0.01742564 0.011782819 -0.020276068 0.0037051134 0.011195114 -0.0026254342 0.05937957
0.03729143 -0.01958691 -0.01529925 0.007221524 0.005183725 0.025243752 0.022271015 -0.012859309
0.020839034 0.02307633 0.020095928 -0.022839928 0.040923018 0.0110485265 -0.03142232 0.012417328
3.555201e-05 -0.05951078 -0.04187027 -0.0028000604 -0.04039715 -0.02590223 0.040856503 0.049302697
0.047390115 0.0024613999 0.02518108 -0.011001915 -0.010789985 0.014770165 0.03268347 -0.03578299
0.026236303 -0.0027892843 -0.03606236 0.019390162 0.026364738 0.04565967 0.011823029 -0.004365481
0.00024090344 -0.014568925 0.021830797 -0.00069911673 0.053627327 0.022727592 0.0035218208 -0.0032298965
-0.01245118 -0.025471913 -0.024169026 0.031841166 0.01270542 -0.034308534 -0.01792462 -0.03838258
0.004001498 -0.007812967 -0.03748991 0.0026419277 -0.041459307 -0.0067210207 0.05583871 0.051264856
-0.0388965 0.0092130825 0.0498801 -0.01265034 0.012947521 -0.0014058995 0.029787691 0.016649503

action_model._discrete_distribution.branches.1.bias f4 [3]
00000000: 1683 7d3c f898 603d 0f1a 8ebd
0.015473148 0.054833382 -0.06938564

action_model._discrete_distribution.branches.1.weight f4 [3, 256]
00000000: 6dc5 01bd 243a 7cbd 3d44 183d 9312 9e3c
00000010: 189c f93c 54a2 79bb ff67 a5bc c812 b2bb
00000020: 3cd8 c9bb a33c 50bc 3255 4c3d e573 78bc
00000030: 8e7b 123c a52b 71bd 25b2 c2ba 3322 493c
00000040: 47d5 94ba 9ca8 833d 446e bdbc 646a 05bd
00000050: 343d d2ba c0c5 9abc 1694 a9bc a3b9 16bd
00000060: ddf9 2dbd 6ef5 dabb 9404 493d d806 623d
00000070: d0ef aa3c 3be2 693c 535b 49bc af0a f7bb
00000080: 5640 77bc 755f 8d3c 1382 fa3b 7a29 27bc
00000090: 0d8f 93bb 98e9 153d 6945 2e3d 65ce 843c
000000a0: 2c7b d1bb 7b14 40bb 4ed4 92bd 9fe3 82bc
000000b0: 9231 5abc ea19 c13b bd69 cdba e1ee 91bc
000000c0: 82eb b7bd 28bc 38bc e40e 84bc 6cf6 53bb
000000d0: 4f30 b63c 64ff 5e3c 5024 e2bc 557b a7bd
000000e0: e877 08bd 0c63 d3bc 478d cbbc 4c99 3abc
000000f0: 8384 493c 9980 c9bc c1cc e4bc 9880 10bd
00000100: 2c2f 0ebd 2517 32bd 62ce 39bd a6f5 ba3b
00000110: a580 44bd 50da 4a3a 96fd b33a 0404 a8bd
00000120: f576 19bd 768a 033d 88e0 10ba b06d e9bc
00000130: 515d 423c 0a09 a13c 2a19 b93c 133b a4ba
00000140: e0a8 8d3a 73e6 7d3b d30c 6fbd 0805 1bbc
00000150: 0971 823c 154c 793c bbc9 38bd a784 b2bc
00000160: 0428 0b3a a49d 1dbc 12f2 cc3b 7757 95bc
00000170: 8c24 36bc 6fe0 4bbd 273f 8cbc f1a7 eebb
00000180: f45d a339 7a25 863c af21 10bc 2b55 2b3c
00000190: 39e2 1ebd fc8a bc3b 48d1 b43c a6a3 b73c
000001a0: 3e49 c6bb c698 c0bc 2fb9 86bc fd05 16bd
000001b0: a890 fcbb 5001 133d 7b86 11bb 14cb a13a
000001c0: a890 99bc 7f30 c3bc 4dc2 4dbd bec4 77bd
000001d0: 849f 8b3c 5ec1 f2bc 839f 0cbc 97ad cf3b
000001e0: 55a5 86bc be37 3d3d d096 933c 0a2f 80bc
000001f0: a43a 3d3d 6b78 09bd 71d9 f6bb 3a3b 8dbc
00000200: 0069 603b 16a1 90bc b57a 6c37 b71c 863c
00000210: a21e b43b e177 54bd 1aeb 3e3d a3ee e2bc
00000220: 130c ffbb 4f71 623d d5dc 1b3d 660b 12bd
00000230: a942 9ebc a6ba 633d b206 82bc 3b4b be3b
00000240: 376c 32bd 4cf6 1abb 1f1f 0a3c 715e e23c
00000250: c027 ac3c 1b42 013d 0e7e 5b3c 2721 293d
00000260: 66df c4bc 5d33 76bc 69a6 7d3c 9fd5 e0bc
00000270: 85e4 35bd bfa0 cabc 130e 233d f4b4 1fbc
00000280: 3dce 04bd 95fd b63c e542 2bbb 5c9b 603b
00000290: 94a6 d13b ec0d b0bc 32b7 883c 93c3 0e3d
000002a0: fa5c e0bb 05dc 663b 8446 893c 1fe7 083d
000002b0: fd6d 0f3d 6319 45bb 59f6 6b3c 5b69 e13b
000002c0: c14c 043c 56e6 063c afa9 b33c ef75 ee3c
000002d0: e3c8 a93b ad1c c3bb 19a9 bbbc eb24 8dbc
000002e0: a3b0 5fbc 74c5 903c 04c2 b83c b9b5 a8bc
000002f0: 9b4a 713c b85b f63a fce4 f8bc 3959 c2bc
00000300: b75b e9bc 20db a6bc 624b 17bd 3024 c53c
00000310: 6fc3 78bc 373c cf3a 67ee e33c 272d 033a
00000320: 3c88 e03a 8033 31bc 387f 08bb 14ba a4bb
00000330: 1db4 2b3b a6d9 cdbc 2a9e 2ebc 3657 133c
00000340: d19f ccbc a66f 2e3c 72c2 2f3d 6f1c aebc
00000350: 77f8 a4bc b5a7 7d3a 8cc1 503b 55fa 3dbc
00000360: 406b 1abc c128 2b3d 78d2 4bbc beed a23a
00000370: 2470 65bd 2bca 1a3d ce53 e6ba 5ac2 67bc
00000380: 8f9a 873c 74a1 63bd 2137 243c fcc6 21bb
00000390: ceff 0abd 8bd9 bebb dff8 a7bc c932 cebc
000003a0: b3c4 5b3b 8ea6 cd3c d454 713c 4165 8dbc
000003b0: 3388 24bd e826 bcbc 03ab d93c a639 e03c
000003c0: 9506 84bc 3315 91bc 9aeb 113c 1a2e a7bd
000003d0: 3514 603c 1288 153d 71f9 3f3b 82c9 6c3c
000003e0: 3f05 f03c 820a 16bb 5127 3f3c 2b64 9b3c
000003f0: 0e78 22bd c666 09bc 0b16 733c 5361 bd3c
-0.03168242 -0.061578885 0.037174452 0.019295966 0.03046994 -0.003809114 -0.02019119 -0.005434368
-0.0061598103 -0.012709769 0.049885936 -0.01516435 0.008940591 -0.058879513 -0.0014854117 0.01227622
-0.0011355066 0.06428644 -0.023123868 -0.032572165 -0.0016039968 -0.018893123 -0.020700496 -0.03679813
-0.042474616 -0.0066820895 0.04907663 0.055182308 0.020866305 0.014275129 -0.01228984 -0.0075391154
-0.0150910225 0.017257432 0.0076449006 -0.01020276 -0.004503137 0.036599725 0.042546663 0.016211698
-0.006392857 -0.0029309082 -0.071694 -0.015977679 -0.013317483 0.005892982 -0.0015671771 -0.017814102
-0.089804664 -0.011275329 -0.016120382 -0.0032342924 0.022239832 0.013610695 -0.027605206 -0.081778206
-0.033317477 -0.025804065 -0.02484764 -0.011389088 0.01229966 -0.024597453 -0.027929666 -0.035278887
-0.034712955 -0.043479104 -0.045362838 0.005705553 -0.047974247 0.00077382196 0.0013732191 -0.08203891
-0.037466962 0.03211447 -0.0005526622 -0.028494686 0.011863069 0.01965763 0.022595007 -0.0012529813
0.0010807775 0.0038742095 -0.05836184 -0.009461649 0.01592304 0.015215893 -0.04511426 -0.02179177
0.0005308392 -0.009620104 0.006254443 -0.018230183 -0.011117112 -0.049774583 -0.017119957 -0.007283204
0.00031159783 0.016375292 -0.008797093 0.010457317 -0.03878996 0.005753873 0.02207245 0.0224169
-0.0060512116 -0.023510348 -0.016445724 -0.036626805 -0.007707674 0.035889924 -0.00222054 0.0012343847
-0.018745735 -0.023826836 -0.050234128 -0.060490362 0.017043836 -0.02963322 -0.008582952 0.006337832
-0.016436258 0.046195738 0.018016249 -0.01564743 0.046198502 -0.033562105 -0.0075332453 -0.017240155
0.0034242272 -0.017654937 1.4095266e-05 0.016371114 0.005496816 -0.051872138 0.04661093 -0.027701681
-0.007783422 0.05528384 0.0380524 -0.0356554 -0.019318895 0.055597924 -0.015872333 0.005807308
-0.043560233 -0.002364534 0.008430271 0.027632924 0.021015048 0.031557184 0.013396753 0.041291382
-0.024032306 -0.015026894 0.01548157 -0.027445612 -0.044407386 -0.024734853 0.039808344 -0.009747732
-0.032423247 0.022337714 -0.0026132402 0.003427229 0.0063980315 -0.021491013 0.016688917 0.034854483
-0.006847021 0.0035226357 0.016757257 0.03342354 0.035017002 -0.0030074946 0.014401996 0.0068790144
0.00807494 0.008233627 0.021931497 0.02910897 0.0051814183 -0.005954346 -0.02290778 -0.017229518
-0.013652953 0.017672278 0.022553451 -0.020594465 0.01472726 0.0018795645 -0.030382626 -0.023724185
-0.028486116 -0.020368159 -0.036937125 0.024065107 -0.015183314 0.0015810792 0.02782364 0.00050039816
0.0017130445 -0.010815501 -0.0020827781 -0.005027065 0.0026199885 -0.025128197 -0.010657826 0.008992961
-0.02497855 0.010646736 0.042910047 -0.021253793 -0.020138009 0.00096761744 0.0031853644 -0.011595328
-0.009424984 0.041786913 -0.012440316 0.0012430472 -0.05601515 0.03779046 -0.0017572583 -0.014145458
0.016553191 -0.055573896 0.010022909 -0.0024685254 -0.03393536 -0.005824273 -0.020504413 -0.0251707
0.003353399 0.025103834 0.014729697 -0.017260196 -0.040168952 -0.02296777 0.026570803 0.027371239
-0.01611642 -0.017710304 0.008906269 -0.0816309 0.013676693 0.03650672 0.0029292966 0.01445234
0.029299377 -0.0022894447 0.011667089 0.018968662 -0.039665274 -0.0083863195 0.014836798 0.023117697

action_model._discrete_distribution.branches.2.bias f4 [3]
00000000: f6a5 343d f3ad a3bb aae2 4bbd
0.044103585 -0.0049951016 -0.04977671

action_model._discrete_distribution.branches.2.weight f4 [3, 256]
00000000: 600d ec3c bb94 ae3c 19f6 d13a ef98 3c3c
00000010: 5615 953c 13df 803c 6de3 e6bc 5866 53bc
00000020: 2e4a 173d 95ae 7f3b 46ea bf3c 1d50 7e3c
00000030: 7539 653c adf9 a4bd d1c2 eb3c 6884 47bc
00000040: 0bec 0b3d c5a0 51bc 2ff5 ef3c e067 983c
00000050: 2594 9abc 7253 533c 3f95 9d3d 2859 32bc
00000060: 05bb 09bc 44c2 e8bc 9986 573b c117 f83c
00000070: 1526 35bd 1940 cdba 7fe2 933b 2ae2 d7bc
00000080: 6ba3 f6bb c987 9abc 464b f13c 3987 013b
00000090: 833f 9e3c d4fa e23c 463d c23b f0ea c6bc
000000a0: 3918 36bd c112 d2bb 9e65 4ebd 9fbf 223d
000000b0: 2357 603d d8f0 e53c 145c 533d 1a26 713d
000000c0: 90d7 afbc 8f96 c73c 328a 18bd 04ed 4cbd
000000d0: 6020 743c 7d60 b8bb 9296 463d 7d81 df3c
000000e0: 62ec 373c 2ade cbbd 1700 61bc 5352 323c
000000f0: 6836 95bb 42f7 6dbc ba8b 4dbd 725f c63c
00000100: 8a2e b03c c323 813c d24d 0b3b 9e4c 463d
00000110: 2be8 2f3b 1462 143b 2b48 cf3c d0c7 d8bc
00000120: 7941 6c3c 32b9 c6b9 cdb1 7f3c bd47 17bc
00000130: 1d85 dfbb 25a7 dd3a f947 7dbc 9fea 8e3c
00000140: a1e0 74ba 09f3 433d cca3 553c 24f3 e33b
00000150: a227 db38 10a3 24bd df39 703c f98c 41ba
00000160: 1c0b fabc db69 63bd 38e6 2dbc 838f 8abd
00000170: 335b a5bc aafc 91bc 01aa fb3c 476d 433c
00000180: 1ba8 81bc ab47 81bc 0c9c 423b 52e6 80bc
00000190: 804a ae3b 8ca3 913c 2e0e ab3c 8872 84bb
000001a0: 2fab cfbc 5c71 823c 021f cc3c ef52 08bc
000001b0: be50 8abb 2963 c5ba c279 23bd 1540 0d3c
000001c0: 84e9 e7bc 0d48 56bb 8367 18bc eb92 093c
000001d0: 804c a5bc a781 94bd bf5f 5ebd 727c 5f3c
000001e0: a8d1 053c 5ce8 acbb f2ca 823d 8f9d 12be
000001f0: 8c98 4cbc 3d9f 0bbd f2bf c4bc 9cfc ec3c
00000200: 717f 4cbd 2af8 14bd d3f1 1cbb 82a7 0d3c
00000210: 1d94 fa3b ab96 0dbb 9ea8 c43d 5a85 87bd
00000220: b90e 343d 41d7 00bc e274 903c c31d 1bbc
00000230: 8683 22bd 293a 83bd ea47 88bc 9116 35bc
00000240: b186 74bc 6d26 1d3b 0066 533d 96c6 8d3c
00000250: d99f 723c aa0c ef3c 8c25 6a3c a8e5 4e3d
00000260: 7b92 763d 7401 433a a07d d13b 7a88 9ebd
00000270: b14c 8ebc 33d2 d2bc a44d 77bd 6eb2 5ebd
00000280: c026 3a3b e4d9 a63c de7b 213d 576e 84bd
00000290: 63a6 96bc 6e5d ea3c 3251 55bd c946 853c
000002a0: 89fe 18bd 6a80 9a3c 7ce6 653d 2918 233d
000002b0: fd1f 64bb 4e22 8a3a e951 cc3c 5265 dc3b
000002c0: 22b2 e8bb 5b01 fb3b 6e5d 0fbc 0d92 c13c
000002d0: 9850 543d d2a0 b7bc 2851 34bc 79bc 0ebd
000002e0: f122 173c 5c63 cdbc abac 2d3d a9a3 573d
000002f0: 94b9 993b 49c4 d73c c85c b63c fa0b b63c
00000300: b78c 87bc 9243 72bb 28f9 eabc 7741 8e3c
00000310: d2b1 15bd c26f 14bd 7010 00bc 5678 ec3c
00000320: 4e46 493c a998 983c 2cab c93c 8c89 683c
00000330: cb9f a53c 093a 8abd fae4 de3c a8f4 563c
00000340: dddf 2dbd 4b76 063c 049b c43c 0a7f 5e3c
00000350: af81 21bd fe16 1e3c 78ce 16bc 9a1d a63d
00000360: 97a2 7fbc 23c6 513d 8a94 9bbc 0704 433c
00000370: b8ae 65bc d2d5 e23c 6b56 a63c c27c 71ba
00000380: e8e9 b5bc f566 db3a 1949 af3c 9c41 b93c
00000390: 9133 c5bc 51c7 2ebd 12eb d43c ae6b f83b
000003a0: 0fc4 813c ddc4 fbbb 735b 4f3c a275 2f3b
000003b0: 15e4 9e3c d5f0 293d dbfb 8f3c 6516 a63b
000003c0: 677e 2fbd 86e7 8c3b 2afc 24bc b167 41bd
000003d0: b15b 29bd 6e32 a63c e393 a03c e241 9cbc
000003e0: f2cd 663c 471f 233d 92f0 8dbd b2c1 813d
000003f0: 679e 1ebd 6b75 d03c 5d07 203d 0432 5b39
0.028814971 0.021311155 0.0016018777 0.011511072 0.01819865 0.01573137 -0.028184617 -0.012902819
0.036935978 0.003901397 0.02342714 0.01552203 0.01399075 -0.080554344 0.02877942 -0.012177564
0.034160655 -0.012794678 0.029291717 0.018604219 -0.018869469 0.012898313 0.07694482 -0.010885514
-0.008406405 -0.028412946 0.0032886623 0.030284764 -0.04422577 -0.0015659361 0.0045130844 -0.02635296
-0.007526805 -0.018863576 0.029454838 0.0019764437 0.019317394 0.027707495 0.0059277145 -0.024281949
-0.044456694 -0.006410927 -0.05038988 0.039733525 0.0547706 0.028068945 0.051601484 0.058874227
-0.021465093 0.024363784 -0.03724117 -0.050030723 0.014900297 -0.0056267367 0.04848344 0.027283425
0.011225792 -0.09954484 -0.013732932 0.010883885 -0.004553605 -0.014524283 -0.05018208 0.024215434
0.021506567 0.015764123 0.0021256101 0.04841291 0.0026841264 0.0022641467 0.025302967 -0.026462466
0.014419907 -0.00037903484 0.015606356 -0.009233412 -0.0068212883 0.0016910775 -0.015459054 0.01744586
-0.00093413336 0.0478392 0.0130395405 0.006956475 0.00010450116 -0.04019457 0.014662235 -0.0007383372
-0.030522875 -0.055520874 -0.01061397 -0.06765654 -0.020185089 -0.017820675 0.030720713 0.011927909
-0.01582723 -0.015781244 0.0029695062 -0.015734825 0.0053189397 0.01777818 0.020880785 -0.0040419735
-0.025350181 0.015923195 0.02491713 -0.008320554 -0.004221051 -0.0015059459 -0.03991104 0.008621235
-0.028309591 -0.0032696754 -0.009302023 0.008396844 -0.02017808 -0.07251292 -0.05429053 0.01364051
0.008167662 -0.005276723 0.06386365 -0.14317916 -0.012487542 -0.03408741 -0.024017308 0.028929047
-0.049926225 -0.03636948 -0.002394785 0.008645894 0.007647051 -0.0021604698 0.09602474 -0.06617232
0.043959353 -0.0078638205 0.017633859 -0.009467545 -0.03967621 -0.064075775 -0.016635854 -0.0110527435
-0.014924691 0.0023979202 0.051610947 0.017306607 0.014808618 0.029180843 0.014291178 0.050511986
0.06019829 0.0007438876 0.0063931495 -0.077408746 -0.017370554 -0.025734996 -0.06037678 -0.054369383
0.0028404444 0.02036757 0.03942477 -0.06466358 -0.018389886 0.028609004 -0.052079387 0.016269105
-0.03735212 0.01886006 0.05612801 0.039817963 -0.0034809106 0.0010538788 0.024941402 0.0067259455
-0.007101313 0.0076600737 -0.008750303 0.023629213 0.051834673 -0.022415552 -0.011005677 -0.03484771
0.009224639 -0.025071792 0.042400997 0.052646313 0.004691312 0.026338713 0.022261038 0.022222508
-0.01654659 -0.0036966545 -0.02868326 0.0173652 -0.036546536 -0.036239393 -0.007816419 0.028865974
0.012284828 0.018627482 0.024617754 0.01419295 0.020217797 -0.067493506 0.027208794 0.013119854
-0.04244982 0.008206914 0.023999698 0.013580093 -0.039430317 0.009649036 -0.009204499 0.08111115
-0.015602729 0.05121435 -0.018991727 0.011902816 -0.014018707 0.027689848 0.02030488 -0.0009212011
-0.022206262 0.0016739058 0.02139716 0.022614293 -0.02407244 -0.04267055 0.025990997 0.007581196
0.015840558 -0.00768338 0.012656081 0.0026772995 0.019395867 0.04148944 0.017576149 0.0050685876
-0.042845156 0.0043000607 -0.010069886 -0.04721803 -0.04134721 0.020287719 0.019601768 -0.019074384
0.014087187 0.03982475 -0.06930651 0.063357726 -0.038725283 0.025446614 0.039069522 0.000209041

action_model._discrete_distribution.branches.3.bias f4 [2]
00000000: 6298 5ebc 6098 5e3c
-0.013586136 0.013586134

action_model._discrete_distribution.branches.3.weight f4 [2, 256]
00000000: 85c6 30bc fc8e f43c a5dd 253c 35ae 353d
00000010: 045b 6c3c 36c6 043d 4686 223d 3635 4dbc
00000020: d2f3 9ebc faaa dcbc 7292 98bb d736 263d
00000030: b2c6 7bbb f085 60bd 31cb 1fbc 46c5 2b3d
00000040: 256f abbc b23f 943c 9f86 a7ba 0ce4 5a3c
00000050: 82de 25bd a9b5 0f3d 5994 4dbd c4d4 1d3d
00000060: 29dc a1ba 9626 fabc c8ce abbc 8f77 86ba
00000070: 7e17 333b e4cc 083c 651a 193d d019 44bd
00000080: abe1 dc3c 1c03 89bc 71c3 3d3d f9a8 933c
00000090: 8319 85ba beab b83c bcfe 02bd 1e11 c3bb
000000a0: 62f4 683c a877 ccbb d6f5 d9bc 2661 ec3b
000000b0: 138a b73c d39b 3bbd ae19 a3bc e0c8 d83c
000000c0: 0351 a3bc 2055 143d 9e26 c0bc 82ac 28bd
000000d0: daf7 ad3c 3155 2e3d 2133 9c3c 4497 1ebd
000000e0: 9746 68bc b4e8 093c c10a 63bc adb4 37bd
000000f0: afd4 6ebd dcb9 85bd d984 39bd db4f b63c
00000100: c2ea ac3c 1c72 f5b7 bcc1 c5bc 9c38 d13c
00000110: f86f a2bd 0676 ec3b df0f 2dbd 507a adbc
00000120: 864b 283d ac9e 5abd 778b ff3c 55b9 583d
00000130: f0bf 003d a57b 7ebc 9379 9f3c b347 4f3d
00000140: 5597 1cbd 6373 a33b d595 2fbd c883 77bd
00000150: 2720 44bd 1bca 81bc 31c5 ea3c 5ed4 fb3b
00000160: 502a 07bc 1669 8ebc 2909 b6bc 9ed0 0bbd
00000170: 5dae 57bb 62e7 32bc 4305 ae3a 79d5 8dbd
00000180: 288a 04bc f399 b1bc 07e8 6a3b a21f f43c
00000190: b806 e2bb 5a38 1c3d fe2b 0ebd 1e2d b3bb
000001a0: d094 a1bc 854c fe3c a296 cbbc e184 96bb
000001b0: 39e6 4cbc 33b9 a63b a0c1 233d e649 8d3c
000001c0: 3d4a f1bb ff3c 533c 8cd7 0f3c 3f95 bdbc
000001d0: 576c b5bc 6313 50bd 621f 11bb f7d6 60bc
000001e0: a475 a23c 6d2c 163d 8cda abbd 7913 ad3c
000001f0: ece7 6d3c 1c63 a83c dc21 953c 7782 f2bc
00000200: b96b a1bd 23e8 3fbc 3e3c c2bc 3f04 b43d
00000210: ee0a 2abd 1153 9c3b 263b 683c 0c03 2abd
00000220: 5b72 0e3c 24af b93c e8f7 8bbc cdb7 a03b
00000230: 8a73 85bc 611f 2d3c 8be5 8a3d db28 603c
00000240: 8813 e0bc 9d21 18bd c4bf c2bb a4c6 f4bb
00000250: 4935 2ebc f8f8 71bc d671 90bc 0ac3 1abc
00000260: 649e 6d3c 4d1c 183c 0e4c f43a 0c3f 8f3b
00000270: 0abb 0ebc 07e9 86bc fe1c 04bd 3747 b1bc
00000280: 33f7 32bd bd30 093d 1551 f53c f5c4 953b
00000290: f52f 27bc 575c a8bc 6a59 a23c b653 723c
000002a0: 9919 9ebc b204 17ba d775 2abc d337 febc
000002b0: 75a4 fe3c aaa3 b03d 89cd a9bb 2b79 6d3c
000002c0: 6419 2abd ac43 e5bc 1c75 e5bc 16b5 413c
000002d0: 01e4 16bc a19a 4b3c 0ed5 93ba 59f9 8dbb
000002e0: 0c45 ac3c c9d2 34bd 0ea7 31bc 6ae9 6f3c
000002f0: 6cdc b03c fed9 3ebc 8f41 c13b 1bb9 d23c
00000300: b574 4f3b d41a 07bc ddbe c8bc c29b f0bc
00000310: 63ea 0fbd 1335 33bb d13c 9fbb 85a4 0c3d
00000320: a71f 3cbc 5620 ac3b 7dc8 803c c669 1d3d
00000330: fde6 bb3b 67b6 5abc b233 fbbc a3b6 933c
00000340: a631 81bd 2498 15bd 1388 2c3d 3593 f4bd
00000350: 437c 83bc 6b00 823c 2543 133d d44a 8d3c
00000360: c04d 9ebd 86a2 14bd 665a 2a3d 04b8 23bc
00000370: e3c2 3abc 2035 83bc 9a26 0ebd 615d 1fbc
00000380: 8858 31bc 137a 56bd e77b 70bc 36af 60bc
00000390: 4af7 40bd 5d74 0dbc 5beb 4a3c 04e0 9abc
000003a0: 2e8b 58bb ee3c 743c eefd a23c 8a8b 72bd
000003b0: ca54 853c 2d71 873c f3e7 28bb ab1d 363c
000003c0: 38e5 35bd 7f4b 423c 1428 73bd 1194 4cbd
000003d0: c1ac 34bb b9cb 603c 6dd3 9fbc 8ee7 0f3d
000003e0: 6c26 043d 74d8 33bd 79d0 82bc c782 78bd
000003f0: ee6d 9fbc 63b9 a53c 6eea 0dbd cd90 7bbc
-0.010789518 0.029853337 0.010123645 0.04435559 0.014425997 0.03241559 0.039678834 -0.0125248935
-0.019403372 -0.026936997 -0.0046561295 0.040579643 -0.0038417992 -0.054815233 -0.009753034 0.04193618
-0.020927021 0.018096779 -0.0012781209 0.013360035 -0.040495403 0.035085354 -0.050190303 0.038532987
-0.0012348938 -0.030535977 -0.020972624 -0.001025902 0.0027327235 0.008349631 0.037378687 -0.04787618
0.026963076 -0.016725115 0.046328966 0.018024908 -0.0010154698 0.02254283 -0.031981215 -0.0059529683
0.014218422 -0.00623985 -0.026606482 0.0072137294 0.022404706 -0.045802902 -0.019909706 0.026462972
-0.01993609 0.036213994 -0.023455914 -0.04118014 0.021236349 0.042561714 0.019067349 -0.038718477
-0.014176986 0.008417297 -0.013857544 -0.04485004 -0.0583083 -0.065295905 -0.04529271 0.022254875
0.021108035 -2.9259412e-05 -0.024140231 0.025539689 -0.079315126 0.007216218 -0.042251464 -0.021176487
0.04108765 -0.053373978 0.031194432 0.05291112 0.031433046 -0.015532409 0.01946715 0.050605487
-0.03823026 0.0049881204 -0.0428675 -0.06042841 -0.047882225 -0.015843442 0.028658481 0.0076852283
-0.008249834 -0.017384093 -0.022221165 -0.0341345 -0.0032910325 -0.010919424 0.0013276715 -0.06925482
-0.00808958 -0.021679854 0.0035843865 0.02980024 -0.0068977736 0.03813968 -0.034709923 -0.005468025
-0.01972428 0.031042347 -0.0248521 -0.004593477 -0.012506061 0.0050879954 0.039979577 0.017247152
-0.007363586 0.012892961 0.008779418 -0.023142455 -0.022146387 -0.05079974 -0.002214395 -0.013723127
0.019831486 0.03666346 -0.08391294 0.02112745 0.0145206265 0.020555072 0.018204622 -0.029603226
-0.078818746 -0.011713061 -0.023710366 0.087898724 -0.04151433 0.0047706445 0.014174258 -0.041506812
0.008694257 0.022666521 -0.017085984 0.0049047233 -0.016290445 0.010566563 0.06782063 0.013681616
-0.027353063 -0.03714143 -0.0059432704 -0.007469969 -0.010632821 -0.014768831 -0.017632406 -0.009445915
0.014503095 0.009284091 0.0018638389 0.0043715294 -0.008711586 -0.016468538 -0.03225421 -0.021640403
-0.04369278 0.033493746 0.02994589 0.0045705982 -0.010204305 -0.020551844 0.019818027 0.014790466
-0.019299315 -0.00057608925 -0.010404072 -0.031032478 0.031084279 0.086249664 -0.0051819724 0.014494221
-0.04152812 -0.02798637 -0.028009944 0.011822959 -0.009209634 0.012427003 -0.0011278705 -0.004332703
0.021029018 -0.044146333 -0.010843052 0.014643053 0.02158948 -0.011648653 0.005897708 0.02572303
0.0031655256 -0.008246142 -0.024505073 -0.029371146 -0.035135638 -0.0027344867 -0.004859545 0.034336586
-0.011482156 0.005252878 0.0157206 0.03843095 0.005734323 -0.013349152 -0.030664299 0.018031424
-0.06308298 -0.036522046 0.042121958 -0.1194214 -0.016050464 0.01586934 0.035952706 0.017247595
-0.077296734 -0.036287807 0.041590117 -0.009992603 -0.011399004 -0.016016543 -0.034704782 -0.009726853
-0.01082433 -0.052362513 -0.014677978 -0.013713649 -0.047110833 -0.0086337 0.012385215 -0.018905647
-0.0033041942 0.014907105 0.019896474 -0.059215106 0.016275782 0.016533459 -0.0025773018 0.011115472
-0.044408053 0.01185882 -0.059364393 -0.049945895 -0.002756879 0.013720446 -0.019509995 0.035132937
0.032263204 -0.043907598 -0.015968548 -0.060671594 -0.019461598 0.02023 -0.034647398 -0.015354347

discrete_action_output_shape f4 [1, 4]
00000000: 0000 4040 0000 4040 0000 4040 0000 0040
3.0 3.0 3.0 2.0

network_body._body_endoder.seq_layers.0.bias f4 [256]
00000000: de6f cdbc 42a4 863d 29ab a5bb 4ca6 503d
00000010: 1966 bcbc 78f6 0a3d 31ed 0a3e abc5 283e
00000020: 44ac 8b3d 1bc9 87bd a8bb c93d eb55 8e3d
00000030: 4199 2e3c 35c4 033e 667f e23d 5c66 263e
00000040: 6df9 c83c 380e 9abd 7a3c b73d 1abd e2b9
00000050: 1233 08bc a951 963d 0d26 053d c988 aabd
00000060: 95cb d3bc f381 743d 2e0f 743d aefe eb3d
00000070: cbbd 65bc f33f f43d 6662 273c 273a 55bc
00000080: 4e0c 1b3e b17d 5f3d 0ca6 013e e22b 2a3e
00000090: cfdd d43d 99ef 1c3e a351 1e3e 65a7 f63c
000000a0: b589 013e 7c41 e83c 0747 523d ec19 a1bc
000000b0: 41f7 cf3d 2748 c43d 5cd2 ae3c 1ffd 863d
000000c0: c83b 51bd 070a e73c d1ea 9fbb fa0e af3c
000000d0: 6ded 953d a6d0 d83d 3f10 7b3d 5ae6 5dbd
000000e0: 1cce 023e 62d8 2b3d f170 b73d 45ba a83c
000000f0: 7fc7 2e3d 0eae 2b3e df28 4ebb 491d b03d
00000100: b99d f53c 2d27 a8bd dbcd 513d 7620 b0bc
00000110: c54e 3f3d 4919 613c 497a c03d 146a 2bbd
00000120: 5e2b e83d 87b3 863d 2ad8 a33d 581d d93b
00000130: fb2e 7cbd c1e7 843c 3443 e03d cc0e cdbc
00000140: d63f 7fbc da6b 95bb bc2a 783d 4ff7 0d3e
00000150: efe5 ff3d b246 aebc 6f56 a4bc 31f4 333c
00000160: 2788 a7bc 55fb a43d 744f 283a f32f ba3b
00000170: efd0 a9bd 26fa 743c 1755 cdbb 9cba 5dbb
00000180: 74d2 cd3d d02d 0e3b b5fc d63d c9f1 de3d
00000190: 4508 5b3d b11b f13d 43ed 3abb 3cdc d53d
000001a0: edcc b43d 89f8 35bc bf2d 233d 7e33 0d3d
000001b0: 98a8 18bd e0c3 183e c820 923c 5d55 523d
000001c0: 74be 1a3e b797 cc3d 4d3c 87bb 8211 3b3e
000001d0: cc68 583c dce4 133b e8d9 adbc 4ffb d7bc
000001e0: 1c49 883d 3499 023e 6cb1 23bc 045f 423d
000001f0: 9ff0 4c3d 1852 3abd c6a4 b33d bf4d 83bd
00000200: 0238 263c 3414 003e 99eb 473d a753 8cbc
00000210: dd87 983d 0fb4 003e 61f1 ab3d 73eb 5ebd
00000220: 0ff2 633d fd70 9a3c 99b0 4abc 64db 7e3d
00000230: 8d51 103b 811c 7a3c 35c7 323d 9bee d53d
00000240: a69c 033e 499a 283b 9bce c33d cd24 883d
00000250: 5d1b 17bb d853 3abd 1713 a8bc cec4 143d
00000260: 1d89 03b9 b1ad 08bc 8c61 4ebd 4a66 3f3d
00000270: e932 263d dd24 503d ed92 693d 4fc4 19bc
00000280: 9a82 35bd f53c ee3d 6d49 8c3c 707c aa3d
00000290: 7794 023e ec38 2bba 4b16 a8bd 7c0d 373c
000002a0: 7bc3 8d3c ec29 b5bd 9a45 8a3d 43bb b33d
000002b0: 57b1 763d abb5 99bc 71d4 893d 8472 133c
000002c0: 0ddf 093c 89fa a73d 7b7e b13d 7cad 22bd
000002d0: 2f5d 533e 8eb5 ec3c 435a 2a3e d9ae 2e3d
000002e0: 4b3a bb3d 104d c13d 08c9 a33c 4356 943d
000002f0: 51d5 3d3d 7d56 d93b f406 3dbd c428 2abd
00000300: 5b62 ab3d 6ba4 4a3b c469 9bbd e242 37bc
00000310: 3f73 debd 819b 7d3c eb52 47bd 5724 6d3c
00000320: 238d 70bd b8cc b13d e476 0dbd c2ce ff3c
00000330: 31fb 23bb 50f1 ebbc fd7a c03c e77b 963c
00000340: f96b 333b 7876 e53d 3580 55bd 9e8d dc3c
00000350: a148 38bd 05f8 8ebd 9a20 d33d eee1 28bd
00000360: c9b1 89bd 9246 ac3d 6a0d 833d 171a f13d
00000370: fbdc e43c 166c 833d 82c8 13bb 7076 de3c
00000380: c372 ad3b 0d50 923d b869 fcbc 30a7 c839
00000390: c602 023e 4105 32bc 7b2a b93b 4219 933d
000003a0: 24a3 283e 85c4 4e3d 6a4a 0d3d d2a2 513d
000003b0: a7fe 36bd bdbc 03bd e740 47bd c1dd 3f3d
000003c0: b05b 0a3d 3421 053e 8299 c9bd 98e4 653e
000003d0: aef3 923d 115e 04bd 5053 71bd 54dc 0c3e
000003e0: 238b 0bbd 53fb 743c ac7a bc3d 7144 b83c
000003f0: d42d 84bd 083f 75bc c219 f43c e77b dd3c
-0.025077756 0.065742984 -0.0050558043 0.050939843 -0.022997903 0.033926457 0.13567044 0.16481654
0.068199664 -0.06630155 0.09850246 0.06949981 0.010656656 0.12867816 0.110594556 0.16249985
0.024532998 -0.07522243 0.08947082 -0.0004324697 -0.008312957 0.07339794 0.03250699 -0.08326871
-0.025853911 0.05969424 0.05958479 0.11523186 -0.014022301 0.1192626 0.010216331 -0.013014353
0.15141413 0.054563228 0.12660998 0.16618302 0.10393869 0.15325774 0.1546083 0.030109117
0.12650187 0.028351538 0.05133727 -0.01966568 0.10154582 0.095840745 0.021340542 0.06591248
-0.051082402 0.028203024 -0.004880287 0.021369446 0.07320676 0.105866715 0.06129479 -0.05417476
0.12773937 0.041954406 0.08957089 0.020596633 0.042670723 0.16765615 -0.0031457467 0.08599336
0.029982435 -0.08210597 0.05122171 -0.021499854 0.04670598 0.013738939 0.09398324 -0.04184921
0.11336397 0.06577211 0.080002144 0.0066258125 -0.06156824 0.01622379 0.10950318 -0.02503147
-0.0155791845 -0.004559976 0.06058763 0.13863872 0.12495028 -0.021273945 -0.020060746 0.010983513
-0.020450665 0.0805575 0.0006420531 0.0056819855 -0.08291804 0.014952218 -0.006266247 -0.0033833152
0.100499064 0.0021694787 0.10497419 0.108859606 0.053474683 0.1177286 -0.0028522767 0.10442397
0.08828149 -0.011106619 0.03983855 0.034472935 -0.03727016 0.1491847 0.017837897 0.05135094
0.15111715 0.09989875 -0.0041270615 0.18268397 0.013208579 0.002256683 -0.02122207 -0.02636495
0.066545695 0.12753755 -0.009991031 0.047453895 0.05003416 -0.045488447 0.087716624 -0.06411313
0.010145189 0.12507707 0.048808668 -0.017129732 0.07447789 0.12568687 0.08395649 -0.05442376
0.055650767 0.018852705 -0.012371206 0.062220946 0.0022021264 0.015265585 0.04364701 0.10445901
0.12852725 0.0025726727 0.09560891 0.06647644 -0.0023057081 -0.045490116 -0.020516915 0.0363205
-0.00012544212 -0.0083421925 -0.050385997 0.04672841 0.040575895 0.050816406 0.057024885 -0.0093851825
-0.044314004 0.116327204 0.017124856 0.08324516 0.12751947 -0.00065316143 -0.08207377 0.0111726485
0.017305126 -0.088458866 0.06751557 0.08775952 0.06022772 -0.018763384 0.06729973 0.008999471
0.008414996 0.08202083 0.08666702 -0.03971623 0.20641015 0.028895166 0.16635995 0.042647216
0.09141978 0.09438527 0.01999332 0.072430156 0.046346013 0.0066326247 -0.04614921 -0.041542783
0.08368369 0.0030920755 -0.075885326 -0.01118538 -0.10861825 0.01547897 -0.04866306 0.014473996
-0.05872835 0.08681625 -0.03453721 0.03122652 -0.0025021548 -0.02880159 0.023496145 0.018369628
0.002737759 0.11204237 -0.05212422 0.026922997 -0.04499114 -0.069809 0.10308953 -0.04123109
-0.06723363 0.08411898 0.06399043 0.11772554 0.027937403 0.064171 -0.0022549932 0.027156085
0.0052932217 0.07144175 -0.03081213 0.00038271537 0.1269637 -0.01086551 0.005650816 0.07182552
0.16468483 0.050480384 0.034494795 0.05118067 -0.04467645 -0.032162417 -0.04864588 0.04684234
0.033778846 0.13000947 -0.098437324 0.22450483 0.071753845 -0.03231627 -0.058917344 0.13755924
-0.034068238 0.0149524985 0.09203085 0.022493573 -0.064540535 -0.014968641 0.029797439 0.02703662

network_body._body_endoder.seq_layers.0.weight f4 [256, 9]
00000000: f269 eabe 1de5 843e 763b f63d fb76 ccbe
00000010: 1f98 d83d 046c cf3d 0321 d0be 562b 1e3f
00000020: c651 753e 8367 aa3e fcf5 913e 7852 513e
00000030: 2ffe d43e 0cbe babd 90ea 1abd 3204 0abe
00000040: 9fe9 a03e 8277 38bf f2cf 70be 102b 0b3d
00000050: 5faa 11bd 66f4 8ebf 1e86 c43d 8ea7 06bc
00000060: 8333 883b fb82 123f 68e6 33bf 95b6 4a3c
00000070: 1883 373e 7b90 003e f017 ad3c bad3 8c3d
00000080: 0483 b33c aa49 4abd e096 703e aaa7 ddbe
00000090: 94b8 76be 01be 223e 22da b53e d25f 0dbf
000000a0: 97ff 8bbd 1681 373e e5cd bdbd cae3 223d
000000b0: 0795 173e 17a9 5e3e 6857 05be 407f 143f
000000c0: 97a6 d0bd 4d93 cc3e d1df b8bd 30b8 1d3f
000000d0: f3a0 ac3d 31a7 f6bd 76d7 7a3e bdae 9d3d
000000e0: f1db b13c 6c24 353c 150b 0abe 8660 b2be
000000f0: d1ba c13d 1803 393f 2d61 003f 7c68 563e
00000100: 1898 38be 5d29 20bf 3c89 6a3d aaca 58be
00000110: cf36 16be 3204 053e 9bcc e13e 34d6 3b3f
00000120: 1d90 b1bd 1de0 8bbc c98a 60bd eeb9 38be
00000130: c1d4 f53e d0c2 2bbe 612a 4cbf f026 b03e
00000140: c7b0 393f 3c0f 3dbe c0b6 58be 3e65 9c3e
00000150: 7c02 10bf efb5 b2be a641 ffbe b266 3dbe
00000160: 7b88 c2be 7058 37bd fed8 9b3d ebda b73e
00000170: 5460 873e 7a11 983d 6928 8f3e dfb4 9d3e
00000180: 1d19 21be e4ef 2fbe c24b 233f 4171 24bd
00000190: 8c85 4c3e 73d1 8cbd 20b7 ad3e 81b5 3e3e
000001a0: 279b 52be edfc 143f eb3f 093d e5ff 2fbf
000001b0: 49ff e33e ca2b 82bd 4ba6 8dbe ac9a 2f3d
000001c0: c197 e0bd a11d 903e 828a 1cbf 2718 743e
000001d0: 09e9 eebe 021c ebbd 8147 f83d 2144 20bf
000001e0: cea0 f43d 8809 3f3e 35b0 703c 0839 83be
000001f0: ef24 21be 6490 9d3e c816 8c3e 3393 d63d
00000200: 2e32 18bf 9d2e 423e 816a 0f3e 8984 88be
00000210: 8ff5 ef3e 6b65 4f3e b03f 1c3f fc41 56be
00000220: 57e4 9cbe 8e30 e9bd 0588 633e 0daa acbd
00000230: eff2 fc3e d82f e73d b96d 703e d983 db3e
00000240: 2e51 f4bb 6709 7e3e 4f73 8abc 96a4 11bd
00000250: 29d1 17bc 3e6f f5bd 9650 c6be 38db f43e
00000260: 8ca3 e23d c5cb 023f 1e39 d5bd 9494 763e
00000270: 0788 b6be 3d00 183e 2d21 bcbe ad89 1c3d
00000280: 0fe5 3dbe e397 58be e9e7 9d3a 5fc4 92bb
00000290: 6abc 153f 72a0 c33d 0973 ca3e c73d 23be
000002a0: dac2 92bd 250f d7bd 7e58 4cbf 33f4 2bbf
000002b0: 4deb 1b3e 909e 2c3e 9d83 e63e c201 f2be
000002c0: 0e45 2abe a3ad 273d 72a1 10bf 7658 22bf
000002d0: 54ba 2cbd a216 bc3e 9003 6a3e 3c75 e8be
000002e0: dfa8 81be a39e 6bbe 628f e4bd 4f82 543e
000002f0: 3cb4 e23d e546 9ebe fbc8 6ebe 148e be3e
00000300: 1813 053f b114 c33e a17c a13e 77aa e53e
00000310: b6a7 b13e 2839 40bf c839 2bbe ee94 003f
00000320: 94ee d5be eb63 b83d 27dd 663d af82 e03e
00000330: 37d6 b23e 7906 ea3e 42dc f63d b479 1f3e
00000340: 7630 e8bc b0bb a0bc be79 2abe be9b 67bc
00000350: 2e30 b13e 89d1 16bf b729 81bf 0dcb 89be
00000360: 523b 153e 0eb9 c5bd 74d1 96be 6bb5 92bd
00000370: 4679 053f f915 a43e 7880 1e3e 4896 3ebd
00000380: f371 0fbe 72f1 b3be a08f 82be 441e 7b3d
00000390: c22c 03bd a7da dbbe ad26 a13e 7e0c da3e
000003a0: 3d56 4cbe 619f 333e 24fe 7abe 3e6d 1ebe
000003b0: e109 c4be 036b b8be 3923 d43d e5cf d63d
000003c0: d083 163f 93de e1bd 43b7 b73e a9fd f4be
000003d0: c953 3abe 4983 843d 64d5 843e 69f3 8fbd
000003e0: af56 fabc 20ee d73e a696 f5bd b2ec 053f
000003f0: 866f e53e e016 243f bfad 51be f1a5 ebbc
-0.45783955 0.2595605 0.1202306 -0.39934525 0.1057589 0.10128024 -0.40650186 0.61784875
0.23956975 0.33282098 0.28507984 0.20441616 0.41600177 -0.0911828 -0.037821352 -0.13478163
0.3142824 -0.72057354 -0.23516825 0.033976614 -0.03556287 -1.1168334 0.09595893 -0.008218659
0.0041565313 0.5723111 -0.7027345 0.0123726325 0.17921102 0.12555115 0.021129578 0.06876321
0.021913059 -0.049386658 0.23495054 -0.4329198 -0.24093848 0.15892793 0.35517985 -0.55224335
-0.06835859 0.17920336 -0.09267787 0.039768018 0.14802943 0.2174419 -0.13021624 0.5800667
-0.101880245 0.39956132 -0.090270646 0.6160917 0.08429136 -0.12043608 0.24496254 0.07699344
0.021711322 0.011056047 -0.1348079 -0.34839267 0.094594605 0.72270346 0.5014828 0.20938295
-0.18026769 -0.62563115 0.057259783 -0.2117106 -0.14669345 0.12989882 0.44101414 0.73373723
-0.086700656 -0.017074639 -0.054819856 -0.18039677 0.4801388 -0.16773534 -0.79752165 0.34404707
0.72535366 -0.18462843 -0.21163464 0.30545992 -0.5625379 -0.3490443 -0.49854773 -0.18496206
-0.3799475 -0.044762075 0.07609747 0.3590921 0.2644068 0.074252084 0.27960518 0.30802056
-0.15732236 -0.17181355 0.6378747 -0.04014707 0.19972819 -0.06875887 0.33928776 0.18623926
-0.20566998 0.58198434 0.033508223 -0.6874984 0.44530705 -0.06356008 -0.27665934 0.042872116
-0.10966445 0.28147605 -0.61148846 0.23837338 -0.46662167 -0.114799514 0.12123013 -0.62603956
0.119447336 0.1865598 0.0146904485 -0.2562945 -0.15736745 0.30774224 0.2736113 0.10477295
-0.5945157 0.18963094 0.14005472 -0.26663616 0.46867034 0.20253532 0.6103468 -0.20923609
-0.3064296 -0.11386214 0.22219856 -0.08430872 0.49404094 0.11288422 0.23479356 0.4287403
-0.0074559664 0.24808274 -0.016900687 -0.035557352 -0.009266176 -0.119841084 -0.38733357 0.478235
0.1106635 0.5109218 -0.10411285 0.24080116 -0.35650656 0.14843841 -0.3674406 0.038217235
-0.1854441 -0.2115169 0.0012047264 -0.0044789757 0.5849062 0.09552087 0.3954089 -0.15941535
-0.07166071 -0.105009355 -0.7982253 -0.67169493 0.15226479 0.16857362 0.45022288 -0.47266966
-0.16627905 0.040937077 -0.56496346 -0.6341623 -0.042169884 0.36736017 0.22852921 -0.45401943
-0.2532415 -0.23009734 -0.111601606 0.20752834 0.11069533 -0.30913463 -0.23318855 0.37217772
0.5198226 0.38101724 0.31540397 0.44856617 0.34698266 -0.75087214 -0.1672126 0.5022725
-0.41783583 0.09003433 0.05636325 0.43849704 0.34929058 0.45708063 0.120537296 0.1557377
-0.02834342 -0.019620746 -0.16648003 -0.014136253 0.3460707 -0.58913475 -1.0090855 -0.26912728
0.1457341 -0.09654437 -0.29456675 -0.07163509 0.52138174 0.32048014 0.15478694 -0.046530038
-0.14008312 -0.35145146 -0.25500202 0.06130816 -0.032025106 -0.42940256 0.3147482 0.42587656
-0.19954772 0.17541267 -0.2451101 -0.1547136 -0.38288787 -0.36019143 0.10358281 0.104888715
0.5879488 -0.11028781 0.35882005 -0.47849777 -0.18196024 0.06470353 0.25944054 -0.07028849
-0.030558912 0.42173862 -0.119916245 0.52314293 0.44811648 0.64097404 -0.20476435 -0.02876565

network_body._body_endoder.seq_layers.2.bias f4 [256]
00000000: d5db 843d 75b5 84bd c818 5dbd 479d 64bd
00000010: 7eb1 1abc 0395 493d d9d4 88bd ff42 cabd
00000020: fd73 2f3d de61 6cbc acfe 713d f30d e43d
00000030: 2ff0 8a3d b3b1 b2ba 0203 ef3c a094 4cbd
00000040: 1102 e13c 9818 4b3c 7239 5d3d a142 093c
00000050: be35 873d 5178 f63c ed6c 213a e11f 45bd
00000060: d9e4 49bd 449e 3cbb 72dc 003b dbeb 073d
00000070: c98f eebd fd05 3b3d 3e3a b53a e99d 94bd
00000080: 1882 0eb9 c4a4 16bc f800 883d 00bd 5b3d
00000090: 3078 2c3d 7678 45bb 1ae1 78bd 590c 263c
000000a0: c810 73bd 9ba0 b43c add1 0dbd fe35 92bc
000000b0: bbea b73d 35a6 0c3d 8221 883d 47f8 50bd
000000c0: f4cb 63bd a7f8 dbbb 0683 cbbc 1981 10bd
000000d0: dbb5 4f3d a4dd 61bd b81a 943c 1579 87bc
000000e0: eef5 953d 0cfc f7bd 095a 4cbd 4e11 29bc
000000f0: 8b10 36bd 7eb3 5a3b 4830 b6bd 4968 443d
00000100: 89e3 ca3c 155f 5d3d 5869 23bd 5d77 7bbc
00000110: 3b26 83bc 5185 493d a1a6 7fbc 1709 1f3d
00000120: e638 693d ef65 af3c 7841 db3c a21b a93d
00000130: 4a63 48bd df8d b0bc 5d6c ec3b 3189 9a3c
00000140: 802a a13d 8057 623d 5882 2dbd f5a4 1b3d
00000150: 5b74 a4bc 370a 35bd c821 2ebd 3c0c 03b8
00000160: 5620 7cbd 654d b9bd fd20 07bd 16a6 dbbd
00000170: 4fc0 db3d b2d3 a8bd 6480 f53c 8d11 253c
00000180: c3e7 a13d d237 11bd b203 d93c 7b02 173d
00000190: 19b1 763c 7024 433d e5da 623d 2c32 82bd
000001a0: 0abc 623b fe8e 633d d6ce 1a3d b507 033d
000001b0: a9b3 8abc 0ed9 c23d 9891 8f3c 75b2 4f3d
000001c0: e49a bcbb 5121 6eba 9075 aebd 0aac 023d
000001d0: d329 143d e207 d3bb 9e55 b1bb 7b1a aa3d
000001e0: c20b 62bc 4396 eabc 5305 fa3c 7613 acbd
000001f0: 9d2c 163d 2dec d4bc ffc1 1e3d a395 1c3c
00000200: 7813 623b 4604 81bd f979 fabc 8304 45bd
00000210: 1aae 53bd b343 63bc 7c7a b83d dcda 59bd
00000220: 8d5b f8bc a8ea 3d3d 48e0 e53c c71e a83a
00000230: 0193 e3bd 042d 27bc d62d 583c 096b 793d
00000240: e84a f53c f109 21bd 5233 0b3c 1a83 1cbd
00000250: 02b0 383d 2fbc d4bc a9d4 653c 3ac6 323c
00000260: fd63 933d 60aa 3cbc 3cad 70bc 6656 f3bc
00000270: 41ee 0a3d 83be a6bd 1f99 25bd cf31 02bd
00000280: c302 88bd 8376 f73c f252 523d 7789 c8bd
00000290: e813 21bd 3faf 643c d18d 59bd 08f8 5ebb
000002a0: 43f9 c2bd 863d 00bc 5dc9 f03d 6796 383d
000002b0: ac3a a03c 5f01 ccbd b8ff 2cbd 3d79 7dbd
000002c0: 1219 84bc a1ae 72bd 5c6c fbbc 2c01 ad3d
000002d0: 7ffa a6bc ae13 2dbd 5e76 b1bd 0d20 db3c
000002e0: 51e2 f1bc b3b2 a03d c51d e13d 1778 48bc
000002f0: 7e17 f0bc 559b 34bc d436 613d 17ff 553d
00000300: 55c2 e8bc 99f1 593b 983f 563c b6ab 35bd
00000310: 42f9 36bd 769e 07bd c1b1 84bd 6477 423d
00000320: e8ca 54bc 53b4 463d ba9d aabc 2876 523d
00000330: 2d67 9dbd b4a5 c13a d4e4 23bd e36a 8d3d
00000340: 6002 ae3a 66be 63bd 7ed2 a53c 988e ebbc
00000350: 9daf f4bc cfec 06bd 3931 99bd 1289 423c
00000360: ac11 debc cb8f 773c 5536 eb3c f0e3 27bd
00000370: 794d 7fba a34e 2bbd 2ae7 19bd 75fd 9fbd
00000380: 4f1f ecbd cb05 9fbd c5b3 dbbc 509a b93d
00000390: 54c0 843b 207e fcbd b190 813c 2ba8 f23c
000003a0: e483 22bd cfde fe3b 4dec d53d bf17 8d3d
000003b0: 2046 87bd 7e35 413d f747 15bb 4d4c c7bc
000003c0: e324 683d dcb6 983d ec8e 23bd 2a5c 29bd
000003d0: 1c3d debd 146f ac3d e812 4fbd 6b15 af3c
000003e0: a825 833d 511a 24bc c7ce b2bd 513d 353d
000003f0: b9a5 063d 3dd5 debc 1ee1 843d 71d3 abbd
0.06487242 -0.06479923 -0.05397871 -0.055814054 -0.0094417315 0.049214374 -0.066812225 -0.0987606
0.042835224 -0.01442763 0.059080765 0.11135473 0.06784093 -0.0013633281 0.029176239 -0.049946427
0.027466806 0.012396 0.054009862 0.008377702 0.066020474 0.030086668 0.0006157894 -0.048126105
-0.04929051 -0.0028780857 0.0019662646 0.033183914 -0.116485186 0.045660008 0.0013826562 -0.072566815
-0.00013590639 -0.009194557 0.0664081 0.05364704 0.042106807 -0.0030131615 -0.06076155 0.01013478
-0.059342176 0.022049239 -0.03462379 -0.017848011 0.08980318 0.034338195 0.06647016 -0.051018026
-0.055614427 -0.0067129913 -0.02484275 -0.035279367 0.05071054 -0.055143014 0.018079147 -0.016537229
0.07322298 -0.12108621 -0.04989055 -0.010319067 -0.04444937 0.0033371146 -0.08895928 0.047951017
0.0247667 0.054045755 -0.039895386 -0.015348283 -0.01600944 0.049199406 -0.015603692 0.038827028
0.05693903 0.02141091 0.026764616 0.08257224 -0.048922814 -0.021552024 0.0072150663 0.018864246
0.07869434 0.055259228 -0.042360634 0.037999112 -0.020075014 -0.044199195 -0.042512685 -3.1244228e-05
-0.061554275 -0.09047965 -0.032990444 -0.10725038 0.10730039 -0.08243503 0.029968448 0.010074985
0.07905533 -0.035453625 0.02649102 0.0368676 0.015056872 0.04764217 0.055384535 -0.06357226
0.0034596943 0.05555629 0.03779491 0.031989772 -0.016931372 0.09514056 0.01752548 0.0507073
-0.005755769 -0.0009083944 -0.08518517 0.03190235 0.0361727 -0.0064401487 -0.0054118177 0.08305832
-0.013796749 -0.028636103 0.030520117 -0.084021494 0.03666364 -0.025991524 0.038759228 0.009557161
0.0034496468 -0.06299643 -0.03057574 -0.048100006 -0.051679708 -0.013871121 0.09007737 -0.053187236
-0.030317092 0.046366364 0.028061047 0.0012826555 -0.11112023 -0.010203604 0.013194522 0.060893092
0.029942945 -0.03931612 0.008496122 -0.038210966 0.04508973 -0.02596864 0.014027753 0.010911519
0.071968056 -0.01151523 -0.01468974 -0.029704284 0.033918623 -0.08141806 -0.04042923 -0.031785782
-0.06641152 0.030207878 0.051348634 -0.09791844 -0.039325625 0.013957798 -0.053113762 -0.003402235
-0.09520199 -0.007827168 0.11757157 0.04506531 0.019559227 -0.09961199 -0.04223606 -0.0618832
-0.016125236 -0.05924857 -0.030691318 0.08447489 -0.020383118 -0.042255096 -0.08665155 0.026748681
-0.029526861 0.07846584 0.10992006 -0.012235663 -0.029308077 -0.011023362 0.05498393 0.052245226
-0.028412977 0.0033255576 0.013076685 -0.04435321 -0.044671305 -0.033110105 -0.06479216 0.04747714
-0.01298783 0.048511814 -0.020827163 0.051382214 -0.07685695 0.0014774115 -0.04001315 0.06905153
0.0013275854 -0.0556015 0.020241972 -0.028754517 -0.029868895 -0.032940682 -0.074800916 0.0118735
-0.027108036 0.0151099665 0.028712431 -0.040988863 -0.00097390224 -0.04182304 -0.03757397 -0.07812015
-0.11529409 -0.07764777 -0.02681912 0.09062636 0.0040512476 -0.12328744 0.015816065 0.029621204
-0.039676562 0.0077780257 0.104454614 0.06889295 -0.06605172 0.047170155 -0.002277849 -0.024328375
0.056675803 0.07456753 -0.039931223 -0.04134766 -0.108514994 0.08419624 -0.05055514 0.021372518
0.06403667 -0.01001604 -0.08730846 0.04424793 0.03287289 -0.02720129 0.0648825 -0.083899386
