Assets/Models/Volleyball_SelfPlay.onnx (onnx, 291545 bytes, 15 tensors)

92 f4 [11]
0.33850783 0.19686116 0.30497923 0.41849273 5.6803365 3.6020777 7.856053 4.036017
9.881321 6.598815 3.413365
00000000: e650 ad3e f995 493e 3d26 9c3e ae44 d63e
00000010: 51c5 b540 7188 6640 c964 fb40 0d27 8140
00000020: e419 1e41 7e29 d340 9274 5a40

action_model._discrete_distribution.branches.0.bias f4 [3]
0.021123938 -0.04057384 0.029092237
00000000: 1c0c ad3c c130 26bd d852 ee3c

action_model._discrete_distribution.branches.0.weight f4 [3, 256]
0.048236784 -0.02322772 -0.04425677 -0.00021556097 -0.091418885 0.057900954 0.035642747 -0.07481415
-0.066933766 -0.047691654 0.13274759 0.10285941 0.046658777 -0.09054317 0.011704663 0.044997018
0.0022039267 0.08912611 0.09229064 -0.076366775 -0.026633225 0.07887042 -0.0035295421 0.228107
0.08824749 0.049080916 0.03935896 0.045190196 0.0013692619 -0.0167879 -0.008866377 0.032332305
-0.06452019 -0.07910201 0.10349187 -0.022297842 -0.033436827 0.086601734 -0.13089442 -0.015074672
0.007968284 0.020429052 0.04643528 -0.021769311 -0.009691386 -0.015839789 0.13599169 0.15440592
0.12883735 -0.09552798 -0.03756085 0.13638544 -0.062963895 0.019615961 0.034284864 0.046230316
0.075121224 0.08427412 -0.067607835 0.093830064 0.045592107 0.035466462 -0.07366181 0.043029997
-0.087926164 0.102389455 0.05534492 -0.028249033 0.018582342 0.055641882 0.041280415 0.10881311
0.051373474 -0.049836505 0.0968807 -0.053994313 0.120268606 -0.11229176 -0.047747917 -0.0591713
0.038232703 -0.039783355 0.21554653 0.0870306 -0.06567848 0.15767701 0.14863984 -0.005223819
0.038122755 0.04762646 -0.054923814 0.062291704 0.11671784 -0.0018612001 -0.018956147 -0.009199059
0.011488375 0.015893057 0.024373151 -0.010843411 0.122971274 0.053710748 0.02606644 0.0806284
-0.02920473 0.020531736 0.062263224 -0.0012372195 0.13083269 -0.10462545 0.023146886 0.021118857
0.09381002 -0.019877657 -0.024384124 -0.034371223 -0.20065418 0.10187346 -0.08406791 -0.013873556
-0.05086083 -0.026657635 -0.082469285 0.017477335 -0.0060281465 0.0042531798 -0.03614387 0.054034255
-0.118514046 -0.053537756 -0.12119409 -0.15078138 -0.07520134 0.004797498 0.16287814 0.0067480383
-0.069861904 -0.02224478 -0.0026529809 0.010787489 0.043420605 -0.022110442 -0.09055169 0.103841215
0.1499001 -0.031375047 0.08014979 0.100166254 0.11618347 -0.063710384 0.0074714194 -0.03632503
-0.062105462 -0.07808397 -0.07521053 0.1335333 0.036277715 0.08414539 0.164162 -0.07992095
-0.072636165 -0.07534137 -0.053112224 0.04898464 0.18124495 0.12673564 0.025827136 -0.045003794
-0.10593191 -0.024653759 0.06466907 0.053428065 0.073492914 -0.07153594 -0.01205951 -0.07786247
0.09838627 0.05043101 -0.020534666 0.15114556 -0.07570758 0.037386227 0.0010780869 -0.041433103
0.045601685 0.030392338 -0.0041930806 0.05825511 -0.06273079 0.09778738 0.026896223 -0.0625439
-0.05302474 -0.0066639176 -0.031338453 0.15331125 0.079752296 0.01022136 -0.008298856 0.014292357
-0.06321405 0.03172829 -0.024227312 -0.001730066 0.04070164 -0.023505045 -0.054113485 -0.12780987
0.050841648 -0.049915258 0.02870918 0.19266991 -0.08265564 -0.049023967 -0.009662114 0.055443265
0.12104157 0.0021481628 0.114548035 0.049297117 -0.10640334 0.040942762 0.06504102 0.039282814
0.0033731756 -0.14173824 0.022786397 -0.024377752 0.0114403805 -0.07789941 0.036332607 -0.19248489
0.018498356 -0.056975696 0.012176262 0.039339688 -0.019122701 0.03971239 0.08210062 -0.08706623
0.0017757209 0.011242723 -0.00048615722 -0.028716704 0.037879113 -0.09644899 -0.007788491 0.0115493415
-0.0064481427 0.01003472 0.019916752 -0.02178019 -0.028806398 -0.07680426 -0.02077625 -0.08065807
00000000: ef93 453d 0f48 bebc 9646 35bd 3508 62b9
00000010: d339 bbbd 8d29 6d3d 21fe 113d 2938 99bd
00000020: 9214 89bd 5358 43bd fcee 073e f4a7 d23d
00000030: 461d 3f3d b36e b9bd eac4 3f3c cb4e 383d
00000040: c16f 103b c087 b63d e002 bd3d 2f66 9cbd
00000050: ec2d dabc d186 a13d e44f 67bb e294 693e
00000060: 1abb b43d 1209 493d dc36 213d 5b19 393d
00000070: ce78 b33a c786 89bc 4844 11bc e16e 043d
00000080: 2923 84bd 3c00 a2bd 8cf3 d33d f7a9 b6bc
00000090: 0ef5 08bd 405c b13d 3009 06be c2fb 76bc
000000a0: 688d 023c d45a a73c ec32 3e3d 8e55 b2bc
000000b0: 9ec8 1ebc 72c2 81bc 6841 0b3e 961c 1e3e
000000c0: f0ed 033e 2ca4 c3bd 68d9 19bd a0a8 0b3e
000000d0: 37f3 80bd a7b1 a03c 496e 0c3d 005c 3d3d
000000e0: 28d9 993d e997 ac3d fa75 8abd fa29 c03d
000000f0: cabe 3a3d 4845 113d 01dc 96bd 3940 303d
00000100: a212 b4bd 90b1 d13d 5bb1 623d 846a e7bc
00000110: ff39 983c bee8 633d a715 293d 68d9 de3d
00000120: fe6c 523d 5d21 4cbd 6369 c63d 2429 5dbd
00000130: 634f f63d 39f9 e5bd 5293 43bd 9b5d 72bd
00000140: e599 1c3d dff3 22bd 3bb8 5c3e 193d b23d
00000150: 7082 86bd 1576 213e 0b35 183e 922c abbb
00000160: 9b26 1c3d f713 433d cbf7 60bd 9625 7f3d
00000170: c309 ef3d 83f3 f3ba ec49 9bbc a6b7 16bc
00000180: bd39 3c3c 2832 823c 34aa c73c 90a8 31bc
00000190: 5dd8 fb3d cdff 5b3d 4989 d53c 8120 a53d
000001a0: c23e efbc 2c32 a83c b907 7f3d 332a a2ba
000001b0: 01f9 053e de45 d6bd 8a9e bd3c 7401 ad3c
000001c0: 781f c03d 78d6 a2bc 37c1 c7bc d7c8 0cbd
000001d0: 4a78 4dbe 08a3 d03d cc2b acbd e94d 63bc
000001e0: 7253 50bd 1d61 dabc a8e5 a8bd a12c 8f3c
000001f0: c287 c5bb 425e 8b3b 980b 14bd 0653 5d3d
00000200: 7eb7 f2bd 684a 5bbd 9b34 f8bd 6f66 1abe
00000210: 2903 9abd 5534 9d3b 87c9 263e a61e dd3b
00000220: c213 8fbd af3a b6bc a2dd 2dbb 02be 303c
00000230: ced9 313d f520 b5bc 2a73 b9bd b4aa d43d
00000240: 697f 193e 1f83 00bd 9325 a43d f723 cd3d
00000250: 99f1 ed3d 977a 82bd cfd2 f43b 8ec9 14bd
00000260: 4c62 7ebd 7dea 9fbd fa07 9abd f4bc 083e
00000270: f197 143d 6b54 ac3d 151a 283e 98ad a3bd
00000280: 45c2 94bd 944c 9abd 348c 59bd 1ea4 483d
00000290: 4798 393e fdc6 013e 6e93 d33c e655 38bd
000002a0: d4f2 d8bd aef6 c9bc 3871 843d 63d7 5a3d
000002b0: 7483 963d 6f81 92bd 4095 45bc 5c76 9fbd
000002c0: be7e c93d bf90 4e3d 5138 a8bc e7c5 1a3e
000002d0: 930c 9bbd 4d22 193d 984e 8d3a c2b5 29bd
000002e0: d5c8 3a3d 5af9 f83c 1c66 89bb e99c 6e3d
000002f0: 0079 80bd c044 c83d 7855 dc3c 0417 80bd
00000300: 7830 59bd fe5c dabb c05c 00bd a0fd 1c3e
00000310: 2c55 a33d 7e77 273c edf7 07bc 7d2a 6a3c
00000320: 5e76 81bd 86f5 013d 5b78 c6bc 62c3 e2ba
00000330: c3b6 263d a78d c0bc 1aa6 5dbd 97e0 02be
00000340: 553f 503d f173 4cbd 842f eb3c 434b 453e
00000350: 5c47 a9bd 5bcd 48bd d84d 1ebc 7a18 633d
00000360: a5e4 f73d 31c8 0c3b 2998 ea3d c6eb 493d
00000370: ffe9 d9bd 99b3 273d 3a34 853d 04e7 203d
00000380: 7f10 5d3b d423 11be 8aaa ba3c dab3 c7bc
00000390: 6f70 3b3c ba89 9fbd 80d1 143d c21a 45be
000003a0: dd89 973c 595f 69bd f27e 473c a722 213d
000003b0: 36a7 9cbc 76a9 223d 5f24 a83d c84f b2bd
000003c0: 4ebf e83a 6633 383c ebe2 feb9 4b3f ebbc
000003d0: 2127 1b3d 0c87 c5bd 9936 ffbb 7339 3d3c
000003e0: f14a d3bb ab68 243c 7528 a33c 5e6c b2bc
000003f0: 65fb ebbc 8d4b 9dbd f432 aabc 0f30 a5bd

action_model._discrete_distribution.branches.1.bias f4 [3]
0.0026168006 -0.009832999 0.014590278
00000000: a17e 2b3b 961a 21bc 100c 6f3c

action_model._discrete_distribution.branches.1.weight f4 [3, 256]
-0.029640598 -0.07983568 -0.0024170482 0.012341637 0.04058238 0.11509792 -0.033906303 0.040671967
0.054361768 -0.072076 0.15460917 0.023508186 0.029945964 -0.06474433 0.0189449 -0.08837727
-0.009536698 -0.04200658 0.09192951 -0.0054741222 -0.040166233 -0.16495338 0.003943932 0.027252028
-0.030716993 -0.023991186 0.043663304 -0.03581891 -0.023971945 -0.002501145 -0.04915604 0.024164405
-0.008310994 -0.0022904878 -0.05225727 -0.04017716 0.06521978 0.005376545 0.015046178 0.018025517
0.03073763 -0.019208288 0.08488452 0.004658214 0.0025196685 -0.008792982 -0.09189263 -0.093901835
0.095973566 0.06964096 -0.00024553144 0.25514844 -0.052162725 -0.012101553 -0.061963685 -0.05333466
-0.08456871 0.0074419524 -0.022891123 -0.012315638 0.0095209 0.1267876 0.021990526 -0.097023256
-0.14795269 0.021443333 -0.05331832 0.057750158 0.047190037 0.020269342 -0.0027827101 0.01853802
-0.020879585 0.030158862 0.014961295 0.07000975 -0.041194253 0.03374147 -0.021881765 -0.06786063
-0.014534091 -0.008903626 0.17028145 0.015955295 0.06360603 -0.010867295 -0.027782075 0.029601995
-0.0004228637 0.016643833 0.0052338424 -0.010221049 0.012615688 0.05428106 0.026259312 0.028817587
-0.09465516 -0.025965383 0.07807887 -0.027957208 0.026113385 0.01635502 -0.0072116125 0.04189389
0.037915476 -0.022032471 0.09084198 -0.0024720083 0.05121226 0.03134994 0.18696684 -0.0052965297
0.0736917 -0.019025957 0.0027055582 -0.0043587717 -0.0021968682 0.024865335 -0.024305245 -0.02910232
-0.056328103 0.029805264 -0.074483715 -0.09813051 0.029938055 0.00793095 -0.08132175 -0.00120871
0.051242836 -0.05544763 -0.02241523 0.0032222976 -0.06047504 -0.0017405943 0.018194232 0.02700526
0.045487456 -0.020912785 0.027427329 0.014076467 0.024454242 -0.0022906174 -0.01097389 0.06562286
-0.034527272 -0.050941866 -0.0143839205 0.028851578 -0.08748103 -0.011543287 -0.015167352 0.054990914
0.12154924 0.08242218 -0.124327004 -0.06272085 0.00072037184 -0.007578871 0.050118916 -0.05506988
0.13673545 0.02272902 0.042070802 -0.008460665 -0.0010329381 0.082401626 -0.013278376 -0.038238645
0.06919641 0.011813138 0.026390688 -0.017659357 0.036537576 -0.031263527 -0.0497453 -0.032144893
0.13682348 -0.05987862 0.037141807 -0.028169064 0.12458823 -0.0021283487 0.083545856 -0.083544865
-0.07107039 -0.06436928 -0.019737102 -0.028012674 -0.03960091 0.064137496 -0.1003685 0.0068510794
-0.051096164 0.1124404 -0.10179661 -0.023277186 -0.036524978 0.02436918 0.009252719 -0.077498905
0.08357068 -0.032885894 0.03886205 0.008715949 -0.0017360992 0.009440782 -0.026038755 0.038954053
0.0003041595 0.059799585 -0.004724327 0.36853257 0.028131645 0.07641296 -0.018231962 -0.044466853
0.060702126 -0.08349315 6.259791e-05 0.014479816 -0.09493932 -0.03183838 -0.06224498 -0.014258326
0.022099927 0.07298658 0.06455168 0.001919798 0.021819802 -0.014092413 0.07658682 -0.053230137
0.02271199 0.043972224 0.017276367 0.021608964 -0.026380831 0.05962675 0.0023069999 -0.053127278
-0.04660172 0.044654388 -0.016696384 0.0043884125 -0.032138653 0.032051902 -0.111456245 0.01203695
-0.022366833 -0.011963722 -0.0011409565 0.011354306 -0.024099039 -0.007388143 -0.00037384685 0.050780058
00000000: d7d0 f2bc e480 a3bd 5767 1ebb 9434 4a3c
00000010: b639 263d 75b8 eb3d 56e1 0abd a697 263d
00000020: 72aa 5e3d 959c 93bd de51 1e3e 3d94 c03c
00000030: 3d51 f53c ad98 84bd 5632 9b3c 24ff b4bd
00000040: d03f 1cbc 170f 2cbd 8a45 bc3d 4460 b3bb
00000050: 5985 24bd 8ae9 28be 193c 813b a53f df3c
00000060: 34a2 fbbc 2a89 c4bc 4bd8 323d d9b6 12bd
00000070: d060 c4bc 40ea 23bb d857 49bd 6ef4 c53c
00000080: d62a 08bc 021c 16bb b80b 56bd ce90 24bd
00000090: f391 853d ba2d b03b 3f84 763c 40aa 933c
000000a0: 7bcd fb3c b35a 9dbc efd7 ad3d eea3 983b
000000b0: 0621 253b 7110 10bc 3432 bcbd 9b4f c0bd
000000c0: ca8d c43d eb9f 8e3d acba 80b9 d1a2 823e
000000d0: 95a8 55bd 9845 46bc a2cd 7dbd 7275 5abd
000000e0: 5c32 adbd 9fdb f33b 2a86 bbbc 88c7 49bc
000000f0: 8dfd 1b3c 9cd4 013e 7a25 b43c 21b4 c6bd
00000100: e980 17be eea9 af3c 5064 5abd 6e8b 6c3d
00000110: 574a 413d e40b a63c 215e 36bb 0cdd 973c
00000120: aa0b abbc b80f f73c 3820 753c 4661 8f3d
00000130: 4ebb 28bd 7f34 0a3d 6341 b3bc 84fa 8abd
00000140: 6520 6ebc 84e0 11bc 435e 2e3e aeb4 823c
00000150: e143 823d bd0c 32bc 3c97 e3bc e27f f23c
00000160: ceb3 ddb9 a658 883c a780 ab3b 3076 27bc
00000170: 08b2 4e3c d155 5e3d c51d d73c dc12 ec3c
00000180: 91da c1bd 5bb5 d4bc d1e7 9f3d 8406 e5bc
00000190: bdeb d53c f7fa 853c 644f ecbb ed98 2b3d
000001a0: 424d 1b3d 717d b4bc 5c0b ba3d 6b01 22bb
000001b0: f2c3 513d cb68 003d 3c74 3f3e 838e adbb
000001c0: adeb 963d 53dc 9bbc bc4f 313b 07d4 8ebb
000001d0: 55f9 0fbb 63b2 cb3c cb1b c7bc fd67 eebc
000001e0: 4cb8 66bd 2b2a f43c eb8a 98bd a6f8 c8bd
000001f0: a740 f53c d1f0 013c 058c a6bd 946d 9eba
00000200: 02e4 513d 0e1d 63bd 25a0 b7bc 2f2d 533b
00000210: adb4 77bd a724 e4ba 120c 953c 233a dd3c
00000220: 0e51 3a3d 4a51 abbc 47af e03c fba0 663c
00000230: 4354 c83c 2f1e 16bb d5cb 33bc 4765 863d
00000240: 786c 0dbd 6ba8 50bd 89aa 6bbc 255a ec3c
00000250: 4129 b3bd 0e20 3dbc 7c80 78bc 273e 613d
00000260: cfee f83d f6cc a83d 289f febd ca73 80bd
00000270: 56d7 3c3a 2e58 f8bb 7e49 4d3d f490 61bd
00000280: 6104 0c3e 3632 ba3c 6f52 2c3d 9a9e 0abc
00000290: a763 87ba 2fc2 a83d 8c8d 59bc 20a0 1cbd
000002a0: d9b6 8d3d e48b 413c 4931 d83c 5baa 90bc
000002b0: 6da8 153d 2f0e 00bd bac1 4bbd 5daa 03bd
000002c0: 741b 0c3e 4943 75bd 0222 183d cfc2 e6bc
000002d0: 1d28 ff3d c47b 0bbb 171a ab3d 9219 abbd
000002e0: 5a8d 91bd 0bd4 83bd b4af a1bc d67a e5bc
000002f0: 9034 22bd 855a 833d 008e cdbd 057f e03b
00000300: 364a 51bd 2747 e63d be7a d0bd ccaf bebc
00000310: 379b 15bd e0a1 c73c b798 173c bfb7 9ebd
00000320: 1b27 ab3d 5cb3 06bd d02d 1f3d 57cd 0e3c
00000330: d38d e3ba 82ad 1a3c 3a4f d5bc 498e 1f3d
00000340: 9977 9f39 69f0 743d 87ce 9abb 4db0 bc3e
00000350: 5674 e63c 667e 9c3d 325b 95bc e022 36bd
00000360: cba2 783d 75fe aabd ff46 8338 c03c 6d3c
00000370: 8c6f c2bd f668 02bd 98f4 7ebd c19b 69bc
00000380: e80a b53c fd79 953d ac33 843d bba1 fb3a
00000390: 71bf b23c dde3 66bc 8dd9 9c3d d807 5abd
000003a0: 7f0e ba3c 381c 343d 2b87 8d3c 4805 b13c
000003b0: 9d1c d8bc 2e3b 743d 0931 173b fd9b 59bd
000003c0: 72e1 3ebd 85e7 363d dbc6 88bc accc 8f3b
000003d0: d2a3 03bd db48 033d 2c43 e4bd a136 453c
000003e0: a63a b7bc 7d03 44bc 268c 95ba 6907 3a3c
000003f0: 596b c5bc 3c18 f2bb e000 c4b9 c0fe 4f3d

action_model._discrete_distribution.branches.2.bias f4 [3]
0.08631438 -0.05063675 -0.03639781
00000000: 98c5 b03d 7b68 4fbd df15 15bd

action_model._discrete_distribution.branches.2.weight f4 [3, 256]
0.032762382 0.08000067 0.10763543 -0.10558082 0.108045384 -0.059914872 -0.21971093 -0.02041587
0.013018947 0.087015055 -0.08423576 -0.07436875 0.05536298 0.014273501 0.086711995 0.09650203
-0.0004676928 0.08583449 -0.03846388 -0.14480469 0.002892411 -0.10062734 0.0846576 -0.13993752
-0.13803184 0.07404545 0.1755682 -0.1146229 0.02840544 0.044222265 0.041807838 0.043363597
-0.08912295 -0.0463501 -0.02667379 0.3158097 0.074129805 -0.17149617 0.11552032 0.018730592
0.04542871 -0.20469251 -0.2369924 0.107370615 0.068370275 -0.06500216 -0.12049533 -0.073457874
-0.25919494 0.09135653 0.060470365 -0.1685247 -0.15432188 0.018117351 0.0023794014 0.00041185162
-0.056282792 -0.057486974 -0.051200934 -0.05075748 -0.035297085 0.013307783 -0.021291213 0.19718719
-0.017996047 -0.13969985 -0.16511405 0.048605025 0.026143514 -0.22622612 0.053449888 -0.1745231
0.000296647 0.41821557 -0.14806017 0.13060981 -0.09825835 0.083767116 0.10707932 -0.023884047
0.01862683 0.25261357 -0.112273075 -0.0062184664 -0.025517775 0.079436205 0.00035938708 -0.06475149
0.06682849 0.0013768809 0.009553085 -0.050357174 0.03251399 0.19938992 0.055384293 0.035608675
0.16160136 -0.05953143 -0.11646929 -0.15018292 0.013073173 -0.053395797 -0.030375326 0.06794975
-0.033338662 0.056569275 0.0033691924 -0.035014693 -0.026105747 -0.17015894 -0.030645052 0.080910094
-0.13340174 -0.017835636 0.0277825 -0.06262746 -0.24103205 -0.059058916 0.33059025 0.08075285
-0.01495488 0.102403276 0.058078256 0.11525198 -0.024151457 0.08678376 0.17271098 -0.015438837
0.18295543 -0.1179014 0.049276646 -0.0475168 0.15610494 -0.057257965 -0.22501633 0.0505247
0.060974617 0.108790636 0.011657979 -0.122192524 0.032500435 0.01165709 -0.19599701 -0.118403666
-0.30252448 0.055206228 -0.044491123 -0.01329396 -0.09001061 -0.12966014 -0.047459096 0.08008098
0.02742562 -0.051281393 -0.03210888 -0.058199238 0.0045042816 -0.2470325 -0.17050721 0.11369992
0.09471241 -0.042594012 0.050025858 0.05726201 -0.09675722 -0.050131667 0.00024933816 -0.23547496
-0.15685555 -0.070478916 -0.08945689 -0.008504535 -0.069614746 -0.10868073 -0.012410294 0.47399235
-0.090276554 -0.09765074 -0.12998198 0.040732242 0.022197906 0.053298507 -0.02072502 -0.018828245
0.10824098 0.004769401 0.014771995 -0.033018243 0.0286216 -0.010943187 0.025377017 0.07023215
-0.11461213 -0.04041844 0.04097069 -0.06786788 -0.011419092 0.07709334 0.05928829 0.0062512467
0.15653129 -0.0896218 -0.23766516 0.14230368 0.06933042 -0.00560968 0.08032528 0.29953012
0.012240168 0.0034797515 0.03965407 -0.22008136 -0.0024285726 -0.09007864 0.19664134 -0.08232901
-0.025565537 -0.03183378 -0.098375134 -0.02233936 -0.11596684 0.096898645 -0.114766985 -0.013447567
0.13225663 0.13730304 0.11946409 0.014989213 0.08137179 0.0108852815 0.03206044 0.07897964
-0.020864159 -0.042367924 0.09431049 -0.00239248 -0.077085435 -0.082683094 -0.06796598 0.0976552
-0.10785846 0.037098125 0.028464844 0.09403681 0.038930655 0.018884934 0.023518316 -0.0024980626
-0.05648592 0.040247023 -0.0051998827 0.059008308 0.01654584 -0.0647255 0.089180484 0.19872096
00000000: d931 063d 64d7 a33d f76f dc3d c23a d8bd
00000010: e646 dd3d 4c69 75bd e7fb 60be 2f3f a7bc
00000020: 6c4d 553c f334 b23d cc83 acbd a54e 98bd
00000030: 4bc4 623d 67db 693c 0f96 b13d dba2 c53d
00000040: aa34 f5b9 fec9 af3d 4d8c 1dbd ae47 14be
00000050: 9b8e 3d3b b515 cebd f760 ad3d c84b 0fbe
00000060: 3858 0dbe 24a5 973d 26c8 333e 69bf eabd
00000070: 86b2 e83c 6822 353d b23e 2b3d 079e 313d
00000080: 1886 b6bd 9ad9 3dbd fe82 dabc cfb1 a13e
00000090: 5ed1 973d b19c 2fbe eb95 ec3d e670 993c
000000a0: 7413 3a3d ea9a 51be 23ae 72be 20e5 db3d
000000b0: b705 8c3d da1f 85bd 41c6 f6bd 1571 96bd
000000c0: 33b5 84be 2219 bb3d c6af 773d bd91 2cbe
000000d0: 8e06 1ebe d76a 943c bbef 1b3b caed d739
000000e0: c988 66bd 7677 6bbd 12b8 51bd 13e7 4fbd
000000f0: ad93 10bd e308 5a3c e96a aebc 70eb 493e
00000100: 726c 93bc 7a0d 0fbe a813 29be 1016 473d
00000110: ec2a d63c d2a7 67be 45ee 5a3d 2fb6 32be
00000120: 4987 9b39 5a20 d63e 169d 17be 94be 053e
00000130: ac3b c9bd 188e ab3d 674c db3d 7aa8 c3bc
00000140: 4b97 983c 9156 813e 6def e5bd 47c4 cbbb
00000150: a70a d1bc 73af a23d 1e6c bc39 6e9c 84bd
00000160: 60dd 883d 7578 b43a 8b84 1c3c 5343 4ebd
00000170: 642d 053d df2c 4c3e a4da 623d 67da 113d
00000180: d47a 253e 3bd7 73bd 7387 eebd 8dc9 19be
00000190: dd30 563c 8db5 5abd add5 f8bc 3d29 8b3d
000001a0: 1f8e 08bd 2fb5 673d abcd 5c3b 916b 0fbd
000001b0: b8db d5bc 253e 2ebe 550b fbbc 31b4 a53d
000001c0: 779a 08be 0a1c 92bc 2098 e33c d342 80bd
000001d0: 1bd1 76be c3e7 71bd 2043 a93e c061 a53d
000001e0: 5005 75bc cfb8 d13d 77e3 6d3d 3b09 ec3d
000001f0: 47d9 c5bc afbb b13d 26db 303e 2df3 7cbc
00000200: ab58 3b3e 4a76 f1bd 4fd6 493d faa0 42bd
00000210: f9d9 1f3e 5487 6abd ae6a 66be fdf2 4e3d
00000220: 85c0 793d a0cd de3d 1c01 3f3c 1340 fabd
00000230: 2d1f 053d 61fd 3e3c 71b3 48be 9f7d f2bd
00000240: 7de4 9abe ed1f 623d 533c 36bd e9ce 59bc
00000250: 7c57 b8bd a1c5 04be 7864 42bd 7f01 a43d
00000260: b2ab e03c 700c 52bd 9a84 03bd 5362 6ebd
00000270: a798 933b 16f6 7cbe 7199 2ebe 81db e83d
00000280: 94f8 c13d 0f77 2ebd eae7 4c3d 928b 6a3d
00000290: a628 c6bd dd56 4dbd 9ab9 8239 5920 71be
000002a0: be9e 20be 4057 90bd 2d35 b7bd 9b56 0bbc
000002b0: 2d92 8ebd 0194 debd 8c54 4bbc 20af f23e
000002c0: eae2 b8bd 1cfd c7bd ff19 05be dad6 263d
000002d0: 62d8 b53c 894f 5a3d 84c7 a9bc b13d 9abc
000002e0: 72ad dd3d a348 9c3b 3d06 723c 233e 07bd
000002f0: d877 ea3c 0e4b 33bc 76e3 cf3c e0d5 8f3d
00000300: c4b9 eabd ce8d 25bd e2d0 273d 51fe 8abd
00000310: 2517 3bbc 1de3 9d3d 47d8 723d 42d7 cc3b
00000320: bd49 203e a28b b7bd 7f5e 73be 0eb8 113e
00000330: 1bfd 8d3d 68d1 b7bb 9581 a43d 035c 993e
00000340: fc8a 483c 8b0c 643b 4e6c 223d 025d 61be
00000350: b028 1fbb 267b b8bd 595c 493e 1d9c a8bd
00000360: d16e d1bc 2364 02bd e778 c9bd 0901 b7bc
00000370: 0680 edbd cc72 c63d f40a ebbd 2f53 5cbc
00000380: 486e 073e 2b99 0c3e 97a9 f43d 5195 753c
00000390: 41a6 a63d 2e58 323c cf51 033d 14c0 a13d
000003a0: 50eb aabc fd89 2dbd dc25 c13d 27cb 1cbb
000003b0: f8de 9dbd c155 a9bd bf31 8bbd 73ff c73d
000003c0: e5e4 dcbd 34f4 173d 1b2f e93c 5f96 c03d
000003d0: c075 1f3d 94b4 9a3c 7ca9 c03c 89b6 23bb
000003e0: c85d 67bd 10da 243d c763 aabb b2b2 713d
000003f0: 248b 873c ce8e 84bd 42a4 b63d 827d 4b3e

action_model._discrete_distribution.branches.3.bias f4 [2]
0.22533715 -0.22533584
00000000: c8be 663e 70be 66be

action_model._discrete_distribution.branches.3.weight f4 [2, 256]
0.03247992 -0.08581453 0.28035203 -0.044994727 0.05673942 0.14828314 0.2157069 -0.15017202
-0.06622238 -0.05026822 -0.0017045253 -0.42262617 0.01067917 -0.10762515 -0.058249537 0.04526051
0.1919931 -0.019073375 0.025638707 0.11810695 -0.14516464 0.06563212 0.19952197 -0.34427664
-0.02880345 0.11737639 0.025512317 -0.031020893 0.24665082 -0.062344085 0.20953397 0.15856078
-0.02271505 -0.06394928 -0.09726885 0.10088751 0.09247863 -1.0104877 -0.68197566 -0.03363573
0.33567604 -0.01573276 0.023424197 0.01954187 0.29890132 0.054958794 -0.14243157 0.048049454
-0.032508582 -0.2901434 -0.112703465 -0.071310766 0.023313606 0.21740401 0.26259235 0.11479365
0.043601025 -0.23216617 0.07139256 -0.24820234 0.13466384 -0.012623641 -0.15218191 0.09544704
0.009621483 -0.30555645 -0.14589554 0.120234214 0.0049738456 -0.13863201 -0.15547463 -0.36855817
0.13588777 0.31453776 0.110984504 -0.13886106 -0.33127373 -0.18838881 0.11445792 0.17805903
0.1262057 0.19813813 0.16785063 -0.1143613 0.054436244 0.06139437 0.09555387 -0.29164824
0.07860229 0.107240535 0.09527924 0.04456533 0.0025471966 0.073696926 0.08091917 -0.022149734
0.11710552 -0.12236413 0.080910996 -0.030367795 0.19347115 0.09981144 -0.08544032 -0.008255724
0.09446527 0.24006175 0.1494525 0.102629304 0.174878 -0.13848682 -0.017768942 -0.05512466
0.18408175 0.122729935 -0.07150282 0.099317074 -0.706054 0.060303506 0.14728689 0.0031900026
-0.1995244 0.18781424 -0.037168805 0.13266876 -0.081524625 0.043910317 -0.204342 0.062876694
-0.20021684 0.007911172 0.048102774 -0.06681343 0.040704317 -0.0738396 -0.035022687 -0.07217007
0.13249838 0.01598426 0.25573325 -0.09909026 0.18878022 0.25297248 -0.15168615 -0.005625142
0.03954616 0.19135334 0.102156885 -0.081342205 -0.0070338673 -0.07394989 0.13765931 0.15989317
0.027027326 0.016934771 0.03291043 0.06593457 0.09947424 -0.14878874 0.17311543 0.078231856
0.114132576 -0.08199696 0.07867173 0.06551246 0.095415995 0.17075399 0.043091323 0.15185088
-0.9693803 -0.19172733 0.013850658 0.063046515 -0.06102971 0.06878062 -0.2379437 -0.05717131
0.01516179 -0.008988092 -0.10576782 0.35956287 -0.047342133 0.29918775 0.062663615 0.04494224
-0.11330989 0.13579912 -0.049978495 -0.09812548 -0.06764156 0.25463766 0.091829896 -0.070209645
-0.20914377 -0.06198063 0.015182305 -0.12338455 0.013521546 -0.16496262 0.21680388 -0.11147266
-0.072472714 0.05197213 -0.0917916 0.03934931 -0.062336635 -0.041875623 0.1217179 0.412848
-0.16710944 -0.06989635 0.03994108 0.031922385 0.051291604 0.06215327 0.17445138 -0.054984532
0.24909519 -0.022564158 0.07450883 -0.12846917 -0.07585616 -0.0013373273 -0.04287532 -0.252679
-0.025264839 0.06164575 0.05645161 0.19534072 -0.07749815 -0.0075197993 0.04219906 -0.23257472
-0.45434156 0.20825002 -0.21015398 0.12381704 0.04674284 -0.023166357 -0.05840997 0.097844556
-0.004338558 0.06064082 -0.09440449 0.112059884 0.031655226 0.24527527 0.26557586 0.16449249
0.08456584 0.050198343 -0.28349683 0.0031136968 -0.0879313 0.3581305 0.04138003 0.09777458
00000000: aa09 053d 87bf afbd 4d8a 8f3e 644c 38bd
00000010: 9867 683d 89d7 173e 45e2 5c3e b2c6 19be
00000020: 999f 87bd 0de6 4dbd 616a dfba 7562 d8be
00000030: aff7 2e3c 936a dcbd 1197 6ebd 1663 393d
00000040: d799 443e c43f 9cbc 4408 d23c 0ee2 f13d
00000050: 0aa6 14be 226a 863d 7d4f 4c3e 0745 b0be
00000060: 36f5 ebbc 0863 f03d 35ff d03c 871f febc
00000070: 0892 7c3e 835c 7fbd 1390 563e c25d 223e
00000080: ea14 babc d7f7 82bd e434 c7bd 1c9e ce3d
00000090: 7065 bd3d a957 81bf f595 2ebf 9fc5 09bd
000000a0: bbdd ab3e fde1 80bc 1ae4 bf3c 4616 a03c
000000b0: 9809 993e 791c 613d 95d9 11be 81cf 443d
000000c0: b827 05bd ad8d 94be 13d1 e6bd 610b 92bd
000000d0: 2dfc be3c 289f 5e3e 8172 863e ef18 eb3d
000000e0: fd96 323d f8bc 6dbe 4336 923d c128 7ebe
000000f0: 51e5 093e 63d3 4ebc 93d5 1bbe bd79 c33d
00000100: 6da3 1d3c e571 9cbe a465 15be 5b3d f63d
00000110: a4fb a23b 8df5 0dbe be34 1fbe a8b3 bcbe
00000120: 2a26 0b3e 180b a13e d84b e33d 9831 0ebe
00000130: b69c a9be ffe8 40be ea68 ea3d 1b55 363e
00000140: 113c 013e b9e4 4a3e 09e1 2b3e 4236 eabd
00000150: 8af8 5e3d aa78 7b3d bfb1 c33d eb52 95be
00000160: 3dfa a03d eda0 db3d c321 c33d 238a 363d
00000170: deee 263b 6aee 963d f3b8 a53d 5c73 b5bc
00000180: 05d5 ef3d 0c9a fabd aab4 a53d e2c5 f8bc
00000190: 4d1d 463e f169 cc3d 56fb aebd 0443 07bc
000001a0: 0277 c13d bfd2 753e 130a 193e 502f d23d
000001b0: 3813 333e 7dcf 0dbe 2c90 91bc 65ca 61bd
000001c0: ed7f 3c3e d559 fb3d 1270 92bd c066 cb3d
000001d0: f4bf 34bf cf00 773d 60d2 163e 5d0f 513b
000001e0: 2050 4cbe 6052 403e 513e 18bd 52da 073e
000001f0: 62f6 a6bd 4edb 333d 073f 51be 7fc5 803d
00000200: a505 4dbe dc9d 013c 6a07 453d 7bd5 88bd
00000210: 92b9 263d 3739 97bd f373 0fbd e7cd 93bd
00000220: a8ad 073e 6cf1 823c 78ef 823e d6ef cabd
00000230: 9a4f 413e 9c85 813e 9d53 1bbe 1c53 b8bb
00000240: 27fb 213d 21f2 433e a137 d13d be96 a6bd
00000250: 5b7c e6bb 0a73 97bd 90f6 0c3e 09bb 233e
00000260: 6968 dd3c caba 8a3c 16cd 063d b408 873d
00000270: 26b9 cb3d 135c 18be 2c45 313e 0638 a03d
00000280: 57be e93d 06ee a7bd a51e a13d 662b 863d
00000290: 7669 c33d 22da 2e3e 8780 303d cc7e 1b3e
000002a0: 4f29 78bf 2b54 44be dfed 623c 881e 813d
000002b0: 4afa 79bd dbdc 8c3d 83a7 73be 772c 6abd
000002c0: 2869 783c ca42 13bc cc9c d8bd a018 b83e
000002d0: d3e9 41bd 232f 993e c855 803d 5b15 383d
000002e0: 040f e8bd ed0e 0b3e 40b6 4cbd 03f6 c8bd
000002f0: a987 8abd de5f 823e 5011 bc3d 13ca 8fbd
00000300: c929 56be 67df 7dbd 34bf 783c 0ab1 fcbd
00000310: 7989 5d3c f6eb 28be d601 5e3e c74b e4bd
00000320: 936c 94bd bae0 543d 3cfd bbbd be2c 213d
00000330: b354 7fbd c685 2bbd 3c47 f93d d060 d33e
00000340: bd1e 2bbe d125 8fbd 4299 233d 0cc1 023d
00000350: 2517 523d 6d94 7e3d 62a3 323e 7637 61bd
00000360: cf12 7f3e 78d8 b8bc 1698 983d 6c8d 03be
00000370: 795a 9bbd 4249 afba 089e 2fbd 245f 81be
00000380: 35f8 cebc 4180 7c3d ce39 673d 6607 483e
00000390: 5ab7 9ebd a668 f6bb ecd8 2c3d 1128 6ebe
000003a0: 759f e8be 7e3f 553e 9b32 57be ca93 fd3d
000003b0: 6c75 3f3d 5fc7 bdbc 4b3f 6fbd ba62 c83d
000003c0: 762a 8ebb 8262 783d 2457 c1bd a77f e53d
000003d0: e9a8 013d 7129 7b3e 8ff9 873e b870 283e
000003e0: db30 ad3d c79c 4d3d 7f26 91be 2a0f 4c3b
000003f0: 5315 b4bd e25c b73e 1b7e 293d 0a3e c83d

discrete_action_output_shape f4 [1, 4]
3.0 3.0 3.0 2.0
00000000: 0000 4040 0000 4040 0000 4040 0000 0040

network_body._body_endoder.seq_layers.0.bias f4 [256]
-0.13298357 0.34158355 0.022987759 0.31226793 0.28874546 0.021710211 -0.070754774 0.006638498
-0.13124534 -0.15067592 -0.021385625 -0.023019833 -0.15581371 0.018406639 0.03981475 -0.20378725
0.41122055 0.40525475 -0.15019597 -0.103405856 0.21399334 0.09203345 -0.15577567 0.0092665935
0.7114105 -0.13202123 0.33597997 -0.025187248 -0.15769924 0.07143098 0.38464066 -0.012902624
-0.03163366 -0.18402429 -0.07157542 0.031160764 0.042472888 0.23838657 -0.011476811 -0.12314447
0.1588263 -0.060343936 -0.14831655 0.30785072 -0.061972536 0.3974676 -0.28100464 0.12556997
0.30659753 -0.17680995 0.76273435 -0.107214704 -0.13265336 -0.1329509 -0.030411446 -0.12536925
-0.13861805 0.24889347 0.10516665 0.062361114 0.1620937 0.059495773 -0.10155326 0.030861782
0.23759265 -0.030951414 -0.096283585 0.15030915 0.20688623 0.32254443 -0.037622117 0.17104578
0.1906581 -0.027955098 0.1697036 0.18187733 0.4434743 0.026788242 0.051690865 0.21795057
0.09482566 0.31871676 0.19676308 -0.015051932 0.28181586 -0.033388752 0.3156603 0.12263528
-0.18713234 -0.018189993 0.06563608 0.11205486 0.013925201 -0.010768012 0.047901835 0.1793896
0.17736222 0.037837774 0.030657915 0.14430691 -0.09777198 0.08699413 -0.06259895 -0.11245107
-0.16901095 -0.12905337 0.16866933 0.5095992 -0.10610136 -0.06477307 -0.1963357 0.54469055
-0.08652782 0.009537359 0.30247644 0.05350968 0.0686663 0.1376985 -0.115766294 0.06142463
0.7850974 -0.13453439 -0.005679473 0.8358161 -0.046409406 -0.027925065 0.3673395 -0.00012678248
0.111804456 0.17281832 -0.06845157 -0.054883186 0.16870394 0.028830303 0.002446712 -0.11580644
0.06647701 0.10426345 -0.13198067 -0.123141035 0.30420217 0.19001523 0.049409453 0.08542038
0.123206206 0.23586127 0.30984858 0.07613796 -0.09689326 0.27167422 0.030089026 0.22480363
0.03158682 0.028021976 0.17381474 0.3250107 0.24434462 -0.050505057 0.15831783 -0.17069034
0.24113253 0.2566066 -0.20112978 0.8174529 0.8527523 0.116774015 0.22104536 0.19777602
-0.10752277 0.14632976 0.000103138584 0.25235203 0.24832271 0.10993359 0.08483217 -0.12592825
0.22033654 0.38506266 0.36636895 -0.041477792 0.3281286 -0.09703584 0.18547533 0.3195146
0.71478385 -0.058860444 0.29791594 0.5299965 -0.01222387 0.03710623 -0.013836377 -0.08731629
0.11564515 0.10322231 0.23832461 -0.14287588 0.03275204 0.39816362 0.22256339 0.39090648
-0.0037486048 -0.2231107 -0.26001796 -0.04278265 0.20785561 0.16517998 0.7119371 0.10127759
0.16028894 -0.119799875 0.14197405 0.19263569 0.20294808 0.26492068 0.15911166 0.88461536
0.30163625 0.1634017 3.8268543e-05 0.16690414 0.41662398 0.09939554 0.15868925 -0.2396673
-0.034024518 -0.15282646 -0.014936436 0.13994096 0.16427149 0.2736457 0.42614394 0.18450218
0.03616991 0.2913323 -0.0012859373 0.25452843 0.1789327 -0.1444052 -0.07506528 0.08444414
0.25225025 0.91711235 0.096570395 0.09366264 -0.05321081 0.025898458 -0.058773603 0.0023006531
0.07004247 -0.017819736 0.11509962 0.10717166 -0.051607642 0.068901435 -0.12773179 -0.041480854
00000000: d82c 08be 0ae4 ae3e d350 bc3c 95e1 9f3e
00000010: 72d6 933e 9dd9 b13c e1e7 90bd c287 d93b
00000020: 2e65 06be ca4a 1abe e830 afbc 1794 bcbc
00000030: a18d 1fbe 85c9 963c cb14 233d 9bad 50be
00000040: 808b d23e 8d7d cf3e f9cc 19be 73c6 d3bd
00000050: 1221 5b3e 097c bc3d a883 1fbe e9d2 173c
00000060: 001f 363f 9330 07be 9105 ac3e 7d55 cebc
00000070: e97b 21be 684a 923d 9fef c43e 8765 53bc
00000080: 4c92 01bd dd70 3cbe 2296 92bd dc44 ff3c
00000090: 0df8 2d3d 9c1b 743e 3c09 3cbc 2b33 fcbd
000000a0: 5da3 223e 342b 77bd 4be0 17be 9c9e 9d3e
000000b0: ead6 7dbd e080 cb3e d7df 8fbe 6a95 003e
000000c0: 5afa 9c3e ab0d 35be 8f42 433f 6293 dbbd
000000d0: 48d6 07be 4824 08be 6d21 f9bc cc60 00be
000000e0: e4f1 0dbe eedd 7e3e 9d61 d73d 5e6e 7f3d
000000f0: e4fb 253e d7b1 733d 28fb cfbd d9d1 fc3c
00000100: 7d4b 733e d28d fdbc 5430 c5bd a4ea 193e
00000110: fcd9 533e 8b24 a53e a619 1abd a026 2f3e
00000120: e13b 433e 1702 e5bc c8c6 2d3e 0d3e 3a3e
00000130: 100f e33e 0473 db3c cdb9 533d 6f2e 5f3e
00000140: f533 c23d d82e a33e 437c 493e 619c 76bc
00000150: 2b4a 903e a5c2 08bd 3a9e a13e 3528 fb3d
00000160: 9f9f 3fbe 2e03 95bc 366c 863d 057d e53d
00000170: 8726 643c 516c 30bc b734 443d e8b1 373e
00000180: 719e 353e c8fb 1a3d 4f26 fb3c 31c5 133e
00000190: ad3c c8bd fa29 b23d e133 80bd bf4c e6bd
000001a0: 3511 2dbe 9126 04be a7b7 2c3e 1875 023f
000001b0: ab4b d9bd bea7 84bd 3a0c 49be d770 0b3f
000001c0: 7f35 b1bd 9542 1c3c 31de 9a3e f72c 5b3d
000001d0: eba0 8c3d d600 0d3e e116 edbd 6598 7b3d
000001e0: 25fc 483f 62c3 09be df1a babb 0bf8 553f
000001f0: ca17 3ebd 1bc3 e4bc ec13 bc3e eaf0 04b9
00000200: bcf9 e43d 49f7 303e 5630 8cbd 31cd 60bd
00000210: bac0 2c3e 872d ec3c 0459 203b ed2b edbd
00000220: 1925 883d 1388 d53d f125 07be 5e31 fcbd
00000230: 63c0 9b3e 5a93 423e 9161 4a3d e1f0 ae3d
00000240: 8953 fc3d 9e85 713e 79a4 9e3e 38ee 9b3d
00000250: f96f c6bd e218 8b3e 437d f63c ec32 663e
00000260: 2e61 013d 588e e53c 7efc 313e cd67 a63e
00000270: 7a35 7a3e 64de 4ebd 121e 223e 73c9 2ebe
00000280: 72eb 763e f161 833e f7f4 4dbe 9844 513f
00000290: fa4d 5a3f 3727 ef3d b759 623e cc85 4a3e
000002a0: e634 dcbd 78d7 153e 1b4c d838 4934 813e
000002b0: 4f48 7e3e dd24 e13d 7dbc ad3d 56f3 00be
000002c0: e79f 613e ef26 c53e b694 bb3e 9ee4 29bd
000002d0: 7900 a83e baba c6bd 3fed 3d3e 6b97 a33e
000002e0: 13fc 363f a617 71bd 7088 983e daad 073f
000002f0: a046 48bc b4fc 173d f9b1 62bc e2d2 b2bd
00000300: 5dd7 ec3d 3866 d33d 5e0b 743e 0e4e 12be
00000310: 0127 063d 1adc cb3e a8e7 633e e524 c83e
00000320: 27ab 75bb 2277 64be 1321 85be dc3c 2fbd
00000330: 1ad8 543e f124 293e 8341 363f a06a cf3d
00000340: c922 243e a359 f5bd a561 113e 4a42 453e
00000350: 9fd1 4f3e afa3 873e 2bee 223e 2776 623f
00000360: 1170 9a3e c652 273e 8982 2038 ebe8 2a3e
00000370: bd4f d53e e48f cb3d 6f7f 223e 586b 75be
00000380: 4b5d 0bbd 8a7e 1cbe f4b7 74bc af4c 0f3e
00000390: c936 283e 4a1b 8c3e 8a2f da3e 24ee 3c3e
000003a0: e626 143d 8229 953e e58c a8ba 8d51 823e
000003b0: 223a 373e f5de 13be d3bb 99bd 0df1 ac3d
000003c0: f226 813e e0c7 6a3f b3c6 c53d 33d2 bf3d
000003d0: 94f3 59bd 0129 d43c 97bc 70bd 8ec6 163b
000003e0: 6d72 8f3d b2fa 91bc 59b9 eb3d d17c db3d
000003f0: 8962 53bd 321c 8d3d 1fcc 02be d4e7 29bd

network_body._body_endoder.seq_layers.0.weight f4 [256, 11]
-0.34176204 0.2353789 -0.1038875 -0.8588165 -0.535209 -0.17540587 0.07061202 -0.08230178
-0.20065813 -1.1177121 0.16818048 0.9030501 -0.39649016 -0.22375494 0.62448573 0.058932737
0.14322329 -0.5317311 0.01023606 0.014658463 0.37910426 -0.22367272 -0.6360552 0.21499969
0.036814652 -0.18849553 -0.32284757 0.16070679 -0.4081144 -0.02354834 0.36632043 -0.32214803
0.10461736 -1.3442147 0.6807269 -0.52258456 -0.17556024 -0.20001738 -0.24316818 -0.18965738
0.18906216 0.6618758 -0.071186855 0.32713842 0.34242722 0.2598212 0.14666562 0.35293943
0.11976095 -0.064991266 0.65056384 -0.26197466 -0.13927895 0.9103011 0.14145991 0.36960453
0.78695613 -0.35345683 -0.23614095 -0.87706846 0.3785237 0.55514634 -0.3713907 -0.10020084
-0.3947556 0.33208948 0.28828165 0.051277723 -0.38653377 0.2586085 -0.24766183 -0.10856563
0.8862928 -0.13677387 -0.45984998 -0.34019062 0.30141872 -0.0968305 0.35401267 0.68107563
-0.39022127 -0.010924654 0.10276625 -0.35546932 0.04127691 -0.21335627 -0.44142127 0.034106985
0.0638152 -0.083267264 -0.25578496 -0.15005031 -0.9126978 0.119380966 0.18729354 -0.34423208
0.1117532 0.22119513 -0.10998476 0.678197 0.24964097 -0.14835344 -0.19258408 -0.41012135
-0.10105988 -0.12501186 0.3554476 -0.04263914 0.05616568 -0.7630716 -0.6716537 -0.5630234
-0.35568985 -0.10965525 0.31402183 0.6713705 0.07273489 -0.14902991 -0.49587616 -0.45596266
0.2518096 0.60279113 0.45489204 -0.685101 -0.36033097 0.15545692 -0.1625792 0.070406154
0.13755071 0.45784628 -0.5124935 0.5709107 -0.10875102 0.3907369 -0.020714449 -0.37960264
-0.12639488 0.3574568 0.5041629 0.0767825 -0.8802207 0.13455155 0.18116647 0.80392975
-0.24892883 -0.43759543 -0.43419403 0.43568248 0.2637371 -0.15732682 0.18621278 -0.05737543
-0.5838425 -0.15447569 0.3155682 -0.20317036 0.11276192 -0.7001442 0.20603937 0.33670583
0.06573338 -0.025296403 0.09482814 -0.624501 -0.01970485 0.17448555 -0.1518541 0.3482386
-0.33462232 -0.3263761 -0.065109916 0.053646646 0.06611642 -0.63697183 -0.63568115 -0.2801539
0.46910006 -0.056228712 -0.3222175 0.74813855 0.45748624 0.2141268 0.044829432 -0.10534929
0.27760223 0.5301628 0.32472438 -0.23768452 -0.13830838 -0.6564395 0.79308325 0.10245394
0.11888655 0.03918469 0.07611128 0.16044389 0.9806424 -0.120927796 -0.649812 0.034573413
0.59843874 0.47418746 -0.8047245 0.28171003 0.31565845 0.13379575 -0.8965646 0.29282767
-0.096392654 -0.47150415 0.42300183 0.008374354 0.2275681 -0.37573224 -0.14227404 -0.31056544
-0.17348829 -0.4358146 -0.09426714 0.4016121 -0.5707225 -0.35367355 -0.022473775 0.24124195
0.37202412 0.20235224 0.4585036 0.1403225 -0.04790906 -0.18179794 -0.85826135 0.681052
0.1014694 0.38335213 -0.43228853 0.12377884 -0.07491059 0.58550364 -0.0042149452 -0.35830396
0.33710775 0.58384824 -0.392703 -0.014132337 -0.020010607 -0.26020077 -0.12646508 0.27348015
0.031378295 -0.068907574 -0.43987226 -0.18330228 0.06367457 0.0485232 -0.28023604 0.09543836
00000000: 6ffb aebe 2b07 713e f8c2 d4bd 66db 5bbf
00000010: 7503 09bf 999d 33be 099d 903d d68d a8bd
00000020: 5379 4dbe 3111 8fbf 8137 2c3e 4b2e 673f
00000030: c200 cbbe 0420 65be 4cde 1f3f 7463 713d
00000040: 20a9 123e 881f 08bf 26b5 273c 0d2a 703c
00000050: f419 c23e 760a 65be 83d4 22bf e128 5c3e
00000060: f6ca 163d f904 41be 474c a5be 5290 243e
00000070: 5ff4 d0be 73e8 c0bc 5a8e bb3e 96f0 a4be
00000080: a041 d63d 3a0f acbf 1e44 2e3f 1ac8 05bf
00000090: 10c6 33be 5bd1 4cbe 1401 79be 8b35 42be
000000a0: 8399 413e b170 293f 6aca 91bd b07e a73e
000000b0: 9f52 af3e 4907 853e 832f 163e 7ab4 b43e
000000c0: 3b45 f53d 241a 85bd 5a8b 263f 8b21 86be
000000d0: 249f 0ebe 7e09 693f deda 103e ce3c bd3e
000000e0: f575 493f 4bf8 b4be efce 71be 8f87 60bf
000000f0: dccd c13e 121e 0e3f ec26 bebe 1936 cdbd
00000100: 681d cabe a207 aa3e a799 933e 9708 523d
00000110: c1e7 c5be 5568 843e 109b 7dbe a857 debd
00000120: 16e4 623f 730e 0cbe 7571 ebbe 772d aebe
00000130: 8e53 9a3e 124f c6bd 2641 b53e f95a 2e3f
00000140: 15cb c7be 52fd 32bc 1d77 d23d 1300 b6be
00000150: fa11 293d 117a 5abe f801 e2be c4b3 0b3d
00000160: 8bb1 823d 0788 aabd 3ff6 82be caa6 19be
00000170: 90a6 69bf 027e f43d e1c9 3f3e 303f b0be
00000180: ddde e43d fa80 623e b13f e1bd 529e 2d3f
00000190: e2a1 7f3e f7e9 17be c334 45be 6dfb d1be
000001a0: 7bf8 cebd 1c03 00be 3afd b53e 61a6 2ebd
000001b0: fc0d 663d a958 43bf 7ff1 2bbf 4d22 10bf
000001c0: fb1c b6be ef92 e0bd 78c7 a03e f0de 2b3f
000001d0: 08f6 943d 4c9b 18be 7be3 fdbe f073 e9be
000001e0: 30ed 803e 8550 1a3f 9ce7 e83e c762 2fbf
000001f0: 4d7d b8be 1930 1f3e 297b 26be 1a31 903d
00000200: 18da 0c3e d46a ea3e c632 03bf 3427 123f
00000210: dbb8 debd ab0e c83e 59b1 a9bc 475b c2be
00000220: a96d 01be 9404 b73e d210 013f 2540 9d3d
00000230: 2556 61bf e2c7 093e b483 393e 57ce 4d3f
00000240: 33e7 7ebe 820c e0be ae4e debe c611 df3e
00000250: 8d08 873e 481a 21be 90ae 3e3e 8002 6bbd
00000260: b476 15bf e02e 1ebe 2892 a13e e40b 50be
00000270: b9ef e63d a63c 33bf fcfb 523e b564 ac3e
00000280: 399f 863d 673a cfbc 4235 c23d 4cdf 1fbf
00000290: 116c a1bc 57ac 323e a47f 1bbe 544c b23e
000002a0: 9e53 abbe c51a a7be 5958 85bd 96bc 5b3d
000002b0: 0c68 873d 9610 23bf 00bc 22bf 5570 8fbe
000002c0: e22d f03e 1450 66bd b1f9 a4be 0286 3f3f
000002d0: a33b ea3e 0e44 5b3e 119f 373d 5ec1 d7bd
000002e0: e121 8e3e c0b8 073f 4642 a63e 9263 73be
000002f0: b6a0 0dbe 6b0c 28bf 8107 4b3f 5fd3 d13d
00000300: cb7a f33d 2080 203d 3be0 9b3d 674b 243e
00000310: 610b 7b3f fea8 f7bd 145a 26bf da9c 0d3d
00000320: 4833 193f b3c8 f23e 6d02 4ebf 4c3c 903e
00000330: fc9d a13e c101 093e 4285 65bf 82ed 953e
00000340: 8369 c5bd fe68 f1be b293 d83e 9634 093c
00000350: 9d07 693e fa5f c0be 49b0 11be 6f02 9fbe
00000360: eaa6 31be 1723 dfbe 210f c1bd 1aa0 cd3e
00000370: df1a 12bf b314 b5be ec1a b8bc 2108 773e
00000380: f279 be3e 6d35 4f3e fcc0 ea3e b4b0 0f3e
00000390: 4a3c 44bd 3d29 3abe 04b7 5bbf 6d59 2e3f
000003a0: 30cf cf3d bb46 c43e ec54 ddbe c37f fd3d
000003b0: b96a 99bd 91e3 153f 861d 8abb 9e73 b7be
000003c0: 6399 ac3e 1477 153f 5e10 c9be 518b 67bc
000003d0: 49ed a3bc 0939 85be 1080 01be 9705 8c3e
000003e0: 8786 003d 6a1f 8dbd f036 e1be 98b3 3bbe
000003f0: d067 823d 43c0 463d 197b 8fbe 3075 c33d

network_body._body_endoder.seq_layers.2.bias f4 [256]
0.044832814 -0.18491341 0.12300785 -0.100496694 0.11617026 0.0031998751 0.0007827473 -0.09916449
-0.034878746 -0.105987705 -0.20788862 -0.24222931 -0.010557507 -0.15131713 -0.10909958 -0.06297671
0.023132972 -0.02194646 -0.045638025 -0.06865882 -0.16218531 -0.10896432 -0.057270296 -0.08665281
-0.16684967 0.07310735 -0.03866062 -0.1141729 0.14874443 -0.015668811 -0.0077878614 0.14946632
-0.04964881 -0.14791636 0.03863349 -0.04355642 0.09187795 -0.09804873 -0.24180989 0.04146955
0.07161282 -0.021236386 -0.08722068 0.06155915 0.07022845 0.012845931 -0.04059012 -0.119220525
-0.048740998 -0.22358862 -0.10910067 -0.2160187 -0.06999153 -0.023202186 0.016392285 0.0209336
-0.06685111 0.033546742 -0.007309929 -0.043105274 0.04439619 -0.14920732 -0.1547774 0.005616832
-0.17892827 0.02210197 -0.08419946 0.02314993 -0.06511912 0.0052904566 -0.08298774 -0.12538601
-0.06778353 -0.02455055 -0.14724717 -0.1741643 -0.20126708 -0.20592108 0.09720039 -0.052202262
-0.11604146 -0.06022309 -0.14888701 -0.1959419 -0.09836198 -0.04376379 -0.028278492 -0.20854071
0.016749803 0.09239391 -0.011728119 0.024473418 0.005808928 -0.02985631 -0.060088307 -0.06498698
-0.12243777 -0.09850167 0.0334341 -0.14375085 0.10476676 -0.0030610745 0.027365578 -0.11055078
0.067816176 -0.084956296 0.11719765 -0.048270676 -0.12967567 -0.17312667 -0.10875595 -0.041055866
-0.027262231 -0.013924683 -0.058104828 -0.012644378 0.015650144 0.008678904 -0.12794554 -0.08486973
-0.12697794 0.1648312 0.009650028 -0.02753671 -0.072423995 -0.042796925 -0.12983859 -0.031383358
-0.14689447 -0.043930747 0.011191925 -0.059586015 0.021458173 -0.10015079 0.011630912 -0.040574294
0.05464922 0.0021460075 0.02714938 -0.1233962 0.07322364 -0.05036616 -0.1440556 -0.1628903
-0.0077236737 -0.03332162 0.0041122083 0.029592302 -0.11001336 -0.14346892 -0.163398 0.10112281
-0.07945638 -0.018722465 -0.009858921 -0.07409048 0.14398663 -0.04961467 -0.11529099 -0.065820694
-0.022043142 -0.22468148 -0.091223806 0.009800833 -0.15055987 -0.054268252 -0.08329056 -0.04840667
-0.025464669 -0.21902756 -0.044270493 0.06795588 -0.020080952 -0.03681607 -0.1530406 -0.12087155
-0.19213533 -0.13849962 -0.06435076 0.10957974 -0.11330932 0.09117902 -0.04553161 -0.06357353
-0.107713446 -0.034985334 -0.109041624 -0.1884852 0.085549906 -0.10746935 -0.07181138 -0.020395461
-0.19086887 -0.13320985 -0.046621814 -0.037800133 -0.07853983 -0.17804006 0.14211896 -0.016370034
-0.16360626 -0.07864491 -0.07713048 -0.16270241 -0.03455882 -0.0053199874 -0.012873676 0.08931686
-0.09993102 -0.08502754 -0.04413191 -0.21481974 -0.016372913 -0.13696153 -0.023291552 -0.13217042
-0.061426718 -0.04805351 -0.04434427 -0.061320033 -0.1674258 -0.07253241 -0.031527396 -0.18399002
0.0967271 -0.17060435 -0.12717375 0.060469087 -0.036500275 -0.061558437 -0.15791611 -0.21063948
0.0067973756 -0.06614038 -0.21414329 0.039222617 -0.025035227 -0.05336676 -0.042476635 -0.037748672
-0.07216108 0.027317662 -0.1312432 -0.017169252 -0.15757827 0.053612508 -0.008368384 0.18535243
0.013056433 -0.036871202 -0.10480293 0.044932287 -0.03296935 0.019669965 -0.0724267 -0.08694131
00000000: 9da2 373d f159 3dbe 8aeb fb3d 36d1 cdbd
00000010: acea ed3d ffb4 513b 4831 4d3a c116 cbbd
00000020: 04dd 0ebd 1510 d9bd c1e0 54be f60a 78be
00000030: 65f9 2cbc e1f2 1abe 9a6f dfbd eff9 80bd
00000040: 5c81 bd3c 10c9 b3bc f0ee 3abd ff9c 8cbd
00000050: e813 26be af28 dfbd 4294 6abd 0777 b1bd
00000060: a4da 2abe 4eb9 953d 995a 1ebd 7bd3 e9bd
00000070: 7650 183e e15b 80bc 5131 ffbb b30d 193e
00000080: 8d5c 4bbd 6377 17be 273e 1e3d 3768 32bd
00000090: 822a bc3d c6cd c8bd 039d 77be fadb 293d
000000a0: bea9 923d eef7 adbc c2a0 b2bd 7325 7c3d
000000b0: efd3 8f3d bd77 523c d341 26bd e429 f4bd
000000c0: a4a4 47bd 6af4 64be 2c70 dfbd 0234 5dbe
000000d0: b857 8fbd 8312 bebc 1d49 863c f17c ab3c
000000e0: 3ce9 88bd 4f68 093d 2188 efbb 288f 30bd
000000f0: c8d8 353d cec9 18be f77d 1ebe 670d b83b
00000100: f938 37be 310f b53c c470 acbd eca4 bd3c
00000110: 2c5d 85bd 915b ad3b 7af5 a9bd 3165 00be
00000120: 17d2 8abd 3c1e c9bc f6c7 16be 2058 32be
00000130: f518 4ebe fadc 52be 0011 c73d 0ad2 55bd
00000140: 25a7 edbd 7dac 76bd d675 18be fea4 48be
00000150: 0172 c9bd a941 33bd 4ca8 e7bc b28b 55be
00000160: e236 893c 0539 bd3d 4c27 40bc 7a7c c83c
00000170: d258 be3b 3895 f4bc 281f 76bd e517 85bd
00000180: a7c0 fabd 3ebb c9bd 32f2 083d 6c33 13be
00000190: f48f d63d 4f9c 48bb c72d e03c 7368 e2bd
000001a0: 35e3 8a3d 91fd adbd 5205 f03d 79b7 45bd
000001b0: b3c9 04be 1e48 31be 71bb debd 322a 28bd
000001c0: 0b55 dfbc 5b24 64bc 54ff 6dbd 5d2a 4fbc
000001d0: bb34 803c f631 0e3c 2804 03be 2ed0 adbd
000001e0: 8106 02be 83c9 283e 271b 1e3c ab94 e1bc
000001f0: 0853 94bd d44b 2fbd 68f4 04be d68b 00bd
00000200: 816b 16be baf0 33bd 565e 373c 7710 74bd
00000210: 0dc9 af3c db1b cdbd 958f 3e3c 3b31 26bd
00000220: dcd7 5f3d 08a4 0c3b 6068 de3c 26b7 fcbd
00000230: 47f6 953d bf4c 4ebd 5083 13be b7cc 26be
00000240: df16 fdbb 407c 08bd b4bf 863b 8e6b f23c
00000250: af4e e1bd 84e9 12be ce51 27be 7a19 cf3d
00000260: 07ba a2bd db5f 99bc 5087 21bc c0bc 97bd
00000270: 3b71 133e c138 4bbd af1d ecbd 00cd 86bd
00000280: d293 b4bc e712 66be 8cd3 babd ac93 203c
00000290: 5e2c 1abe 6348 5ebd 3e94 aabd 1346 46bd
000002a0: 489b d0bc c348 60be fa54 35bd 742c 8b3d
000002b0: cf80 a4bc 73cc 16bd adb6 1cbe 818b f7bd
000002c0: 20bf 44be d8d2 0dbe 55ca 83bd 586b e03d
000002d0: b70e e8bd 11bc ba3d 5a7f 3abd d732 82bd
000002e0: de98 dcbd c84c 0fbd 3751 dfbd 4402 41be
000002f0: ca34 af3d e418 dcbd d811 93bd 6214 a7bc
00000300: 2173 43be 2a68 08be 84f6 3ebd 50d4 1abd
00000310: 7ed9 a0bd 2250 36be a287 113e 731a 86bc
00000320: 6688 27be 9510 a1bd 96f6 9dbd 769b 26be
00000330: 8d8d 0dbd 4a53 aebb 1cec 52bc c2eb b63d
00000340: a2a8 ccbd eb22 aebd a9c3 34bd b5f9 5bbe
00000350: 7d20 86bc a53f 0cbe edcd bebc af57 07be
00000360: 959a 7bbd c2d3 44bd 56a2 35bd b72a 7bbd
00000370: ab71 2bbe df8b 94bd df22 01bd e167 3cbe
00000380: dc18 c63d e8b2 2ebe d639 02be 6fae 773d
00000390: 5081 15bd b324 7cbd c3b4 21be e0b1 57be
000003a0: 85bc de3b 9c74 87bd 6148 5bbe e5a7 203d
000003b0: ad16 cdbc 1b97 5abd fbfb 2dbd 5a9e 1abd
000003c0: 30c9 93bd 4ac9 df3c 9e64 06be 88a6 8cbc
000003d0: 335c 21be ca98 5b3d 8c1b 09bc 07cd 3d3e
000003e0: a6ea 553c 4206 17bd eba2 d6bd eb0a 383d
000003f0: df0a 07bd e822 a13c 7354 94bd 490e b2bd
