Assets/Models/VolleyballModel_melonietr.onnx (onnx, 291545 bytes, 15 tensors)

92 f4 [11]
000000 68 76 a1 3e 49 a8 3f 3e e5 ce 95 3e 60 f9 c9 3e
       0.3153565 0.1871654 0.2925941 0.3944807
000010 62 01 ac 40 2d 5f 66 40 9d 29 f7 40 ba f4 80 40
       5.375169 3.599559 7.7238297 4.029874
000020 ad bb 18 41 21 a0 e3 40 18 ac 4e 40
       9.545819 7.113297 3.2292538

action_model._discrete_distribution.branches.0.bias f4 [3]
000000 11 2e 59 3d d0 f9 9e bc d8 39 e4 bc
       0.053022448 -0.01940623 -0.027859613

action_model._discrete_distribution.branches.0.weight f4 [3, 256]
000000 ef 41 eb 3c f3 ee 4f bd 5a a4 26 3c da 60 ed bc
       0.028717963 -0.05076499 0.01017102 -0.028976846
000010 65 3c 97 bd 8f 14 9c 3d 94 98 3b 3d 2d c5 47 bc
       -0.07384566 0.07621109 0.045799807 -0.012193006
000020 5e 21 8d bd de 7e 80 bd 1a ea 78 3e 8e 27 6e 3d
       -0.0689113 -0.06274198 0.24308053 0.05814319
000030 a8 d0 b1 3c db 20 dc bd bf 51 dc bd 43 e2 31 3d
       0.02170594 -0.10748454 -0.10757779 0.04342867
000040 0e a4 81 3c eb a2 ad 3d 07 e3 94 3c ee 06 df bd
       0.015825298 0.0847834 0.018174661 -0.108899936
000050 6a ae 5d bc cb 28 8c 3d 5d f8 36 bd ca c3 c2 3e
       -0.013530353 0.06843718 -0.04467045 0.3804
000060 78 17 13 3e 9c 80 85 3d 8a dd 31 3d 7e 5c 9c 3c
       0.14364421 0.06518671 0.043424167 0.019087072
000070 b7 ef 47 bd f8 56 c9 3c d2 d1 3f 3d 84 40 17 3d
       -0.048812594 0.024577603 0.04683096 0.03692676
000080 d5 7b 76 bd 81 ae 95 bd 65 3b 07 3e a1 72 ad bd
       -0.06017669 -0.073086746 0.13206251 -0.08469129
000090 e3 b5 5a 3c 95 36 07 3e 83 c2 12 be 22 ee ed 3c
       0.013349029 0.13204415 -0.14332013 0.029044215
0000a0 e6 f7 28 3d ed 07 6c 3d 4a 79 4b 3d 9b 99 b0 bd
       0.04125204 0.057624746 0.049676217 -0.08623048
0000b0 1e b9 1d be 31 fc 06 b8 6d 8b b6 3d e9 82 05 3e
       -0.15402648 -3.218296e-05 0.08913312 0.1303822
0000c0 8b e3 57 3e a6 8c 4f be a7 3b 4a bd 44 23 f2 3d
       0.21082895 -0.20268497 -0.049373295 0.11823133
0000d0 5c 7c 27 3b ef 90 bd 3c b7 c0 ca bd 48 bb c2 3d
       0.0025556302 0.023140399 -0.09900039 0.09508377
0000e0 42 56 05 3e b7 e0 1a 3e 0d db 46 bd 5f fb f3 3d
       0.13021186 0.15124784 -0.048548747 0.119131796
0000f0 bf ec 33 3d f4 92 8e bd 9a ef 90 bd aa 75 30 3c
       0.04392695 -0.06961623 -0.0707695 0.010770241
000100 4f 89 5b bd 3e 5e 50 3d 7c b9 82 3d 11 d8 1a bb
       -0.053597745 0.050871126 0.063830346 -0.002362732
000110 eb ed 00 3d a4 b0 82 3d 15 83 d4 bc 2c 6b 00 3d
       0.031476896 0.06381348 -0.025941411 0.031352207
000120 b6 6b 90 3d b4 ff 21 bd d7 ee 0f 3e b4 20 7f bd
       0.07051794 -0.039550498 0.14055954 -0.062287048
000130 d5 6e fb 3d 96 d9 31 be 16 c2 54 bd 32 53 0e be
       0.12276999 -0.17368159 -0.051942907 -0.13898924
000140 c3 e8 11 3d 2d a0 02 be 3a 33 3a 3e be ea f8 3d
       0.03562237 -0.12756415 0.18183604 0.121541485
000150 7f c7 33 bd e4 60 4c 3e be d2 15 3e 2d c7 10 3c
       -0.043891426 0.19958836 0.14631173 0.00883655
000160 58 90 c4 3b 1b f8 83 3d a5 c7 4e bc cf b1 e6 3c
       0.0059986524 0.06443807 -0.012620841 0.028160958
000170 18 58 0c 3e 49 a5 89 3b c4 72 9f 3c 78 6b 93 3c
       0.1370548 0.0042006117 0.019463904 0.017995581
000180 ba ab 22 3d 44 2c 53 3d 1e c7 2a bd a6 7f cc 3c
       0.039714552 0.051555887 -0.0416938 0.024963211
000190 80 d6 f7 3d 7c f5 51 3d fb 45 dc 3c 35 6b 28 3c
       0.121014595 0.051259503 0.026888838 0.010279466
0001a0 cb 17 f4 bc 12 4a b3 bc 97 65 9c 3d c7 c0 dd 3b
       -0.029796502 -0.021885905 0.07636564 0.0067673656
0001b0 84 d1 46 3c 11 d5 f6 bd 20 b5 53 bc eb 29 12 3d
       0.012134913 -0.12052358 -0.0129216015 0.035684507
0001c0 ff 1b ce 3d 11 43 8a bd ad 41 2d bd 5b ee 75 bd
       0.100639336 -0.06751073 -0.04229896 -0.060041767
0001d0 a3 e5 45 be 82 9a 8c 3d da 9f 68 be c2 cd d9 bc
       -0.1932588 0.068654075 -0.22717229 -0.02658737
0001e0 a7 c1 f7 bd 3c ea 7b bc 70 a1 3d bd 5b 04 ba bc
       -0.12097483 -0.01537567 -0.046296537 -0.022707155
0001f0 ca d9 38 3d 79 49 e0 3c ce 21 7b bd eb e8 71 3d
       0.045129575 0.027378784 -0.061311536 0.05906002
000200 3d 1f 1d be 09 3c 07 be 4d 02 e1 bd d7 b1 cf bd
       -0.15343948 -0.13206495 -0.10986767 -0.10141342
000210 bb e3 9d 3c 25 9e 04 3d 2b 5c 2f 3e fc 1d 71 bb
       0.01927363 0.03237738 0.17125003 -0.0036791554
000220 ec c8 4c bd 81 d0 02 3a 71 78 33 bd 9d 11 04 3e
       -0.0499963 0.0004990176 -0.043816034 0.12897344
000230 06 cc d6 3c be 90 b3 bd 2b 6d 98 bd b5 f4 25 3e
       0.026220333 -0.08767842 -0.07442697 0.1620663
000240 12 6b 37 3e a9 e4 4c be 80 af 8d 3d f9 be 1e 3e
       0.17911938 -0.20009102 0.069182396 0.15502538
000250 a7 84 eb 3d 6e 8c 0c be 05 16 4a 3b df 79 46 3c
       0.11499911 -0.13725445 0.0030835879 0.012114017
000260 3e 67 53 be 70 50 d6 bd 27 ff bf bd 9b bd e9 3d
       -0.20644853 -0.10464561 -0.09374838 0.114131175
000270 fd b3 2b 3d 76 3f f4 3d f8 79 5a 3e e1 b4 64 bd
       0.041919697 0.11926167 0.2133559 -0.055836562
000280 88 83 00 be ff f8 d0 bd a0 39 d7 3d 9b 5b 4a 3d
       -0.12550175 -0.10203742 0.10509038 0.049403768
000290 ce c4 8c 3e bc 16 3b 3e 7a de 3f bb 29 3a dd 3c
       0.274939 0.18270391 -0.0029276893 0.027005272
0002a0 e1 61 6b bd 02 b9 0e be 3c 29 13 3d 2b b4 68 3d
       -0.05746639 -0.13937762 0.035927996 0.056812447
0002b0 e1 30 a2 3d 64 84 d2 bc d3 c0 a6 bd c3 50 54 3d
       0.07919479 -0.025697894 -0.08142247 0.051834833
0002c0 ac c5 2d 3e 77 0f d1 3d e0 30 63 bc a7 aa 2a 3e
       0.16969937 0.10208028 -0.013866633 0.16666661
0002d0 4f 7d 87 bd 9b 98 bd 3c 01 72 76 bd e2 1b 88 bd
       -0.066156976 0.023144057 -0.060167316 -0.06645943
0002e0 1d 56 32 3b d1 4d b4 bb b5 c9 2b bd 9f 4b b0 3d
       0.0027211972 -0.0055024405 -0.04194041 0.086081736
0002f0 e3 78 0a bd 15 fe 8b ba 87 b5 1c bd 05 ab 51 bd
       -0.033806693 -0.0010680581 -0.038259055 -0.051188488
000300 de af ee bd 52 1c ff 3c 0e ba ee 3c e9 22 2f 3e
       -0.11654638 0.031141434 0.029141452 0.17103161
000310 8f ef 31 3e fc cb 94 bc 4d 93 99 3c b9 3a 48 3d
       0.1737654 -0.018163674 0.018746996 0.048884127
000320 cc 25 94 bd 6b 29 fe 3c e0 fe 23 3c 2d 89 ef bd
       -0.07233772 0.031025609 0.010009497 -0.11696086
000330 eb 10 75 3c 63 07 19 3d c8 8f 26 be e5 b2 fe bd
       0.014957647 0.03736056 -0.16265786 -0.12436465
000340 97 59 a5 3c a3 e7 a5 bc f5 d1 a4 3c 0f 49 31 3e
       0.020184321 -0.020252055 0.020119647 0.17313026
000350 d4 e3 bd bd 6b af 83 bd 80 60 56 bd fb 52 4a 3e
       -0.092719704 -0.06429943 -0.052338123 0.19758217
000360 a5 52 26 3e e9 22 ac 3b 11 33 93 3d 74 64 41 bc
       0.16242464 0.005253185 0.071874745 -0.011803735
000370 c9 5a 99 bd 61 a7 02 3c ee 5e 5a 3d 1a a1 a7 3d
       -0.07488019 0.007974477 0.05331319 0.081850246
000380 ea 2f 97 3c 7a f1 68 be ff e4 f6 bb ee 59 47 bd
       0.018455464 -0.22748366 -0.0075346227 -0.048669748
000390 be 77 f9 3c 37 a6 4b bd 25 fb 2b 3c c6 aa 7d be
       0.030452605 -0.04971906 0.010496889 -0.24772176
0003a0 c3 39 56 3d e4 59 5b bd 27 e9 02 be 22 9f bc 3d
       0.05230118 -0.053552523 -0.12784253 0.0921004
0003b0 f6 76 ee 3c fe 39 d3 3d b9 c1 8b 3d d5 6b 53 be
       0.02910946 0.103137955 0.06824059 -0.20646603
0003c0 93 4c ed 3a 25 23 9b 3c 69 90 18 3d b0 5b a7 bd
       0.0018104486 0.018937657 0.037247095 -0.08171785
0003d0 85 01 52 3c 16 0f 55 be 46 fd 78 3d 55 6b c5 3c
       0.012817745 -0.20806536 0.060788415 0.024099031
0003e0 35 8e 67 bd 70 2b 6c bd 94 1a 96 3d 18 e4 8c 3c
       -0.056532104 -0.057658613 0.07329288 0.017198607
0003f0 6d 18 6c 3b bd cb 28 be 34 48 be 3b 12 d2 87 bd
       0.00360253 -0.1648397 0.005806947 -0.066318646

action_model._discrete_distribution.branches.1.bias f4 [3]
000000 5f 8f 67 3c bb 04 49 bd 1d a6 30 3d
       0.014133303 -0.049076777 0.043127168

action_model._discrete_distribution.branches.1.weight f4 [3, 256]
000000 ce 45 cb 3c a1 69 0c be ca 7b 96 bc 20 a1 8f bc
       0.024813559 -0.13712169 -0.018369574 -0.017532885
000010 7c 84 bd 3c ae 58 ef 3d fb 0d 31 bc 7f 7a 8e 3c
       0.023134463 0.11686836 -0.010806556 0.017392395
000020 24 3b d5 3c 45 65 b6 bc 52 c2 00 3e ac f0 2e 3d
       0.026029177 -0.022265086 0.12574127 0.04270999
000030 b7 4e 96 3c 87 73 85 bc 7b 63 d4 3d e2 ec 43 be
       0.018348081 -0.01629044 0.10370537 -0.19133332
000040 d3 49 d1 3b be 3a 46 bd b1 9e 15 3e 02 dd 8b bd
       0.0063869744 -0.048395865 0.14611317 -0.06829263
000050 84 90 09 bd 58 13 14 be af 44 80 3d 2e 33 b6 3d
       -0.033585086 -0.14460504 0.062631 0.088964805
000060 2a e8 df bc 87 6a d3 3c 95 01 d8 bc dc 3b a9 bd
       -0.027332384 0.025807632 -0.026367942 -0.082633704
000070 88 7c 2e 3c 0a 3e a9 3c 35 6d b8 bd 15 21 2c 3d
       0.010649808 0.020659465 -0.090052046 0.042023737
000080 84 70 a9 bc 7c 9b 49 bd 56 21 56 bd b1 31 90 bd
       -0.020683534 -0.049220547 -0.052277885 -0.07040728
000090 d5 bf 95 3d b9 bf 21 3d 01 e0 73 3c b1 e9 4a 3d
       0.0731198 0.03948948 0.01488495 0.04953927
0000a0 eb 76 9f 3d 4a 4f 99 bc ca f9 8c 3d 6e 0c 44 bb
       0.07786354 -0.018714566 0.06883581 -0.0029914635
0000b0 e9 ea 08 3d f1 b3 a4 bd c6 5b c9 bd d9 c6 58 bd
       0.033427153 -0.080421336 -0.098319575 -0.05292401
0000c0 54 fa 0d 3e 2d 28 8b 3d 2d 9a 8c bb d9 fd 53 3e
       0.13865024 0.06794772 -0.00429084 0.20702304
0000d0 4c 17 23 be db d9 bd 3c 98 c2 a7 bc 68 47 2a bd
       -0.15926856 0.02317517 -0.020478532 -0.041572005
0000e0 d7 4f 30 bd a9 a3 8c 3c c0 7e f6 bc 37 cc 71 bc
       -0.04304489 0.017167883 -0.030089736 -0.014758161
0000f0 7c 86 27 bc 9b 84 ee 3d 7c 5a 6c 3d ae d7 9b bd
       -0.010224935 0.11646386 0.05770348 -0.07609497
000100 ba de 52 be 55 30 4a 3d f5 3e a4 bd de 87 46 3d
       -0.20592776 0.0493625 -0.080198206 0.048469417
000110 45 89 12 3d 6f 45 c2 3c e8 c0 ba 3c 2e aa 78 3d
       0.03577544 0.02371475 0.022797063 0.06070917
000120 55 4e ca bd 70 ec 23 3c 73 d7 a2 3d e0 d2 76 3d
       -0.09878222 0.010005102 0.0795125 0.0602597
000130 de 59 79 bc 19 d9 47 3d 46 c8 21 bc b4 f5 16 bd
       -0.01521918 0.048791025 -0.009874409 -0.036855415
000140 2f 7f 39 bd 0e 19 71 bc ba 23 0c 3e 80 71 c0 3c
       -0.045287307 -0.014715446 0.13685504 0.023491621
000150 d3 23 80 3d b8 61 8e 3c 4a 3f bf bd 22 59 ce 3d
       0.06256833 0.01738058 -0.09338243 0.100755945
000160 1b 56 24 bb 60 82 6c 3c 72 88 33 3b fb 07 81 bc
       -0.0025075737 0.014435381 0.002739456 -0.015750876
000170 8d 14 97 3c 9d 1d 9f 3d 96 76 33 3d 79 33 ca bb
       0.018442417 0.0776932 0.043814264 -0.006170687
000180 b0 d4 70 bd b7 47 ca bd 5d ba 4c 3d 54 0c a5 3d
       -0.058796585 -0.0987696 0.049982417 0.08058992
000190 9c 68 fd bc 4a d4 ee 3c 75 c0 da bc 8b b6 46 3d
       -0.03093367 0.029153962 -0.026703099 0.04851393
0001a0 03 c5 c7 3c cf 46 db bc 0b 6a 54 3d f8 99 46 3c
       0.024385935 -0.026767163 0.051858943 0.01212167
0001b0 c3 89 0f bb be d1 d3 3c 56 51 2c 3e 9d 00 92 3c
       -0.002190218 0.025856849 0.16827902 0.017822558
0001c0 7d e2 21 3c 72 e5 8c bc ab ea 21 3c d1 2a 23 bd
       0.009880659 -0.017199252 0.009882609 -0.039835755
0001d0 8b a8 1e bd 94 29 5e 3c 35 da 1c bd 8c d6 f5 3c
       -0.038734954 0.013559718 -0.038294036 0.03000953
0001e0 7e 1d e9 bc 69 41 ae 3c 69 ae a7 bc 08 8f d4 bd
       -0.028456446 0.021271424 -0.020468907 -0.103788435
0001f0 1f d4 57 bc 05 c1 10 3d dc 6e 84 bd 6d f7 56 bd
       -0.013173132 0.035340328 -0.06466457 -0.052482057
000200 50 f0 7c 3d 25 7f 9b bd cb 1a ef bc bb ff b3 bc
       0.061752617 -0.0759261 -0.02918758 -0.021972528
000210 d6 f7 35 be dd d0 54 bc 4f a8 00 3c 0e 39 0e 3d
       -0.17770323 -0.01298925 0.007852628 0.03472238
000220 31 81 82 3d f1 c8 ba bc a6 d0 29 3c 3d d3 a1 38
       0.063722976 -0.022800894 0.010364687 7.7164244e-05
000230 82 4f 3b 3d b2 45 a1 3c a4 85 a9 3c f7 c7 50 3d
       0.04573012 0.019686554 0.020693608 0.05097195
000240 60 62 70 bd 8c 79 db 3c 96 26 18 bd bf e9 33 3d
       -0.058687568 0.026791357 -0.037146173 0.04392409
000250 36 7b b1 bd 99 e5 97 bc 5f 0c 54 3b 50 86 a8 3d
       -0.08666079 -0.018542098 0.0032356007 0.08228743
000260 67 98 36 3e c9 1d e8 3d 44 4b 24 be 53 9d 7a bd
       0.17831574 0.11333806 -0.16044337 -0.061185192
000270 51 3f 31 bc 94 05 c0 3b 94 6d 5c 3d 57 73 41 bd
       -0.010818318 0.00586004 0.05381544 -0.047229137
000280 e4 de e3 3d dc 6b b6 3b 74 ea 26 3d 2b e2 6c bd
       0.111264974 0.005567057 0.040750936 -0.057832878
000290 f0 fe 2c bd c2 ef 93 3d 48 ff d2 bc 58 fb 22 be
       -0.042235315 0.072234645 -0.025756493 -0.15916193
0002a0 eb 29 8f 3d 97 73 7a 3c bc 47 ea 3c e8 dc 4b 3b
       0.06990417 0.015286348 0.028598659 0.0031107012
0002b0 8b 08 03 3d cb ef 74 bd 38 42 3e bc f2 72 02 bd
       0.03199057 -0.059798997 -0.0116124675 -0.0318479
0002c0 a2 0e 0a 3e 55 94 29 bd 20 4f 99 bd b5 5c 7b b9
       0.13482144 -0.041401226 -0.07485795 -0.00023971761
0002d0 ca dd 8a 3d 80 0b d1 3c f1 17 93 3d 08 de 0f be
       0.06780584 0.025518179 0.07182301 -0.14049542
0002e0 27 51 64 bd da b4 51 bd a3 4d 01 bd 99 f3 a1 bc
       -0.055741455 -0.051197864 -0.03156818 -0.019769477
0002f0 1d 1a 87 3c fc 9a 7f 3c 6e bc c6 bd c7 b7 2e 3c
       0.016491944 0.015600916 -0.09703909 0.010663933
000300 e9 6e 5a bd b8 eb 6d 3d ff c7 d3 bd f7 d7 6a bc
       -0.05332843 0.058086127 -0.103408806 -0.014333717
000310 99 9c 5a bd 92 61 38 3d 77 45 cd 3c c4 47 0c be
       -0.053372 0.045014925 0.025057537 -0.13699251
000320 3a 97 d7 3d b3 38 b8 bd d8 aa ee 3d d9 5b f0 3c
       0.10526891 -0.089951895 0.116536796 0.029340671
000330 e0 60 90 bc ec ba 4b 3d ef bf 9a bd 83 d0 95 3c
       -0.017624319 0.04973881 -0.0755614 0.018287903
000340 1d 8f 82 3c 24 d6 d6 3c 75 87 a8 3c 88 2c b2 3e
       0.015937382 0.026225157 0.020572403 0.347996
000350 21 ed 8f 3d 61 cc 72 3d 67 b4 df bc a0 04 3b bd
       0.070276506 0.059276942 -0.027307702 -0.045658708
000360 d6 e9 4d 3d 77 68 25 be 0f 01 6d 3d ce c1 a3 3c
       0.05027183 -0.16153131 0.057862338 0.019989874
000370 6c b6 53 be 30 91 09 bd 0c b8 00 be 7d 5d 07 3d
       -0.20675057 -0.033585727 -0.12570208 0.03304814
000380 5d 15 90 bc 67 1d 03 3e a6 97 27 3d 0b 4e 32 3d
       -0.017588312 0.12804185 0.040916108 0.04353146
000390 d3 50 7e 3c 25 0a 2c bd af 9c 62 3d d8 ba 6a bb
       0.0155222 -0.042001862 0.055325206 -0.0035816934
0003a0 38 9e 2a 3d 04 4f 43 bd ad d7 8e bd 38 da 5c 3c
       0.041654795 -0.047682777 -0.06974731 0.013479762
0003b0 e0 3c 8c bd 7e 80 e0 3d 2d 4f 0c bc 65 35 32 bd
       -0.068475485 0.10962008 -0.008563799 -0.043507952
0003c0 42 9f 5f bc ae da 6a 3d 62 26 9d bb 4a ef 9e 3b
       -0.01364881 0.057337455 -0.0047958354 0.004850303
0003d0 b0 15 ae 3c 4e 67 3d bc f0 23 0b be 19 a9 ff 3c
       0.021250576 -0.011560274 -0.13587928 0.031208562
0003e0 50 87 24 bd 15 20 48 bd c5 ce 57 3c 9d 4e b0 bb
       -0.040168107 -0.04885872 0.013171856 -0.005380465
0003f0 0b f5 0f bc 31 86 df 3c 0d f0 17 3d c9 fa 71 3d
       -0.00878645 0.027285667 0.037094165 0.059077058

action_model._discrete_distribution.branches.2.bias f4 [3]
000000 e4 64 b5 3d c8 f5 7d bc 28 64 98 bd
       0.08857134 -0.015500493 -0.07440978

action_model._discrete_distribution.branches.2.weight f4 [3, 256]
000000 22 cd f9 3c 51 eb dc 3c 9e fb e9 3d ed c4 cf bd
       0.030493323 0.026967676 0.11424945 -0.101449825
000010 07 1a fb 3d 04 da 8a bc 1c ab 86 be 7b 10 90 bd
       0.12260824 -0.016949661 -0.2630242 -0.070343934
000020 ae fb df 3d 9c 9d 58 3e 03 53 d7 bd 03 81 3c bd
       0.10936676 0.21153873 -0.1051388 -0.046021473
000030 b4 21 d4 3d 3b 97 10 3e 9f 55 12 3e 25 67 e9 3d
       0.10357991 0.1412019 0.14290474 0.113966264
000040 3b 4f 18 3c 9b 35 d3 3d e1 56 68 3d fb 01 92 bd
       0.009296234 0.10312959 0.05672348 -0.07129284
000050 33 ba 96 3b 0d 35 5b be 64 f8 53 3d 0a 95 50 be
       0.0045998334 -0.21406956 0.051750556 -0.20369354
000060 e3 73 19 be fa b7 9b 3d 34 cf 53 3e 90 96 c0 bd
       -0.14985614 0.0760345 0.2068451 -0.094037175
000070 0d e8 55 3d c6 bd 77 3d 32 41 35 3c 47 de 86 3c
       0.052223254 0.060483716 0.011062907 0.016463412
000080 08 63 2e bd e7 08 bd bd 35 80 15 3c f4 9a d7 3e
       -0.042574912 -0.092302136 0.009124805 0.42110407
000090 98 9b 8f 3d 80 06 ff bd ae 3f 8d 3e ff ca fa bc
       0.07012099 -0.12452412 0.27587646 -0.030614374
0000a0 bb f3 ad 3d ad 1f 87 be 3b e3 95 be 91 62 d6 3d
       0.084937535 -0.26391354 -0.29274926 0.10468019
0000b0 dd 8f eb 3d 0e 53 ad bd 89 d8 22 be 29 8b 7d bd
       0.11502049 -0.08463107 -0.15902914 -0.06190029
0000c0 79 6a a7 be 96 d9 fd 3d 37 58 f0 3d 8c e2 53 be
       -0.3269842 0.12395017 0.11735576 -0.2069189
0000d0 c8 88 5b be 2e 5e 29 bc 72 e1 8a 3c b6 e3 4f bd
       -0.21438897 -0.010337396 0.016953204 -0.05075427
0000e0 18 c7 13 be ea bb 18 be 7b f0 7a bd d5 46 96 bc
       -0.14431417 -0.14915434 -0.061264496 -0.018344322
0000f0 5b 7b 75 bd 49 c4 0b be 13 e5 65 3c 74 a5 8f 3e
       -0.059932094 -0.13649096 0.014031666 0.28055918
000100 25 ee c4 3c b0 6b 47 be 95 5a 33 be b7 71 c2 3d
       0.024039337 -0.19474673 -0.17515023 0.09494346
000110 65 c8 6c 3c 50 70 74 be 87 f0 26 3e 19 de 3a be
       0.014452075 -0.23870969 0.16302691 -0.18248786
000120 c7 8e 0a bd f2 58 04 3f 7c bb ee bd 06 22 44 3e
       -0.03382757 0.5169822 -0.116568536 0.19153604
000130 e0 9d 26 be 87 b8 5b 3d 55 9d f6 3d b1 0e 45 ba
       -0.16271162 0.053642776 0.120417275 -0.0007517143
000140 47 0e a2 3d 02 19 a0 3e 31 17 4b be 0a 99 c7 bc
       0.079128794 0.3126908 -0.19833066 -0.024364967
000150 5d 9f 20 3d 94 55 e2 3d 04 5b 3e 3c e2 a2 50 bd
       0.03921448 0.11051479 0.0116183795 -0.050936587
000160 27 a4 e5 3d 9f b6 63 bc f4 72 83 3c be b6 0f bd
       0.1121295 -0.013898521 0.016046025 -0.035086386
000170 6e a1 10 3d 61 17 48 3e 60 93 29 3d 18 a5 25 3d
       0.0353102 0.19540168 0.041400313 0.04044065
000180 74 aa 9e 3d 31 6d 8a bd 90 8b 8f bd 8d f4 0f be
       0.07747355 -0.06759108 -0.07009041 -0.14058132
000190 f8 79 93 3d 9c 28 10 3d 2b 30 98 3b 62 62 00 3e
       0.07200998 0.035194978 0.004644414 0.1253753
0001a0 13 bf 35 bd b6 2f ab 3d 2f 9b 8c 3b 7e cd 63 bd
       -0.044371676 0.083587095 0.0042909603 -0.055615894
0001b0 48 ae a6 3b 21 2f 45 be 09 77 c9 bc 09 4b d2 3d
       0.005086694 -0.1925626 -0.024592893 0.10268218
0001c0 93 91 b2 bd f5 6d 28 bc e4 ca 37 3d 88 f2 a5 bd
       -0.08719172 -0.010280122 0.044871226 -0.081029
0001d0 3b e8 a9 be fe a7 c9 bd 8a f4 e0 3e 6b 01 44 3d
       -0.3318499 -0.09846495 0.43936568 0.047852915
0001e0 9e 6f 04 bd 5c 8f bf 3d 3f 46 af 3d 53 91 3c 3e
       -0.03233301 0.093535155 0.0855832 0.18414812
0001f0 f3 7f 74 3d ee d5 76 3d 3c b9 4e 3e 03 0a 87 3d
       0.059692334 0.060262613 0.20187849 0.065937065
000200 90 9f 72 3e a8 e0 5b be 78 9f 45 3d 86 48 dd bd
       0.23693681 -0.21472418 0.048247784 -0.108048484
000210 fd f0 b9 3d bc 22 09 bd c8 67 5b be 63 02 30 3d
       0.09079168 -0.03348039 -0.21426308 0.042971026
000220 36 47 6e 3d 5a 72 10 3e b7 bb b4 bb 28 cd 88 bd
       0.05817338 0.14106122 -0.0055155414 -0.066797554
000230 ed 8c 6f 3c e1 2b 0b bd 8b 9f aa be 5e a6 ce bd
       0.014621002 -0.033977393 -0.33324847 -0.10090326
000240 05 97 af be 03 12 c4 3d de 5d 26 bd 85 21 4c 3c
       -0.34294906 0.09573748 -0.040616862 0.012459164
000250 eb 42 b2 bd 6b ba 28 be aa b8 93 bd da 3f ca 3c
       -0.0870417 -0.16477363 -0.07212956 0.02468865
000260 f7 ac e7 3b 4e 99 87 bc 53 8e 8e bd f3 e8 3e 3c
       0.0070701796 -0.016552594 -0.0696074 0.011652219
000270 de 81 e3 3b 34 9e 81 be f2 d0 fa bd 16 f3 53 3e
       0.0069429716 -0.25316012 -0.122468844 0.20698199
000280 5b 95 b0 3d 19 cf c7 bd 62 0f 87 3d 3b 2c 22 3d
       0.08622237 -0.097562976 0.06594731 0.039592963
000290 65 63 14 be ae cd ce bd aa 59 66 3d fd d8 94 be
       -0.14491041 -0.10097824 0.056237854 -0.290718
0002a0 4c 9f 85 be fd 63 da bd 06 c5 58 bd 69 60 89 bc
       -0.26098096 -0.106636025 -0.05292227 -0.016769605
0002b0 9c f7 a5 bd d0 b5 77 bd d3 5a 00 3d 55 e8 06 3f
       -0.08103868 -0.060476124 0.031336617 0.5269826
0002c0 b7 62 d3 bd 6d 2c 01 be e5 09 d0 bd 0e 89 2c 3d
       -0.10321563 -0.12614603 -0.10158137 0.042122893
0002d0 af d1 b8 3d ee 62 8f 3c 4c 7a 9e bd b0 f3 5d bd
       0.09024369 0.017503228 -0.0773817 -0.054187477
0002e0 a2 69 1a 3e ba f5 88 3d fd 9f ea 3b b8 69 3e 3d
       0.15079358 0.066874936 0.0071601854 0.04648754
0002f0 f7 6e 8f 3c 49 cb a1 3c 60 26 ff 3c 90 60 c0 3d
       0.017508967 0.019750254 0.031146228 0.09393418
000300 13 47 ac bd e2 ff 29 be e3 9c 4b 3c 16 61 88 bd
       -0.08411994 -0.16601518 0.012427541 -0.06659143
000310 25 92 91 bd ba cb bd 3d 3a 59 3d 3d 94 2f 6e bd
       -0.07107953 0.092673734 0.04622767 -0.058150843
000320 72 27 2e 3e cd 92 17 be fe 47 9f be 99 6f 48 3e
       0.17007235 -0.14802094 -0.31109613 0.19573821
000330 30 65 af 3d 79 90 56 bc 03 78 91 3d 87 e3 97 3e
       0.08564222 -0.013095968 0.071029685 0.29665777
000340 79 0c 15 3c cd bf 65 bc 1f b3 f5 bc da ba a4 be
       0.009097212 -0.01402278 -0.029992638 -0.32173806
000350 e7 d0 1d 3d 8d 45 1a be ed c4 6e 3e 60 84 52 be
       0.038529303 -0.15065594 0.23317309 -0.2055831
000360 f6 37 b9 3c 48 1a 9f bc 53 bb 04 be 8d b2 15 bc
       0.022609692 -0.019421712 -0.12962084 -0.009136808
000370 43 fa 16 be 82 60 e1 3d f2 14 cc bd 10 1e fe bc
       -0.14743905 0.110047355 -0.099649325 -0.031020194
000380 27 a0 11 3e 5d 18 46 3e 65 9a 75 3e 84 8a dc 3b
       0.1422125 0.19345231 0.23984678 0.0067303795
000390 2b 8e f2 3d a7 1e 3a 3d f7 08 53 3b a2 3f fb 3d
       0.11843523 0.04543939 0.0032201388 0.12267996
0003a0 d2 d4 da 3c 16 f4 96 bd 25 dd 3b 3e c6 84 28 3d
       0.026712809 -0.073707744 0.18346079 0.041142248
0003b0 9f da 67 bd c9 27 37 bd cb f3 92 bd 08 1b 1f 3d
       -0.056604978 -0.044715676 -0.07175406 0.03884414
0003c0 02 b4 02 be 3c e0 1b 3c c8 ce 5a 3d cf 23 dc 3d
       -0.1276398 0.009513911 0.05341986 0.107490174
0003d0 d4 9d 04 3e 8b ed ea 3c b4 ba 36 3e 60 04 b6 bc
       0.12950832 0.028677722 0.17844659 -0.022218883
0003e0 01 a4 ad bd 11 f5 a8 3b 20 56 c4 3b 14 44 98 3d
       -0.08478547 0.0051561673 0.005991712 0.0743486
0003f0 65 b3 58 3d 88 4b 10 bc 1d 3d ea 3d af 01 2a 3e
       0.05290546 -0.008807071 0.11437438 0.16602205

action_model._discrete_distribution.branches.3.bias f4 [2]
000000 b6 53 83 3e 6a 53 83 be
       0.25649804 -0.25649577

action_model._discrete_distribution.branches.3.weight f4 [2, 256]
000000 f6 af 34 3d 02 a2 dc bd 24 01 97 3e 40 f9 4a bd
       0.044113122 -0.10773088 0.29493058 -0.04955411
000010 d8 15 8e 3d 05 92 0b 3e e4 ed 8b 3e b7 a7 69 be
       0.0693776 0.13629921 0.27329934 -0.22817884
000020 ca 50 10 be 61 ff 5a bd 26 55 13 bd 1a 84 20 bf
       -0.14093319 -0.053466205 -0.035969876 -0.6270157
000030 35 84 39 3c f6 ee c0 bd ec 98 a1 bc 69 ac 8c 3b
       0.0113230245 -0.09420578 -0.01972624 0.004293014
000040 42 22 52 3e 81 04 9a bd a4 dc 93 bd d9 9e de 3d
       0.20520881 -0.0752039 -0.07219818 0.108701415
000050 c9 a3 1c be 0f b8 98 3d ef 50 8d 3e 4c dc 95 be
       -0.15296854 0.074569814 0.2760081 -0.29269636
000060 26 bc 76 3b ac 46 30 3e 5d 52 80 3d d2 48 1c be
       0.0037648766 0.17214459 0.062657095 -0.15262154
000070 09 6c 83 3e dd 48 1d bd 91 c7 8e 3e f5 60 4e 3e
       0.25668362 -0.038399566 0.27886632 0.20154174
000080 fa f5 f6 bc 13 0f ce bd 18 5e fc bd b2 11 9a 3d
       -0.030146588 -0.10061469 -0.123226345 0.07522906
000090 2a f4 f5 3d 2e 2d 7e bf 4e 31 2f bf 31 69 8f 3c
       0.12009461 -0.9928769 -0.6843461 0.017506214
0000a0 fe 8a b9 3e e9 3c 94 ba 9c ea ae 3c 12 4d 97 bd
       0.36238855 -0.0011309657 0.021352105 -0.07387747
0000b0 66 29 a1 3e aa 5e b8 bd cc a3 d1 bd a2 f6 65 bd
       0.31476897 -0.09002431 -0.1023632 -0.05614341
0000c0 44 70 82 bc 7a 10 9b be 0f aa f3 bd e7 b1 2b be
       -0.015922673 -0.30286008 -0.118976705 -0.16767083
0000d0 1b 68 b3 3d 63 e3 27 3e 4b 2e a8 3e 8d 83 e3 3d
       0.08760091 0.16395335 0.3284782 0.11109076
0000e0 68 11 05 3e fe 7a 53 be cb 4d 9e 3d 86 82 57 be
       0.12994921 -0.20652387 0.077296816 -0.21045884
0000f0 d0 a9 21 3e fe 67 5d bd 3f a4 1c be 08 d6 1e 3e
       0.15787435 -0.054054253 -0.1529703 0.15511334
000100 0e d2 d1 bd 51 79 9f be 41 0e a9 be 38 b7 d9 3d
       -0.10245143 -0.31147245 -0.33018687 0.10630649
000110 19 f2 7d 3c 46 0e e6 bd a2 00 4b be 02 0c e6 be
       0.015499615 -0.11233191 -0.1982446 -0.44931036
000120 1c 32 b6 3d ab 46 ea 3e 62 a3 0a 3d 7e 76 46 be
       0.08896276 0.4575704 0.03384722 -0.19381139
000130 fb 84 c1 be c2 6d 7e be a8 68 ed 3d 52 6a aa 3e
       -0.3779677 -0.24846557 0.11592227 0.3328424
000140 0a 1d 31 3e 12 ae 7d 3e 54 b8 e7 3d 9c bb 0d be
       0.17296234 0.24773434 0.11314455 -0.13841099
000150 34 e1 42 3d 80 c1 fb b9 7f 87 a7 3d cb c8 a4 be
       0.04757805 -0.0004801862 0.08180141 -0.32184443
000160 ae 60 04 3e 68 cd fc 3d db 27 42 3d 4a ab 2e 3d
       0.12927505 0.12343866 0.04740129 0.042643823
000170 54 90 5c bc 90 f6 03 3e 8a e5 4c 3d 42 c4 11 bd
       -0.013462145 0.12887025 0.050023593 -0.035587557
000180 b6 18 b8 3d ca d8 45 be e0 a5 f2 3b 64 75 1e 3b
       0.08989088 -0.1932098 0.0074050277 0.0024178857
000190 42 89 41 3e 10 1b 07 3e f8 b9 05 be e3 1c d0 3c
       0.18900016 0.13193917 -0.13059223 0.0254044
0001a0 72 d5 c7 bd fa d1 86 3e b2 19 89 3e 6a b1 cb 3d
       -0.09757508 0.26332074 0.26777416 0.099459484
0001b0 72 eb 90 3e 1f 2e 71 be e7 64 d6 bd af 05 56 bd
       0.2830463 -0.2355275 -0.10468464 -0.052251514
0001c0 cc 0c f6 3d 4f 9d d5 3d bf 2c 6d bd f6 3d 01 3e
       0.120141596 0.10430395 -0.057904 0.12621292
0001d0 30 2e 4d bf 60 9a 58 3d bb 53 79 3e 74 75 33 bd
       -0.801486 0.0528816 0.24348347 -0.043813184
0001e0 1e 43 77 be d1 ae 62 3e 1f 4c 98 3c ba 5a df 3d
       -0.24146697 0.22137 0.018590985 0.109059766
0001f0 81 4b d5 bd 2a 43 11 3c cc 4f a9 be d1 2d 63 3d
       -0.10414792 0.008866111 -0.33068693 0.055463616
000200 cd b9 6a be 11 9f cf bd d3 9f b1 3d f1 d3 ca bd
       -0.2292244 -0.101377614 0.08673062 -0.09903706
000210 27 d3 24 3d 3f 6f 9a bd 63 7a 2b bd 7f 4c dd bd
       0.040240433 -0.0754075 -0.041864764 -0.10805606
000220 3d 40 3e 3e 4b cb 9f bc ec 15 a3 3e 0a 79 e3 bd
       0.18579192 -0.019506117 0.31852663 -0.11107071
000230 db e7 80 3e d4 c7 aa 3e 16 b3 64 be ac 3d ec bc
       0.25176892 0.33355582 -0.22333941 -0.028838001
000240 a6 0a da 3c 56 45 37 3e 6c 7f ee 3d bb 03 b5 bd
       0.026616406 0.17897543 0.116453975 -0.08838602
000250 16 7c 84 bc d9 10 95 bd 12 6e 40 3e ec 32 48 3e
       -0.01617245 -0.07278604 0.18791988 0.19550675
000260 18 80 81 3d 5e af bf 3d fd d2 d6 3d 64 a3 e3 3d
       0.0632326 0.093596205 0.104894616 0.11115149
000270 22 79 c7 3d 89 61 1c be 5b d9 3f 3e 3e f2 97 3d
       0.09739901 -0.15271582 0.18735258 0.07419251
000280 fb a3 9a 3d 5f 12 06 be 28 c3 a2 3d 10 1e d1 3d
       0.07550808 -0.13092946 0.07947379 0.10210812
000290 99 d1 4a 3d 6e c6 09 3e c9 00 57 3d a3 a4 a5 3e
       0.049516294 0.13454601 0.052490983 0.3235217
0002a0 d8 bc 5b bf 01 64 7c be 6d 7c 6a bc 32 a6 5e 3d
       -0.8583503 -0.24647523 -0.014311892 0.054357715
0002b0 20 be d9 bd b8 20 18 bd 11 f2 94 be cf 04 b0 bd
       -0.106319666 -0.037140578 -0.29090932 -0.08594667
0002c0 3f 1f cd bd fd 37 03 bc 2a 92 f7 bd ee bd 00 3f
       -0.10015725 -0.008008954 -0.120884255 0.5028981
0002d0 fd 5e 9d b9 b5 0e 8a 3e ed 19 86 3d fc 0d c2 3d
       -0.00030016145 0.26964346 0.06547914 0.094753236
0002e0 f6 e2 13 be 11 8a 25 3d 19 09 c7 bd 94 26 d2 bd
       -0.14442047 0.040414874 -0.09718532 -0.102612644
0002f0 0c 2a ea bd d0 d4 b0 3e b8 ba 10 be 85 7b 93 bd
       -0.11433801 0.34537363 -0.14133728 -0.07201294
000300 64 cc 5a be fb c3 db bd e3 4f 1d bd 52 d9 13 be
       -0.21367031 -0.1073074 -0.038406264 -0.1443837
000310 50 f6 15 3d 28 fc 34 be 88 ba 66 3e 69 e4 8d bd
       0.036611855 -0.17674315 0.22532094 -0.069283314
000320 d1 1b e2 bd 80 95 cb bc a3 29 a4 3b 01 fd 90 3d
       -0.11040462 -0.02485156 0.0050098463 0.07079507
000330 1b 20 7e bd a3 b0 0c bd 44 90 f7 3d 85 a8 02 3f
       -0.062042337 -0.03434814 0.12088063 0.5103839
000340 77 da 60 be ee e5 88 bd 8d b7 99 bc fb 80 54 be
       -0.21958338 -0.066844806 -0.018764282 -0.20752327
000350 c0 b0 bf 3c d2 58 bc 3d db 7f 5e 3e 46 1d 8c bc
       0.02339971 0.09196629 0.2172846 -0.017103802
000360 c1 ad 7d 3e 6c e2 1a bd cb 9a d8 3d 2b db 28 be
       0.24773313 -0.03781359 0.105763994 -0.16489856
000370 30 85 20 be b6 e6 20 bb 8d da e4 bb 2f 6e 6f be
       -0.15675807 -0.0024551577 -0.006984061 -0.23381875
000380 32 5f 0f bd ec 95 a5 3d 36 d2 86 3d e3 1f 86 3e
       -0.035002895 0.08085236 0.06583063 0.26196203
000390 4f cc d4 bd 67 19 a2 bd fa c7 2b 3d 1e f5 7b be
       -0.10390531 -0.07915001 0.04193876 -0.24605224
0003a0 2a 7d d4 be 59 b6 a2 3d 00 8a 7c be b0 61 00 3e
       -0.41501743 0.07944936 -0.24662018 0.12537265
0003b0 9e e3 a5 3d cf 32 aa bd 34 10 a0 bd 8b 26 04 3e
       0.08100055 -0.08310472 -0.078155905 0.12905328
0003c0 ed 87 4e bd 2c 15 4a 3d 9d 55 d5 bd ed b8 17 3e
       -0.050422598 0.049336597 -0.1041672 0.14816637
0003d0 af 2e b6 3d 79 79 ae 3e 5a 8d fe 3e 53 be 5c 3e
       0.08895623 0.3407705 0.49717218 0.21556978
0003e0 98 59 25 3d 5d 9e 0d 3d fa 06 9e be 4f d9 91 3b
       0.040368646 0.034574855 -0.30864698 0.004450954
0003f0 e2 e5 55 bd 35 15 0d 3f fd fa 78 3d 94 7c d7 3d
       -0.052221186 0.55110484 0.060786236 0.10521808

discrete_action_output_shape f4 [1, 4]
000000 00 00 40 40 00 00 40 40 00 00 40 40 00 00 00 40
       3.0 3.0 3.0 2.0

network_body._body_endoder.seq_layers.0.bias f4 [256]
000000 7b d3 3a be a3 3e c1 3e 70 74 9c bc 82 e2 8a 3e
       -0.18244736 0.377431 -0.01909849 0.27125937
000010 f3 4e a0 3e 35 60 39 bd 4e b6 d9 bd 02 8f 48 bd
       0.31310233 -0.045257766 -0.10630475 -0.048964508
000020 01 c2 10 be d0 1d 10 be 45 ec 2e bc f3 44 06 bd
       -0.14136507 -0.14073873 -0.010676448 -0.0327806
000030 7b 22 4a be ca 6a dc 3b 0b b9 10 3c e6 e7 5b be
       -0.19739716 0.0067265974 0.00883318 -0.21475181
000040 eb 90 d6 3e 0a 88 f0 3e 94 9e ad bd e4 af d4 bd
       0.4190744 0.4697879 -0.08477512 -0.10385111
000050 0d 87 82 3e 35 84 bf 3d e2 99 44 be c9 be a0 bc
       0.2549366 0.09351388 -0.19199327 -0.019622223
000060 82 37 47 3f b1 e8 37 be 4d cb c8 3e 76 37 9e bd
       0.77819073 -0.17959858 0.39217606 -0.07725422
000070 a6 37 39 be a2 9a f6 3d 93 27 e6 3e 60 9c d2 3a
       -0.18087634 0.120412126 0.44952068 0.0016068332
000080 ab 95 a1 bd 19 fb 15 be b5 56 97 bd cf 75 ad 3d
       -0.07889875 -0.14646567 -0.07389585 0.08469736
000090 d1 6c dc 3d 58 f0 69 3e af e7 c3 3d 95 85 2a be
       0.107629426 0.2284559 0.095656745 -0.1665252
0000a0 cc 6c 81 3e cc 53 1a bd d8 cf 33 be 82 bf cd 3e
       0.25278318 -0.03767757 -0.17559755 0.4018517
0000b0 f1 21 3f bd f3 f1 ee 3e 7d fd 99 be 1c 14 d5 3d
       -0.04666323 0.46668968 -0.3007621 0.10404226
0000c0 0f 3d 9d 3e ad 4d 08 be 33 6b 50 3f af 31 15 be
       0.30710647 -0.13310881 0.81413573 -0.14569734
0000d0 bd 63 fa bd de 99 ef bd de ea 00 bd 36 cc 1c be
       -0.12226055 -0.1169927 -0.031473987 -0.15312275
0000e0 86 6c 25 be bb f7 b3 3e 72 a2 02 3e 16 59 ee 3d
       -0.1615468 0.3514994 0.1275728 0.116380855
0000f0 40 86 32 3e 75 07 d4 3d be 5a 10 be 86 64 3c 3d
       0.17434025 0.10352985 -0.14097115 0.045994304
000100 52 e5 31 3e a3 31 77 bd 58 51 14 be 1f 77 2a 3e
       0.17372635 -0.06035007 -0.14484155 0.16647004
000110 4e 4b 88 3e 02 f6 cd 3e 25 d9 cb 3c 30 40 5e 3e
       0.26619953 0.40226752 0.024883816 0.21704173
000120 d8 af 72 3e 2f 82 4e bd 08 5d 80 3e d0 c0 11 3e
       0.23699892 -0.05041712 0.25070977 0.14233708
000130 4b 9b eb 3e f3 b6 62 3d 30 f2 ea 3d 40 32 8e 3e
       0.46016917 0.055350255 0.11471975 0.27772713
000140 0d cb 03 3e 5d e6 95 3e 77 57 41 3e 14 d5 8e 3c
       0.12870426 0.29277316 0.18881021 0.017435588
000150 9a eb bf 3e 48 ce 6c bd ba f1 a9 3e df 33 24 3e
       0.37484437 -0.057813913 0.33192235 0.16035412
000160 df 34 47 be 41 a4 f1 3c e2 38 4e 3d 2a 7a 15 3e
       -0.19453762 0.029497268 0.050347216 0.14597383
000170 e2 4b 84 bc b3 3b 84 bd f1 48 b8 3d df ed 5a 3e
       -0.016149465 -0.06456699 0.089982875 0.21379803
000180 83 30 38 3e ee 33 8e 3d 91 31 db 3c 8c 08 43 3e
       0.17987256 0.069434986 0.026757034 0.19046229
000190 cd 65 9a bd e6 da 08 3e 77 40 c0 bd 86 e8 db bd
       -0.07538948 0.13364753 -0.09387296 -0.1073771
0001a0 4c 07 51 be 21 2b 16 be 48 39 24 3e 00 34 00 3f
       -0.2041294 -0.1466489 0.16037476 0.50079346
0001b0 b2 62 2e bd 8a fb aa bd de 4c 66 be 7d 10 23 3f
       -0.042574592 -0.083487585 -0.2249026 0.63697034
0001c0 6e 9a de bd ab 77 b2 bc a5 90 ac 3e f4 77 5a bc
       -0.10869299 -0.021785578 0.33704105 -0.013334263
0001d0 d1 6f 0e 3e ec 8e 22 3e 90 4b 96 bd c4 aa 91 3d
       0.13909842 0.15874833 -0.07338631 0.07112649
0001e0 70 3e 6a 3f fd d1 b6 bd 96 03 37 bd 60 90 64 3f
       0.9150152 -0.08926771 -0.044681154 0.892828
0001f0 d7 cf ae bd c7 a4 a1 bd cc 7e cd 3e e3 64 9e 3c
       -0.08535736 -0.07892757 0.401358 0.019335216
000200 57 76 9f 3d a5 15 53 3e 39 8e 4e bd 27 25 06 bd
       0.077862434 0.20613725 -0.050428603 -0.032750275
000210 ef 45 28 3e 54 f0 c5 3c b8 65 89 bd f9 0f 8e bd
       0.16432928 0.024162449 -0.067088544 -0.0693664
000220 85 d5 d1 3c cb 88 a8 3d 09 3d 10 be 18 e5 00 be
       0.02561451 0.08229216 -0.14085783 -0.12587392
000230 99 51 a9 3e 11 59 7a 3e fa 0b df 3c 7a 75 39 3d
       0.33070067 0.24448039 0.02722739 0.04527805
000240 c7 dc d0 3d 13 84 a6 3e 68 e8 ce 3e 49 d0 4d 3d
       0.1019836 0.3252264 0.40411687 0.050247464
000250 41 d8 03 be dd 6e c4 3e cb f8 31 3c 00 64 4f 3e
       -0.12875463 0.38365832 0.0108625395 0.2025299
000260 cc d1 8e 3d 95 64 3b 3c 0e d7 3f 3e f4 2a a4 3e
       0.06973609 0.011437555 0.1873438 0.3206402
000270 8f e4 94 3e 3b d5 19 bd f1 aa 30 3e 7d 82 34 be
       0.29080626 -0.037556868 0.17252709 -0.17627902
000280 ad 2a 8b 3e 3a 45 a0 3e f2 98 6a be c6 4f 6e 3f
       0.27180997 0.31302816 -0.22909907 0.93090475
000290 ca 47 78 3f 24 63 21 3e a6 c5 a2 3e 22 f3 8a 3e
       0.9698454 0.15760475 0.3179142 0.2713862
0002a0 a4 13 08 be 3e 6e 08 3e be 19 b4 3c 37 42 7f 3e
       -0.13288742 0.13323304 0.021984931 0.24927603
0002b0 ea f9 92 3e 49 62 8f 3d 07 e6 0a 3e ce 0f 2a be
       0.28706294 0.07001168 0.13564311 -0.16607592
0002c0 57 98 a7 3e 70 a2 b1 3e 2c 68 c2 3e f3 b4 f3 3b
       0.32733414 0.34694242 0.37970102 0.0074373423
0002d0 6a 6b cc 3e e5 83 ef bd cf c0 fe 3d ed a8 97 3e
       0.399257 -0.11695079 0.12439119 0.29621068
0002e0 e6 a2 40 3f 71 90 9c bd be 88 bd 3e 5e 81 1c 3f
       0.75248563 -0.076447375 0.37018389 0.611349
0002f0 82 b8 af 3c 44 e3 85 3d ed 34 f3 bc b1 46 3b bd
       0.021450285 0.06537488 -0.029688323 -0.045721713
000300 0e e9 d1 3d 8b da cc 3d b0 fd 81 3e 1a 85 2d be
       0.1024953 0.10002621 0.2538886 -0.16945305
000310 3b 8f ee bb f8 68 fc 3e c8 4b 89 3e 43 79 f6 3e
       -0.007280258 0.49298835 0.2681563 0.4813939
000320 33 a5 37 bb 71 6a 7a be 90 9f 8b be 79 29 8f bd
       -0.002802205 -0.24454667 -0.27270174 -0.06990332
000330 c1 a3 0e 3e 42 73 95 3e 32 ea 41 3f 0c 16 f8 3d
       0.13929655 0.29189497 0.7574798 0.1211358
000340 ba 7c 41 3e 0d de 24 be e4 8c 44 3e f4 51 42 3e
       0.18895236 -0.1610033 0.1919437 0.18976575
000350 4c 65 62 3e 56 1f a5 3e 3b 6a 05 3e 8e 3f 80 3f
       0.22108954 0.3225047 0.13028805 1.0019395
000360 10 f9 b2 3e 50 22 3d 3e 83 2a 8a bd cf 5e 90 3e
       0.34955645 0.1847012 -0.0674639 0.28197333
000370 13 3e d0 3e de d5 9e 3d 4b 0d c0 3d 9d 0a 8c be
       0.4067236 0.07755636 0.093775354 -0.27351847
000380 02 4c b4 bb e8 e3 53 be 57 8f 05 bb aa 89 4b 3e
       -0.005502225 -0.20692408 -0.0020379627 0.19876733
000390 4f 56 6a 3e 21 1b 9e 3e 54 0a f0 3e 02 16 84 3e
       0.22884487 0.30880073 0.4688288 0.2579804
0003a0 05 80 ae 3d 36 87 bd 3e 17 03 c6 bc a0 d5 76 3e
       0.085205115 0.3701722 -0.024171395 0.24104929
0003b0 b8 ef 4e 3e 8e 4c 0f be e2 6b df bd f7 0c 01 3e
       0.20208633 -0.13994047 -0.10909249 0.12602602
0003c0 f0 ee 85 3e 96 43 88 3f 93 68 2d 3e c8 6c 8f 3d
       0.26158857 1.0645626 0.16934423 0.0700317
0003d0 36 16 dd bd 83 0e 14 3c ab 25 b5 bd bf c6 54 3d
       -0.10795252 0.009036663 -0.08845075 0.05194735
0003e0 d0 cb 47 3d 30 42 74 bd f1 37 02 3e a5 4c 37 3e
       0.048778355 -0.059633434 0.12716652 0.17900331
0003f0 9b 39 46 bd 13 cb cc 3d 02 57 36 be 9f 49 5e bd
       -0.04839478 0.09999671 -0.17806628 -0.05426943

network_body._body_endoder.seq_layers.0.weight f4 [256, 11]
000000 84 e5 bb be c0 94 4f 3e 20 3f 88 bd f6 cf 7a bf
       -0.36698544 0.20271587 -0.06652665 -0.97973573
000010 0c 00 10 bf ca e7 38 be d8 72 88 3d db c6 7c bd
       -0.5625007 -0.1805717 0.0666253 -0.06171308
000020 4e b8 1e be 40 05 94 bf 64 1f 09 3e b5 1b 7d 3f
       -0.15499994 -1.1564102 0.13390881 0.988704
000030 48 b1 c3 be ed e4 3d be f0 9e 33 3f 2f 91 eb 3d
       -0.38221192 -0.1854436 0.70164394 0.11502301
000040 74 ae 03 3e 3f bb 0c bf 55 ff 08 bc 81 aa 45 bd
       0.12859517 -0.54973215 -0.008361657 -0.04825831
000050 39 b3 d3 3e f4 7d 8c be 6f 14 38 bf 8f 89 50 3e
       0.41347674 -0.27439845 -0.7190618 0.20364974
000060 e0 3d 04 3d 98 d9 70 be 63 44 ac be a9 18 22 3e
       0.03228557 -0.23520505 -0.33645925 0.1582972
000070 6f 74 d8 be 77 57 1d bd c5 e1 c6 3e 39 92 ae be
       -0.42276332 -0.03841349 0.38844123 -0.34095934
000080 d7 03 9f 3c 0b 30 be bf ea 52 2c 3f 1a 18 0a bf
       0.01941101 -1.4858412 0.67314017 -0.53943026
000090 10 1d 8d be 41 be 14 be 10 9f 3a be 74 37 12 be
       -0.27561235 -0.14525701 -0.1822474 -0.14278966
0000a0 c7 c6 14 3e 69 07 34 3f 9a 84 46 bd d2 62 a0 3e
       0.14528953 0.70323807 -0.048466302 0.31325394
0000b0 67 b4 ab 3e f3 d5 81 3e 0e 1c 4f 3e 19 b5 ac 3e
       0.33536074 0.25358543 0.20225546 0.33731917
0000c0 ed 7c 13 3e d3 e5 10 bd 47 7f 24 3f 4f 6d 6b be
       0.14403124 -0.035375427 0.6425671 -0.22990917
0000d0 80 58 32 be c6 55 74 3f b9 ad 13 3e e0 36 b6 3e
       -0.17416573 0.9544338 0.14421739 0.3558874
0000e0 6c 7f 48 3f 28 52 bf be bd e7 9b be 07 95 65 bf
       0.7831943 -0.37367368 -0.3045024 -0.8968052
0000f0 85 61 b6 3e 28 db 05 3f ea c6 d4 be 24 f9 d9 bd
       0.35621276 0.5228753 -0.4155801 -0.10643223
000100 63 43 c4 be 73 5b dd 3e 89 60 70 3e 57 bb 02 bc
       -0.38332662 0.43233833 0.23474325 -0.007979236
000110 a0 78 dc be 82 50 7e 3e f7 54 48 be 49 f3 ac bd
       -0.4306078 0.24835399 -0.19563662 -0.084448405
000120 86 55 79 3f 5f 93 22 be bd 4b ed be 74 57 a0 be
       0.97396123 -0.1587653 -0.46346846 -0.3131672
000130 82 6c a1 3e e3 f6 b3 bd 07 53 d9 3e 59 29 27 3f
       0.31528097 -0.08787324 0.42446157 0.65297467
000140 78 b4 d2 be d3 64 5b bd 39 33 95 3d 6c dc d0 be
       -0.41153312 -0.05356295 0.072851606 -0.4079317
000150 46 48 cb 3c 14 31 37 be af c5 05 bf 7d a7 a5 3d
       0.024814736 -0.17889816 -0.52254766 0.080885865
000160 9b b4 d2 3d 20 f4 cd bd 03 fa 87 be 9b 00 dc bd
       0.10288354 -0.10056329 -0.2655793 -0.10742303
000170 e0 87 70 bf 9e 77 09 3e d8 95 26 3e b1 94 be be
       -0.9395733 0.13424537 0.16268098 -0.37222818
000180 b7 e6 e7 3d b0 2c 4f 3e 11 63 c2 bd 9b 9a 3a 3f
       0.11323302 0.2023189 -0.09491552 0.7289216
000190 67 10 34 3e 49 55 1e be 50 be 1e be b2 d7 ee be
       0.17584382 -0.15462221 -0.15502286 -0.46648937
0001a0 87 ce 32 be 42 e9 34 be b9 e1 a8 3e fe 33 2a bd
       -0.17461596 -0.17667106 0.32984713 -0.04155349
0001b0 ab 38 5e 3d 21 7d 41 bf dc a6 3a bf ee 20 2c bf
       0.05425326 -0.75581557 -0.7291086 -0.67237747
0001c0 63 67 d4 be 0f a9 30 bd 14 81 9b 3e fa 02 25 3f
       -0.41485128 -0.043129977 0.30371916 0.64457667
0001d0 22 8e f0 3d c2 4b 50 be b0 a5 fc be a2 df f3 be
       0.1174586 -0.203414 -0.4934516 -0.47631556
0001e0 d6 78 12 3e 49 16 24 3f 0b 2a e6 3e 78 4c 4c bf
       0.14303908 0.64096504 0.4495395 -0.7980418
0001f0 fd 68 b1 be c5 a9 65 3e c1 cb 03 be 7e 4f 1f 3c
       -0.34650412 0.22428043 -0.12870695 0.009723542
000200 c7 2e 19 3e 67 86 ff 3e b0 33 fb be 20 43 22 3f
       0.1495925 0.49907228 -0.49062872 0.63383675
000210 98 ff 13 be 74 d2 e7 3e e4 2b fa bc 38 81 d1 be
       -0.1445297 0.4527775 -0.030538507 -0.409189
000220 18 b4 40 be 99 fd be 3e 48 9f 04 3f 8f 45 5d 3d
       -0.188187 0.37302855 0.51805544 0.054021414
000230 54 5f 6d bf 56 81 24 3e 08 53 43 3e bb f5 54 3f
       -0.92723584 0.16064963 0.19074643 0.83187455
000240 53 ec 42 be 33 6c d3 be 65 0b 05 bf f1 db b8 3e
       -0.19035463 -0.41293487 -0.5197051 0.36105302
000250 8b aa 68 3e 01 17 2c be b1 55 05 3e c3 f3 4b bc
       0.22721307 -0.1680565 0.1302097 -0.012448254
000260 f8 50 17 bf 48 90 dc bd 87 5d 9f 3e 88 17 59 be
       -0.59107924 -0.10769707 0.31126043 -0.21200383
000270 42 75 32 3e d6 ff 50 bf e4 e1 1f 3e 36 eb a3 3e
       0.17427543 -0.81640375 0.15613514 0.3201539
000280 ad 38 a1 3d c0 d0 3e bd 39 2b 25 3e d2 56 2d bf
       0.07872138 -0.0465858 0.1612977 -0.677106
000290 e3 d8 ef bc 2c 0f 5d 3e 59 b3 29 be d9 57 b5 3e
       -0.029278224 0.21587819 -0.16572322 0.35418585
0002a0 99 dc a9 be da e1 da be 32 14 93 bd 38 bc a2 3b
       -0.33176115 -0.42750436 -0.07181586 0.004966285
0002b0 04 75 94 3d 86 5d 0b bf c8 62 3c bf ba 0b b9 be
       0.072488815 -0.5443958 -0.7358823 -0.3614176
0002c0 b1 af e7 3e b9 34 3f bd d4 40 a8 be d1 d9 63 3f
       0.4525123 -0.04668114 -0.3286196 0.89004236
0002d0 ff 62 03 3f a4 5b 25 3e c1 dc 30 bd bc bd ab bd
       0.5132293 0.1614824 -0.043179277 -0.08385798
0002e0 f6 09 61 3e 4a 10 2a 3f ca 12 77 3e e4 29 77 be
       0.21976456 0.66431105 0.24128261 -0.24137074
0002f0 bb 3e ec bd 0c f0 2b bf 1f 29 83 3f 88 01 32 3e
       -0.115354024 -0.6716316 1.0246924 0.17383397
000300 c0 bf 9e 3d da 67 bd ba b1 b7 6f 3c ce 5b 50 3d
       0.07751417 -0.0014450506 0.014631198 0.0508688
000310 b7 14 8f 3f c1 d8 c6 bd 5f 5d 28 bf 16 42 b2 3d
       1.1178197 -0.09709311 -0.65767473 0.08704011
000320 0e bf 25 3f ac 78 02 3f 33 08 65 bf c1 be 5b 3e
       0.6474465 0.5096538 -0.89465636 0.21459486
000330 39 14 9e 3e db 7e 2d 3e a4 2c 71 bf 53 51 c6 3e
       0.30874804 0.16942923 -0.9420874 0.3873392
000340 8e 28 eb bd e0 79 e6 be b9 17 fe 3e 00 92 38 3c
       -0.114823446 -0.45014858 0.49627474 0.011265278
000350 69 e2 81 3e bf da d3 be f7 d1 ff bd 17 6b 8c be
       0.2536805 -0.41377828 -0.124912195 -0.27425453
000360 27 0a 3e be 50 30 01 bf 67 1f d4 bd 21 7f f4 3e
       -0.1855856 -0.50464344 -0.10357552 0.47753242
000370 38 ba 0f bf 1f 01 b2 be b2 a9 81 bd d8 df 68 3e
       -0.5614352 -0.3476648 -0.06331195 0.2274164
000380 09 c3 f4 3e 5a 96 4f 3e 2f 25 d2 3e 85 6b 0d 3e
       0.4780505 0.20272198 0.41043994 0.13810547
000390 ac 1a e4 bd 95 90 08 be c2 96 42 bf 16 cf 32 3f
       -0.111379 -0.13336404 -0.7601129 0.6984724
0003a0 76 e8 89 3d bb 51 d8 3e ac 3a ff be 20 13 c4 3d
       0.067337915 0.42249855 -0.4984945 0.0957396
0003b0 bf 05 81 bd b2 8b 15 3f d9 f1 88 bb 74 0b a5 be
       -0.06299924 0.58416283 -0.004179221 -0.322353
0003c0 51 68 99 3e e0 1b 26 3f ec 7a d9 be 00 32 3c bc
       0.299624 0.64886284 -0.42476594 -0.01148653
0003d0 54 7b 38 bd aa 99 96 be ba 29 21 be 66 e6 65 3e
       -0.04503949 -0.2941411 -0.15738574 0.22451171
0003e0 f3 75 c8 bc 83 8b d1 bd 14 16 c9 be 2d 4e 22 be
       -0.024470305 -0.10231688 -0.39274657 -0.15850134
0003f0 07 5a 37 bd b5 a6 29 3a 1e 48 96 be 34 34 15 3e
       -0.04476359 0.00064716797 -0.29351896 0.14570695

network_body._body_endoder.seq_layers.2.bias f4 [256]
000000 92 46 58 3d ea 86 61 be af cd 38 3e ff 77 be bd
       0.052801676 -0.22024122 0.18047212 -0.09300231
000010 bb a1 e5 3d f1 59 f3 bb ff cd 57 bc fb 47 8d bd
       0.11212488 -0.0074264933 -0.013171672 -0.06898495
000020 a0 de 47 bd 58 1e 88 bd fb d0 41 be ab 26 84 be
       -0.048796296 -0.066464126 -0.18927376 -0.2581075
000030 9a 83 04 bd 3a 76 2c be 91 3e ae bd 98 d7 9f bd
       -0.032352068 -0.16841975 -0.08508027 -0.07804793
000040 91 9b 5b 3d 7f 3c 49 bd 4f 29 54 bd 8f 51 c9 bd
       0.053615157 -0.04912996 -0.051797207 -0.09830009
000050 5d 7b 49 be 7e 4d eb bd ab 8e d7 bd 73 cc a1 bd
       -0.19675966 -0.1148939 -0.10525259 -0.07900324
000060 b2 5c 3d be 9b 04 98 3d b6 d9 84 ba 3d 4f 12 be
       -0.18492392 0.074227534 -0.0010135684 -0.1428804
000070 21 18 4d 3e 16 b7 4f bd 60 47 29 3d 51 7b 08 3e
       0.20028736 -0.050711714 0.041327834 0.13328291
000080 56 a0 40 bd 73 a5 b5 bd 96 19 4b 3d 26 aa a0 bd
       -0.04702791 -0.088694476 0.049584948 -0.07844953
000090 cb d8 c5 3d a4 d4 af bd ee 76 47 be 40 32 7c 3d
       0.096604906 -0.0858548 -0.19478962 0.06157136
0000a0 a1 ce 8f 3d eb 09 68 bd 0d 2d 22 bd b3 9a b1 3c
       0.07021833 -0.056650084 -0.039593745 0.021680212
0000b0 6b a3 8c 3d 15 d1 f1 bb 91 a0 f5 bc 13 06 c9 bd
       0.06867107 -0.007379661 -0.02998379 -0.09815612
0000c0 d8 70 29 bd 53 2b 76 be bd a8 dc bd 10 53 42 be
       -0.04136738 -0.24039964 -0.10774372 -0.18976998
0000d0 03 0d 29 bd 6c 23 96 3b 0b 3a c6 bc cf f3 c1 3c
       -0.041272175 0.0045818593 -0.024197599 0.023675827
0000e0 ea fc b9 bd ff b9 b2 3d 87 3d 82 bc 33 86 8c bc
       -0.09081443 0.08726882 -0.01589848 -0.017153835
0000f0 f9 45 54 3d 17 77 23 be 6c a9 40 be 4e 43 94 3c
       0.051824544 -0.15963398 -0.1881463 0.0180985
000100 9d 2f 3d be 1c a8 f5 39 cf 1d bd bd db 42 99 3d
       -0.18475194 0.00046855293 -0.09234201 0.07483455
000110 c6 bc 87 bd a1 69 fc bc 7e 01 d6 bd 22 d4 e8 bd
       -0.066278026 -0.030812087 -0.10449503 -0.11368586
000120 37 cf 42 bc 0f 94 ed 3c c0 a2 01 be 7c 6c 59 be
       -0.011890224 0.029001264 -0.1265974 -0.2123279
000130 af 73 34 be c7 f9 53 be 00 86 f9 3d af 84 5f bd
       -0.17622255 -0.20700751 0.121837616 -0.054569896
000140 47 d0 28 be 5f 57 98 bd aa 24 1a be 82 90 56 be
       -0.16485702 -0.0743854 -0.15053049 -0.20953563
000150 b6 e0 ad bd 08 65 35 bd f5 68 88 bc 76 bb 5b be
       -0.08490126 -0.044285804 -0.01665161 -0.2145823
000160 45 74 e8 3c 7b 2e 13 3e dc ee 0e bd 6f ab 60 bc
       0.028375754 0.143732 -0.034895763 -0.013712748
000170 31 5e cb bb 24 da 34 bd be fd a3 bc ee 28 3c bd
       -0.006206297 -0.044153348 -0.020018455 -0.04593747
000180 36 d0 17 be cc 98 d2 bd ba db 85 bb 55 11 b2 bd
       -0.1482552 -0.1028305 -0.0040850313 -0.08694712
000190 3d e0 21 3e f2 06 74 bb 72 d4 3f bc e7 21 d7 bd
       0.15808196 -0.0037235585 -0.011708366 -0.10504513
0001a0 3b cd e5 3c 95 f2 ac bd db 21 29 3e 7d 5a 3e bd
       0.028051963 -0.08444706 0.16516821 -0.046473015
0001b0 52 69 2f be 1d 71 6d be 2b 7b 06 be 28 c2 98 bd
       -0.1713002 -0.2318768 -0.13132922 -0.07458907
0001c0 91 2c 97 bd 94 af 88 bd 93 0f a0 bd 9e fd d4 bb
       -0.07381547 -0.06674114 -0.078154705 -0.00649996
0001d0 d5 9e b7 3a 65 ee 41 bc ec 6f 3e be b2 8a 91 bd
       0.0014009128 -0.011836623 -0.18597382 -0.07106532
0001e0 86 99 e3 bd 6f bd 37 3e 41 f9 d9 3c eb 7c 3c bd
       -0.11113267 0.17943357 0.026608111 -0.04601757
0001f0 79 09 bd bd 10 93 d4 ba c3 d3 07 be b2 76 2d bd
       -0.092303224 -0.0016218144 -0.13264374 -0.042349525
000200 b1 cd 2a be 80 7b 2a bc 9d 0b 1e 3d bc b0 80 bd
       -0.16680028 -0.010405421 0.038585294 -0.062837094
000210 ae 90 24 3c d1 69 8a bd 7a 87 70 bc c1 c2 49 bd
       0.01004426 -0.06758464 -0.014680738 -0.049257997
000220 c4 70 17 3e f4 91 c2 3c 60 47 a9 3d f8 42 08 be
       0.1478911 0.023751236 0.08265567 -0.13306797
000230 22 27 7e 3d 2b 07 ad bb fa 26 18 be 5c 93 40 be
       0.06204904 -0.0052803955 -0.14858618 -0.18806213
000240 3d b7 f3 bb b1 7d 6e bd c4 3c 19 3d 06 f8 89 3d
       -0.007437615 -0.058225337 0.037411466 0.0673676
000250 e0 e2 a4 bd c9 02 e0 bd a2 d3 5d be 9d 19 28 3e
       -0.080510855 -0.10938031 -0.21662763 0.1641602
000260 77 5d 93 bd af 87 a6 bb 1c 0b ae bc 30 a7 01 be
       -0.071955614 -0.0050820927 -0.021245532 -0.12661433
000270 47 f3 3a 3e cd 00 8c bd 84 3b d4 bd 46 da 39 bd
       0.18256865 -0.0683609 -0.10362914 -0.045374177
000280 f5 7e cb 3b e7 d8 91 be 2f d0 f0 bd 08 70 72 3d
       0.006210203 -0.28485796 -0.11758458 0.059188873
000290 d2 2e 02 be 6b 95 a9 bd db 4b 88 bd 02 19 ec bd
       -0.12713173 -0.08280452 -0.06655093 -0.11528207
0002a0 79 0c 7d bd fc 1e 57 be 16 5a 7f bd 84 91 86 3d
       -0.061779473 -0.21007913 -0.062341772 0.06570724
0002b0 e1 44 ab bc 20 a2 0d bd ae eb 20 be 9f 0e 4d be
       -0.020906867 -0.034578443 -0.15714905 -0.20025109
0002c0 cb 10 73 be 8e 8e 86 bd 63 69 8e bd f7 c3 38 3e
       -0.23736875 -0.06570159 -0.06953695 0.18043505
0002d0 fc 7f f4 bd 4b 80 46 3d 8b dc b5 bd 6a 39 e2 bd
       -0.119384736 0.048462193 -0.08879956 -0.11046107
0002e0 45 1b 0f be 74 34 ae bc b9 17 08 be 29 6b 14 be
       -0.13975246 -0.021265246 -0.132903 -0.14494003
0002f0 e4 88 89 3d 6c c3 05 be 3f 9f b2 bd 21 26 64 bd
       0.06715563 -0.13062829 -0.0872178 -0.055700425
000300 b2 12 4e be 63 fc 08 be bf 8d 8b bc 22 69 85 bd
       -0.20124319 -0.13377528 -0.017035363 -0.06514193
000310 27 21 76 bd 4b 76 6a be c0 2f 3c 3e 74 f1 50 3d
       -0.06009021 -0.22896688 0.1837759 0.051011518
000320 f8 ca 10 be e2 03 ec bd f3 25 bd bd 16 ac 47 be
       -0.14139926 -0.11524178 -0.09235754 -0.1949924
000330 aa cc 96 bb 20 3b 17 3d 0f cc 03 bc 1c b0 d9 3d
       -0.0046020346 0.03692162 -0.008044257 0.10629293
000340 7f 7c c3 bd 77 b1 88 bd 8f c1 80 bd ec 57 6c be
       -0.0954523 -0.06674474 -0.06286918 -0.23080415
000350 72 78 26 3c d3 b7 f5 bd 48 a3 b9 bb c8 db de bd
       0.010160552 -0.11997952 -0.0056652166 -0.10881764
000360 27 73 51 bd b0 e8 04 3a 33 e4 be bb 92 78 84 bd
       -0.05113521 0.00050700735 -0.0058255433 -0.064683095
000370 79 fe 1f be ee 8f 76 bd 2c eb 6b bd 12 7e 2f be
       -0.15624417 -0.060195856 -0.057597324 -0.17137936
000380 a0 b3 ae 3d fb 56 3e be 07 a5 ac bd 68 32 fc 3d
       0.085303545 -0.18587868 -0.08429914 0.12314302
000390 7f 1d 7a bd d9 21 20 bd 60 39 d0 bd e7 f6 25 be
       -0.061063286 -0.03909478 -0.101671934 -0.16207467
0003a0 d1 ec 20 3c 70 a0 9b bd 4a 58 75 be 56 57 0c bc
       0.009822086 -0.075989604 -0.23959461 -0.008565744
0003b0 db 9d 26 bb f9 c3 68 bd 5a cd 36 bd 09 b8 95 bc
       -0.002542368 -0.05682752 -0.044629432 -0.018276231
0003c0 34 b0 79 bd 88 13 6c 3d 66 fc 16 be 44 f4 a5 bc
       -0.060959056 0.057635814 -0.1474472 -0.020258076
0003d0 73 90 14 be 2e 04 5f 3d 39 0d 8b bd 63 5c 8d 3e
       -0.14508228 0.054447345 -0.067896314 0.27609548
0003e0 b3 54 d8 3b 58 2b 55 bd 9c 24 1f bd 2f 6a 39 3d
       0.006601894 -0.05204329 -0.038853273 0.04526728
0003f0 ba b3 45 bd 17 ab 87 bb 49 0e 19 bd 8f d0 cd bd
       -0.048267104 -0.0041402685 -0.03736714 -0.10049545
