Assets/Models/Volleyball.onnx (onnx, 288449 bytes, 15 tensors)

92 f4 [8]
0.41118646 0.29096508 0.2734737 0.8418513 3.366999 3.6015203 12.548525 3.319726
00000000: 0887 d23e 60f9 943e bf04 8c3e 9183 573f
00000010: e97c 5740 4f7f 6640 c2c6 4841 6476 5440

action_model._discrete_distribution.branches.0.bias f4 [3]
0.012246701 -0.04928145 0.03825354
00000000: 63a6 483c 59db 49bd beaf 1c3d

action_model._discrete_distribution.branches.0.weight f4 [3, 256]
0.016975688 -0.0225737 -0.053075895 -0.03994086 -0.043537118 0.008370872 0.010657841 0.031121349
0.022314055 0.024521554 -0.05470021 -0.015624341 0.03612563 -0.027418088 -0.010114105 0.039484285
0.028870698 0.0061061634 -0.00016612426 0.007934431 0.07145063 -0.01741394 0.018856797 -0.011853677
0.03436101 0.06269031 -0.05486226 -0.060876157 0.021808729 0.011067553 -0.008397488 0.0619769
-0.037962627 0.04726923 0.00048791678 0.044676576 -0.04857963 -0.02832073 -0.031331453 0.0533457
-0.07949933 0.006474754 0.028486695 0.025379753 0.0062364307 -0.024429115 0.007119145 -0.015886411
-0.01754275 -0.02770182 0.055719797 -0.05509447 0.04600303 -0.048159588 -0.03767847 0.048262473
-0.02607287 0.06573861 -0.05522855 -0.017212614 0.02422659 0.07035331 0.012048272 0.066015996
-0.0019532747 0.009256143 0.036964975 0.011649536 0.015390078 0.031855404 0.019110268 0.039305698
-0.029642439 -0.0014650848 -0.01853263 -0.0075394013 0.054055013 0.015692215 0.016746443 0.00400522
-0.03311482 0.020506488 0.006641635 0.0069284863 0.013498689 0.0010998235 0.005290472 -0.089197345
0.026283335 -0.028572131 0.003993274 -0.0072912285 0.040407013 0.030316988 0.038047608 0.04252314
0.06141795 -0.006507741 -0.02968851 0.029146248 0.009182819 0.020442573 -0.021338286 0.012326103
-0.084929965 -0.0033457726 0.037055973 0.028698204 0.038440876 0.01942202 0.050819937 0.031532954
-0.051696636 -0.0007187942 0.026728429 0.0029597091 0.045613784 -0.0026643893 -0.024217999 0.009389628
-0.0036596206 0.014211985 0.0059699365 0.047413114 0.013159786 0.055708557 0.03261933 -0.035952028
0.012819696 -0.007498472 0.008655959 -0.05067113 0.0034413305 -0.010727574 0.031443562 -0.017257646
0.0049122004 0.0150471935 0.033106796 -0.08098156 0.026021216 0.052703418 -0.043234143 -0.0057791886
0.029629927 0.07290455 -0.003236899 -0.043982595 0.01694346 0.02696699 0.0040664445 -0.027471758
-0.044605702 -0.082168266 -0.058402006 0.06552811 0.037378415 -0.014154359 0.033591606 0.043440238
-0.0017542266 0.038201522 -0.022743728 -0.02957353 -0.036353152 0.017596403 0.000684587 0.015170132
0.004292663 -0.040979605 -0.045218747 -0.020445414 0.022526585 -0.06498243 0.018257514 -0.055959363
-0.06330915 -0.018277971 -0.016925083 -0.030479094 -0.0099871 -0.0055814846 0.0008196198 -0.030096633
0.0013231084 0.008279105 -0.031496815 -0.027808238 -0.043584254 -0.023450973 0.018929893 -0.013347565
-0.07074406 -0.0325787 0.012219984 0.0073449635 0.042825177 0.0030023837 -0.018062241 -0.0033238896
0.010995295 0.011755774 0.06303732 0.036895595 0.010165308 -0.021410508 -0.04034987 0.0137354685
0.02800939 -0.011246214 -0.01079109 -0.0074101994 -0.015642466 0.0015377863 0.036468744 0.008870146
0.022360303 0.06317882 -0.011731961 -0.022945182 0.019494906 0.01523432 -0.031590745 -0.01908453
-0.028826762 -0.030217797 -0.015623358 -0.016875874 -0.0022639518 -0.049160447 -0.038119543 -0.009957876
-0.023217183 0.042399503 0.07289967 0.0091290595 0.041185886 0.00811334 0.0057594795 0.08121504
0.055271257 -0.015505935 0.04486667 0.036221616 -0.028862532 0.05026117 0.02116888 0.04265156
-0.011884337 0.032974772 0.008481609 0.045131855 0.016120147 0.00952348 -0.014242082 0.014009418
00000000: 9910 8b3c 7bec b8bc 1c66 59bd 0799 23bd
00000010: fa53 32bd fb25 093c 3a9e 2e3c 33f2 fe3c
00000020: f7cb b63c 6de1 c83c 540d 60bd 3cfd 7fbc
00000030: 78f8 133d e69b e0bc a2b5 25bc 46ba 213d
00000040: 3e82 ec3c 3616 c83b a431 2eb9 6aff 013c
00000050: b554 923d aea7 8ebc 9279 9a3c ed35 42bc
00000060: 21be 0c3d c763 803d 40b7 60bd 4759 79bd
00000070: 38a8 b23c af54 353c 9e95 09bc 7ddb 7d3d
00000080: b37e 1bbd 619d 413d 15cf ff39 c9fe 363d
00000090: 6ffb 46bd e000 e8bc 6955 00bd 0581 5a3d
000000a0: 8bd0 a2bd 2c2a d43b ee5c e93c 33e9 cf3c
000000b0: f95a cc3b 911f c8bc b747 e93b 3824 82bc
000000c0: d0b5 8fbc edee e2bc 713a 643d bdaa 61bd
000000d0: ac6d 3c3d fd42 45bd bd54 1abd dfae 453d
000000e0: c596 d5bc f7a1 863d 5537 62bd 7801 8dbc
000000f0: d776 c63c 6515 903d 1e66 453c 6533 873d
00000100: 8302 00bb 14a7 173c 9668 173d b2dd 3e3c
00000110: aa26 7c3c d07a 023d 238d 9c3c 03ff 203d
00000120: b3d4 f2bc 1708 c0ba bed1 97bc 150d f7bb
00000130: ca68 5d3d f68c 803c d62f 893c 383e 833b
00000140: 68a3 07bd 39fd a73c 13a2 d93b 5b08 e33b
00000150: 9b29 5d3c f427 903a b25b ad3b 19ad b6bd
00000160: 2650 d73c 1a10 eabc 03da 823b 42eb eebb
00000170: d381 253d 555b f83c cfd7 1b3d be2c 2e3d
00000180: 6391 7b3d e33e d5bb 5135 f3bc 1dc4 ee3c
00000190: 8973 163c 2f77 a73c a1cd aebc 6cf3 493c
000001a0: c3ef adbd c044 5bbb 01c8 173d 7f18 eb3c
000001b0: 2e74 1d3d ee1a 9f3c 9128 503d b328 013d
000001c0: dabf 53bd 766d 3cba 94f5 da3c aef7 413b
000001d0: 85d5 3a3d 099d 2ebb d364 c6bc f4d6 193c
000001e0: 3fd6 6fbb 63d9 683c 759f c33b 4134 423d
000001f0: 259c 573c a82e 643d d99b 053d 6f42 13bd
00000200: b409 523c beb5 f5bb b9d1 0d3c 888c 4fbd
00000210: f287 613b b5c2 2fbc f7ca 003d e85f 8dbc
00000220: 86f6 a03b 8188 763c fe9a 073d a9d9 a5bd
00000230: 722a d53c 8adf 573d 4916 31bd 595f bdbb
00000240: 76ba f23c fb4e 953d 2722 54bb 1827 34bd
00000250: 03cd 8a3c e1e9 dc3c cf3f 853b 740c e1bc
00000260: 78b4 36bd d647 a8bd f136 6fbd 9a33 863d
00000270: 1c1a 193d afe7 67bc 5a97 093d 64ee 313d
00000280: 14ee e5ba 3379 1c3d 0e51 babc 3044 f2bc
00000290: 0be7 14bd 5526 903c db75 333a 258c 783c
000002a0: 78a9 8c3b 3bda 27bd 4b37 39bd 247d a7bc
000002b0: ac89 b83c 8215 85bd c890 953c a535 65bd
000002c0: 3aa8 81bd afbb 95bc 79a6 8abc 4baf f9bc
000002d0: efa0 23bc e3e4 b6bb c1db 563a 378d f6bc
000002e0: 276c ad3a 15a5 073c ce02 01bd 1ace e3bc
000002f0: 6785 32bd 411c c0bc dd12 9b3c bfaf 5abc
00000300: 43e2 90bd 3e71 05bd 5436 483c 05ae f03b
00000310: 7469 2f3d a4c3 443b 44f7 93bc 9dd5 59bb
00000320: 9c25 343c 4a9b 403c b619 813d d61f 173d
00000330: 648c 263c 1765 afbc e845 25bd bb0a 613c
00000340: f373 e53c 0a42 38bc 1dcd 30bc 42d1 f2bb
00000350: a124 80bc 8c8f c93a 4060 153d 1754 113c
00000360: f42c b73c e663 813d 6937 40bc 89f7 bbbc
00000370: c8b3 9f3c 5f99 793c 4c65 01bd 2957 9cbc
00000380: 1a26 ecbc 508b f7bc 1df9 7fbc 463f 8abc
00000390: cf5e 14bb 775c 49bd 3d23 1cbd 5c26 23bc
000003a0: f631 bebc 1aab 2d3d 6c4c 953d 0d92 153c
000003b0: 88b2 283d d0ed 043c 04ba bc3b 1254 a63d
000003c0: 1d64 623d 9b0c 7ebc 1dc6 373d 1e5d 143d
000003d0: 1e71 ecbc a8de 4d3d 5c6a ad3c 67b3 2e3d
000003e0: 86b6 42bc 8e10 073d 72f6 0a3c 2edc 383d
000003f0: 660e 843c 5f08 1c3c 9f57 69bc c287 653c

action_model._discrete_distribution.branches.1.bias f4 [3]
0.026729189 -0.01850072 -0.0042587128
00000000: 2cf7 da3c d28e 97bc ac8c 8bbb

action_model._discrete_distribution.branches.1.weight f4 [3, 256]
-0.022512933 -0.025588164 0.0041229315 -0.029028956 0.023741264 0.0043655457 0.0074089095 0.0018936563
0.014277475 -0.0035603587 -0.00028769695 0.0025397723 -0.016297007 -0.01000486 0.048052482 0.008856729
0.015226703 -0.026574958 -0.006544452 -0.09186005 0.006436335 0.008221654 0.057140876 -0.013958224
-0.032379694 0.052476846 0.012091159 -0.00056097034 0.012542468 -0.009240998 0.009620097 0.06677902
0.045150787 -0.014827891 0.010968962 0.017234037 -0.04393459 -0.028103497 -0.06251301 0.014016009
0.018407997 0.031534694 -0.002164638 -0.011029635 -0.014795531 -0.02344215 -0.0068511222 0.0032176315
-0.017534895 0.030746322 -0.0012482159 0.054713167 -0.015641464 -0.03255606 -0.045254495 0.03641637
-0.021488281 -0.059015144 0.03513242 0.031339142 -0.028055374 -0.012808509 -0.011503982 0.00011303157
0.052875444 -0.004789958 -0.044952136 -0.023692416 -0.02744314 -0.029913766 0.052827574 0.049307078
-0.021928204 -0.042513687 0.010290955 -0.012664425 -0.032434948 0.008069844 0.033973034 0.023068234
0.021421019 -0.041644793 0.042696666 0.010859154 0.012271471 -0.07054478 -0.020398103 -0.008736459
0.032981817 0.03916909 -0.043792754 -0.041784167 0.008981909 -0.004265186 0.011926272 0.006925538
-0.01252985 0.009875945 -0.04458285 -0.01102625 -0.0317095 -0.003629552 -0.03338996 0.0072352453
-0.05891991 0.023327574 0.018642377 0.020740543 -0.025583379 0.040239573 -0.009520625 -0.012360442
-0.0021211058 0.030015958 0.0043930765 0.044787884 0.00937067 -0.018502558 -0.02812087 -0.020008678
0.033492874 0.047071103 -0.052634932 -0.012058475 0.013087304 -0.03875771 0.03996585 -0.049254697
-0.082162775 -0.011814169 -0.041688953 0.03084809 0.009891723 0.026841953 -0.004797983 -0.0060782228
-0.035841133 0.021875916 -0.009241179 -0.013529073 0.008060527 0.03160052 -0.015995406 -0.041754313
0.04383278 -0.0154497055 0.020933446 0.013859666 -0.02241668 -0.040883128 -0.035216063 0.010134374
0.033243734 -0.03032822 0.023095379 -0.052509133 -0.025736593 -0.07862116 0.02854762 -0.00046922112
0.010428039 -0.01529841 -0.021217281 0.01352511 0.023055464 0.05102566 -0.026132107 -0.020132428
0.041938312 0.0023022576 0.016056301 -0.028475745 0.022309693 -0.018192863 0.024514556 -0.049472813
-0.022612358 0.039582025 -0.020614158 0.012389523 0.0148767 0.025119621 0.030819176 0.009845254
-0.012659883 0.0030564629 -0.0054556453 -0.08180919 0.0025481996 0.024669543 -0.057107944 -0.036444496
0.012327657 -0.008063834 0.041663922 0.009260563 -0.016337853 0.025218146 -0.02205549 -0.05752664
-0.025887793 0.031096697 -0.024138067 0.06028628 0.016247228 0.012159875 0.028090391 -0.04161119
0.00093445624 -0.025391199 0.020229151 -0.018350428 -0.014593911 -0.06926948 0.037814572 -0.018404968
-0.09284057 0.00048388218 -0.013369136 0.023479858 -0.026919127 -0.060350165 -0.039852545 0.025444968
0.0036446583 0.008539622 0.021064157 0.014424155 0.03537627 -0.0023062602 0.04703111 -0.06437291
-0.015534116 -0.05496765 -0.023523241 0.0046806415 -0.024840752 0.043082528 -0.046677317 0.049024295
-0.011493292 0.02480144 -0.07855181 0.011689779 0.005293077 -0.035866965 -0.06317312 0.050944135
-0.076812856 -0.061618812 -0.0036674265 0.01873626 -0.0146355685 0.046130292 0.017953146 0.029127955
00000000: 0b6d b8bc 459e d1bc a819 873b 22ce edbc
00000010: 0a7d c23c da0c 8f3b 70c6 f23b 9034 f83a
00000020: 12ec 693c e854 69bb 08d6 96b9 4f72 263b
00000030: 4d81 85bc 6deb 23bc aed2 443d d01b 113c
00000040: 6c79 793c bab3 d9bc d872 d6bb 1f21 bcbd
00000050: e4e7 d23b 1eb4 063c 8d0c 6a3d 09b1 64bc
00000060: 92a0 04bd f6f1 563d ff19 463c 150e 13ba
00000070: ec7e 4d3c 8e67 17bc 9c9d 1d3c 70c3 883d
00000080: 08f0 383d aff0 72bc 29b7 333c 652e 8d3c
00000090: c2f4 33bd 4e39 e6bc d206 80bd 67a3 653c
000000a0: 5ecc 963c 862a 013d 99dc 0dbb a4b5 34bc
000000b0: f468 72bc c009 c0bc 617f e0bb e6de 523b
000000c0: 57a5 8fbc b6df fb3c 2d9b a3ba ea1a 603d
000000d0: 8722 80bc 8159 05bd c75c 39bd 5529 153d
000000e0: 3108 b0bc ddb9 71bd 03e7 0f3d 795d 003d
000000f0: 62d4 e5bc c8da 51bc 337b 3cbc 5d0b ed38
00000100: ec93 583d 14f5 9cbb bb1f 38bd 9916 c2bc
00000110: 70d0 e0bc b70d f5bc ba61 583d 38f6 493d
00000120: c7a2 b3bc d522 2ebd 659b 283c 737e 4fbc
00000130: 82da 04bd 6137 043c 4f27 0b3d 98f9 bc3c
00000140: 227b af3c bb93 2abd b3e2 2e3d 98ea 313c
00000150: 480e 493c c879 90bd ec19 a7bc 5d23 0fbc
00000160: f117 073d c56f 203d 0860 33bd e025 2bbd
00000170: db28 133c f9c2 8bbb 6966 433c a0ef e23b
00000180: 004a 4dbc b7ce 213c 829c 36bd 72a7 34bc
00000190: d2e1 01bd c7dd 6dbb e9c3 08bd a315 ed3b
000001a0: 0156 71bd 7819 bf3c e6b7 983c 12e8 a93c
000001b0: 3c94 d1bc 40d2 243d 65fc 1bbc 7483 4abc
000001c0: 4002 0bbb 07e4 f53c ccf3 8f3b 8073 373d
000001d0: 7087 193c ad92 97bc bd5d e6bc 3de9 a3bc
000001e0: d32f 093d a1cd 403d ba97 57bd e990 45bc
000001f0: 226c 563c 68c0 1ebd 3bb3 233d 4bbf 49bd
00000200: f544 a8bd 3790 41bc 09c2 2abd 22b5 fc3c
00000210: e510 223c a8e3 db3c 6638 9dbb d42b c7bb
00000220: 27ce 12bd 1f35 b33c 5068 17bc 0ca9 5dbc
00000230: 4d10 043c 8c6f 013d cc08 83bc 9206 2bbd
00000240: 008a 333d c320 7dbc 9e7c ab3c a713 633c
00000250: 2fa3 b7bc 1175 27bd b83e 10bd a50a 263c
00000260: 952a 083d e372 f8bc 8532 bd3c d113 57bd
00000270: 8cd5 d2bc 2104 a1bd b3dc e93c cb01 f6b9
00000280: 5eda 2a3c 2fa6 7abc ddcf adbc 6c98 5d3c
00000290: d0de bc3c 4800 513d 0013 d6bc c3ec a4bc
000002a0: 82c7 2b3d 79e1 163b 8188 833c f745 e9bc
000002b0: d1c2 b63c 3309 95bc c0d2 c83c 01a4 4abd
000002c0: 8d3d b9bc c320 223d 06df a8bc 6dfd 4a3c
000002d0: 67bd 733c aac7 cd3c 7f78 fc3c fd4d 213c
000002e0: 666b 4fbc f04e 483b 45c5 b2bb 948b a7bd
000002f0: b2ff 263b c817 ca3c 05ea 69bd d346 15bd
00000300: f1f9 493c 2c1e 04bc caa7 2a3d 9eb9 173c
00000310: f6d6 85bc 4996 ce3c b7ad b4bc 0ea1 6bbd
00000320: a312 d4bc 80be fe3c 32bd c5bc bfee 763d
00000330: e818 853c 363a 473c d21d e63c 7f70 2abd
00000340: 4cf6 743a 3401 d0bc 9bb7 a53c a353 96bc
00000350: 4d1b 6fbc 28dd 8dbd 74e3 1a3d 04c6 96bc
00000360: 3223 bebd 91b1 fd39 380a 5bbc d558 c03c
00000370: 8085 dcbc bc31 77bd 6c3c 23bd f771 d03c
00000380: 38db 6e3b c5e9 0b3c bd8e ac3c 4a53 6c3c
00000390: b5e6 103d a024 17bb b1a3 403d f2d5 83bd
000003a0: ce82 7ebc c225 61bd d0b3 c0bc 1160 993b
000003b0: d57e cbbc 4e77 303d b730 3fbd b3cd 483d
000003c0: 5c4e 3cbc 642c cb3c c5df a0bd 7d86 3f3c
000003d0: 8c71 ad3b 3de9 12bd e960 81bd ccaa 503d
000003e0: 0f50 9dbd 0264 7cbd 3559 70bb c97c 993c
000003f0: 06ca 6fbc 1ef3 3c3d 7a12 933c c09d ee3c

action_model._discrete_distribution.branches.2.bias f4 [3]
0.0292005 -0.0009890485 -0.03041534
00000000: e335 ef3c f6a2 81ba 9729 f9bc

action_model._discrete_distribution.branches.2.weight f4 [3, 256]
-0.03016732 -0.023255505 -0.04175873 0.022945596 -0.0034118185 -0.021155404 0.0034585847 -0.047030568
0.034202494 -0.012435548 -0.025898965 0.031125925 0.056255825 -0.007280124 -0.0013474413 -0.0065277484
0.009722819 0.035559256 0.035381652 -0.0016930999 0.029909167 0.016239839 -0.0064113094 0.017172113
0.017622376 -0.06745508 -0.021855673 0.00048347202 -0.047307663 0.045176595 -0.050207548 0.062405165
-0.06344399 0.013365226 -0.037697192 0.00265736 -0.045739092 0.07295469 -0.00891278 0.009236723
0.030540982 0.028903581 0.02992338 0.0013675172 0.00036616126 -0.0032035476 -0.026609423 -0.012377145
0.040489085 0.048860002 -0.01038766 0.01600954 -0.0006147055 0.022602953 0.03754911 0.013687554
-0.013524156 -0.05328581 0.0138097545 -0.02614535 0.025890233 0.024007417 -0.065532446 -0.010069498
0.061447248 -0.039428312 0.02278534 0.016689112 -0.04120712 0.020312466 0.012980884 0.012079033
0.0035285847 -0.003822801 0.03017853 0.053270113 -0.035813473 0.065164894 -0.014212003 0.011975258
-0.0074871443 0.017705321 0.002860331 0.0024337664 0.0033065605 0.04334404 0.055425078 0.0042091967
-0.014187533 -0.043264247 0.020943692 -0.049309976 -0.035656158 0.027994253 -0.007091678 -0.03452599
0.022319673 0.033667084 0.02699372 -0.032509983 0.04584907 0.019450657 0.011737396 -0.016927088
-0.0037972564 0.0015657207 0.03488218 0.043696586 -0.07110486 -0.0764286 -0.0132617345 0.030568661
-0.006665662 0.021124411 0.010339298 0.0056682006 0.022262532 0.0069175297 -0.03051902 -0.011564237
0.0071512694 -0.04932557 0.004329369 -0.0065300427 0.0024995634 -0.015886933 0.04082289 -0.024426999
-0.020446878 0.01650262 0.022549303 -0.002166019 -0.013120807 0.009541489 0.00065129984 0.057524838
0.0074683307 0.02075303 0.014828733 0.03976605 -0.021608036 0.0067351917 0.023290051 0.003053568
-0.0045632324 -0.052516192 -0.0145134125 -0.0011715636 -0.03747125 -0.0027691182 -0.022435628 0.009914185
0.03756804 0.119148254 0.012131579 -0.027067138 0.014250777 0.03323833 0.035503596 0.034027535
0.028805291 -0.017199416 -0.04918375 0.02155867 -0.0026201515 -0.003428046 -0.013667884 0.10992157
-0.009081977 0.04966017 0.019199885 0.030528203 0.004397383 0.05528524 0.0038574087 0.011054983
0.04979044 -0.018293722 -0.018418068 0.039779417 0.026285894 0.042104803 -0.03584573 0.031817134
-0.007876968 0.05798389 -0.021727392 -0.004228664 -0.029898565 0.020355597 0.098181225 -0.042809986
-0.035627443 -0.045342483 -0.041286282 0.040437818 0.01962717 0.02913623 0.04859758 -0.042969644
0.020621408 0.049099322 -0.019878244 0.041894745 0.047283337 0.044404484 0.061468232 0.056869727
0.043768246 0.04678576 -0.04747729 -0.045798868 -0.01874173 -0.0030572608 0.040111486 0.009154857
-0.017462378 0.000739709 -0.044544198 -0.035957266 -0.009626448 0.02603737 0.0006435205 0.00651603
-0.020278268 0.03107425 -0.044194117 -0.033977896 0.010236317 -0.010416053 -0.043812342 0.04789325
-0.024845276 0.055799976 0.013225123 -0.028769456 -0.012498162 0.02463964 -0.011615701 -0.019486982
0.033850964 0.041426692 -0.031758625 -0.019229671 0.0018391836 -0.014980422 -0.0048119994 -0.0046962663
0.014358188 -0.062372647 -0.025619421 0.058250442 0.009807575 0.012535203 0.02512789 -0.06388217
00000000: 7521 f7bc 5482 bebc 340b 2bbd 67f8 bb3c
00000010: d198 5fbb 194e adbc 6ca9 623b 20a3 40bd
00000020: ea17 0c3d 78be 4bbc 112a d4bc ccfb fe3c
00000030: 826c 663d 1b8e eebb a19c b0ba b9e6 d5bb
00000040: 754c 1f3c 95a6 113d 5aec 103d 01eb ddba
00000050: 1204 f53c 6909 853c f615 d2bb 88ac 8c3c
00000060: cd5c 903c e425 8abd ab0a b3bc 847a fd39
00000070: aec5 41bd 180b 393d 6ea6 4dbd 8f9c 7f3d
00000080: ecee 81bd d2f9 5a3c 5f68 1abd 1a27 2e3b
00000090: ea58 3bbd 4569 953d e906 12bc a055 173c
000000a0: 1531 fa3c 34c7 ec3c e021 f53c 433e b33a
000000b0: 55f9 bf39 9cf2 51bb 01fc d9bc 82c9 4abc
000000c0: e2d7 253d 6d21 483d 0131 2abc 7026 833c
000000d0: 3024 21ba d429 b93c 18cd 193d c341 603c
000000e0: 6c94 5dbc 3942 5abd 4f42 623c c62e d6bc
000000f0: c117 d43c 34ab c43c e035 86bd 89fa 24bc
00000100: 1cb0 7b3d 957f 21bd 52a8 ba3c 9bb7 883c
00000110: ccc8 28bd 5466 a63c c6ad 543c 23e7 453c
00000120: d43f 673b f587 7abb f738 f73c c331 5a3d
00000130: 26b1 12bd 2c75 853d 76d9 68bc df33 443c
00000140: b856 f5bb c00a 913c 6474 3b3b d37f 1f3b
00000150: e1b2 583b 8589 313d 6805 633d 4ded 893b
00000160: d472 68bc da35 31bd 1b92 ab3c 42f9 49bd
00000170: 310c 12bd 3454 e53c 4f61 e8bb 206b 0dbd
00000180: bfd7 b63c 7fe6 093d ef21 dd3c 3029 05bd
00000190: 3ccc 3b3d fc56 9f3c 354e 403c adaa 8abc
000001a0: 64db 78bb de38 cd3a 9ee0 0e3d 31fb 323d
000001b0: 6d9f 91bd 9986 9cbd bf47 59bc 216b fa3c
000001c0: a06b dabb 1a0d ad3c 2966 293c 50bc b93b
000001d0: ea5f b63c 72ac e23b 0603 fabc ed77 3dbc
000001e0: 3255 ea3b 9c09 4abd 61dd 8d3b f8f9 d5bb
000001f0: b7cf 233b 5025 82bc e735 273d 211b c8bc
00000200: 3680 a7bc 8130 873c 51b9 b83c c5f3 0dbb
00000210: a7f8 56bc e853 1c3c febb 2a3a 2a9f 6b3d
00000220: e6b8 f43b 4202 aa3c 37f4 723c bae1 223d
00000230: 5603 b1bc e2b2 dc3b c7ca be3c 5f1e 483b
00000240: 2b87 95bb 381b 57bd aac9 6dbc 278f 99ba
00000250: 747b 19bd 187a 35bb ecca b7bc 1b6f 223c
00000260: f2e0 193d 0004 f43d 88c3 463c e7bb ddbc
00000270: 177c 693c ea24 083d 386c 113d 7560 0b3d
00000280: 13f9 eb3c cae5 8cbc e674 49bd cf9b b03c
00000290: d9b6 2bbb 11a9 60bb 43ef 5fbc 8f1e e13d
000002a0: 93cc 14bc 7668 4b3d 1449 9d3c 4816 fa3c
000002b0: ec17 903b c772 623d 94cc 7c3b f61f 353c
000002c0: 0ff1 4b3d b7dc 95bc 7de1 96bc beef 223d
000002d0: 8455 d73c 1676 2c3d f9d2 12bd af52 023d
000002e0: 660e 01bc 8480 6d3d a5fd b1bc 9b90 8abb
000002f0: d6ed f4bc c8c0 a63c 3d13 c93d 8659 2fbd
00000300: 15ee 11bd 0ab9 39bd ce1b 29bd 20a2 253d
00000310: 29c9 a03c 1aaf ee3c 420e 473d f000 30bd
00000320: 3aee a83c 5f1c 493d b3d7 a2bc d399 2b3d
00000330: 2cac 413d 7ae1 353d 1dc6 7b3d 3bf0 683d
00000340: 5546 333d 6da2 3f3d 8c77 42bd 9897 3bbd
00000350: 4288 99bc 535c 48bb f14b 243d 41fe 153c
00000360: 430d 8fbc 08e9 413a fa73 36bd ed47 13bd
00000370: 40b8 1dbc 534c d53c eeb1 283a 6c84 d53b
00000380: 9c1e a6bc 6d8f fe3c e404 35bd 682c 0bbd
00000390: 3ab6 273c 18a8 2abc 9274 33bd b62b 443d
000003a0: 5288 cbbc 848e 643d 30ae 583c ecad ebbc
000003b0: 17c5 4cbc 12d9 c93c c84f 3ebc 2aa3 9fbc
000003c0: 4fa7 0a3d 09af 293d 5515 02bd 8b87 9dbc
000003d0: c310 f13a 7270 75bc faad 9dbb 23e3 99bb
000003e0: 9b3e 6b3c 767a 7fbd d2df d1bc 0498 6e3d
000003f0: f3af 203c 7460 4d3c 01d9 cd3c a8d4 82bd

action_model._discrete_distribution.branches.3.bias f4 [2]
0.0016994772 -0.0016994515
00000000: fec0 de3a 21c0 deba

action_model._discrete_distribution.branches.3.weight f4 [2, 256]
-0.048571944 0.0019447526 0.028264077 -0.06459758 -0.046768975 -0.062219463 0.055693876 0.023293579
-0.035617277 0.0043573966 -0.05083391 -0.023847276 0.024048258 -0.031682502 0.044297274 -0.0022233936
-0.024486173 0.0048843147 -0.0010674987 -0.022629818 0.009927627 0.018660579 -0.006868519 -0.05741381
0.007669453 -0.012102771 -0.0008589072 -0.013204435 0.009306014 -0.041987218 0.024577593 0.030618917
-0.036484424 -0.027470578 -0.035879835 0.028908627 0.010085545 -0.0014467577 -0.026523069 -0.014005932
-0.054939438 -0.011736208 0.041843664 -0.0075025414 -0.03643118 0.03826354 -0.024151666 -0.052059654
0.021672713 -0.016418736 -0.04448471 0.02319935 0.018805308 0.0966261 0.0046457667 -0.0718929
-0.00872167 0.020162387 -0.03632662 0.030418256 -0.0020947608 -0.0071146647 0.03688109 -0.018711794
0.015173557 -0.0057448735 -0.00083022774 0.009540781 -0.011186054 0.005618365 -0.08655829 -0.053534843
0.022797305 -0.034469202 0.027257165 0.012930148 -0.017025845 -0.039161723 -0.008954682 0.06539976
0.018130517 0.013016432 -0.0054516317 -0.020512866 0.035541758 -0.032706868 -0.017466275 -0.028260892
-0.015413652 -0.017564239 0.0071524945 0.00027012188 -0.016713958 -0.049572222 -0.016692502 0.048140958
0.00041084812 -0.009183684 -0.006962468 -0.037333444 -0.01433321 -0.0037083803 0.0042630844 -0.015152884
0.046776798 -0.01403093 -0.020962 0.003311199 -0.0351512 -0.029745042 -0.0018109075 -0.023631684
-0.012107019 0.05953856 0.031518262 -0.029315697 0.025039842 0.0154846925 0.009190329 -0.029676434
0.035129078 -0.033157654 -0.041894037 0.017904015 -0.012536722 0.009955748 0.039016344 -0.0007751099
-0.0073648775 0.042649478 -0.0323548 0.017721597 -0.056745384 -0.047952726 0.013665395 -0.038828854
0.035833903 0.01909248 0.06005796 0.02054671 0.03771102 -0.042116705 0.026513252 -0.008309051
-0.0050076363 0.035183266 -0.008960814 -0.06259009 -0.041333776 0.05014963 -0.025354542 -0.029911142
0.00047938453 0.040812265 0.0034843867 -0.016582346 2.5461197e-05 -0.04528395 0.011943876 0.018024113
0.049828697 -0.019895496 -0.0051735677 -0.035605367 -0.04372336 0.041552775 -0.06573315 -0.018044388
-0.034705456 -0.038213458 0.010788737 -0.04874374 0.0039680754 -0.012640422 -0.028582219 -0.03464346
-0.005439401 -0.051846 -0.032650065 0.004209495 0.0035399082 0.008480632 -0.003978107 -0.007682894
-0.014116736 0.061719242 -0.022951405 -0.030097619 0.0052579073 0.04422548 -0.051549103 -0.00868999
-0.028880779 0.033116873 0.037579585 -0.0058508073 0.12963283 0.020963272 0.0036587631 -0.06951183
-0.0183483 -0.03508769 0.03749353 -0.033077553 0.010237829 0.026435886 -0.046030305 -0.0467759
0.05244373 0.055927243 -0.004281621 -0.017150637 -0.0027713946 -0.032643948 -0.04916108 0.0027718386
-0.016339548 0.042242475 -0.011126961 -0.0035944805 0.010341214 -0.013945031 0.047289345 0.016424645
-0.022539265 -0.01954863 -0.008363904 0.035190504 -0.017973999 -0.029555188 -0.03350334 -0.03803782
-0.015897365 -0.010774852 0.09089988 0.001740309 0.08445678 0.027728297 -0.003735314 -0.039211564
-0.037115794 0.015724776 0.021352477 -0.045127783 0.05146726 0.054921415 -0.0016656645 -0.05622169
-0.0061059366 -0.012045308 -0.05221151 0.0064923367 -0.037240878 0.07045957 0.06764005 0.05628338
00000000: 60f3 46bd 12e7 fe3a 118a e73c bc4b 84bd
00000010: d390 3fbd d6d9 7ebd 431f 643d 2dd2 be3c
00000020: 6ce3 11bd 7ec8 8e3b 3837 50bd 5d5b c3bc
00000030: da00 c53c 83c5 01bd 0f71 353d 5bb6 11bb
00000040: 3a97 c8bc 9a0c a03b 50eb 8bba 2b62 b9bc
00000050: 7ca7 223c 12de 983c 5011 e1bb be2a 6bbd
00000060: 0950 fb3b b34a 46bc 4928 61ba 6a57 58bc
00000070: 4078 183c cafa 2bbd f356 c93c 86d4 fa3c
00000080: b170 15bd fa09 e1bc bcf6 12bd c9d1 ec3c
00000090: d73d 253c 22a1 bdba e846 d9bc 2379 65bc
000000a0: 2d08 61bd 3949 40bc 4364 2b3d e1d7 f5bb
000000b0: dc38 15bd 3bba 1c3d b7d9 c5bc 813c 55bd
000000c0: f98a b13c 9680 86bc 9935 36bd 900c be3c
000000d0: 970d 9a3c e8e3 c53d 843b 983b 963c 93bd
000000e0: 56e5 0ebc 972b a53c 39cb 14bd b52f f93c
000000f0: 4148 09bb 2222 e9bb a010 173d 7a49 99bc
00000100: 839a 783c 7e3f bcbb a4a3 59ba f050 1c3c
00000110: b645 37bc 431a b83b 7945 b1bd 5a47 5bbd
00000120: 6ac1 ba3c 942f 0dbd 6b4a df3c f9d8 533c
00000130: c979 8bbc 0b68 20bd a9b6 12bc 4ff0 853d
00000140: 7386 943c df42 553c 9aa3 b2bb 990a a8bc
00000150: 3c94 113d a3f7 05bd 6f15 8fbc 6383 e7bc
00000160: 8b89 7cbc e1e2 8fbc 795f ea3b 259f 8d39
00000170: b6eb 88bc 3e0c 4bbd b7be 88bc 742f 453d
00000180: 1a67 d739 2a77 16bc 6a25 e4bb f4ea 18bd
00000190: d7d5 6abc 4c08 73bb 58b1 8b3b cd43 78bc
000001a0: 0799 3f3d fce1 65bc 80b8 abbc b300 593b
000001b0: b4fa 0fbd e0ab f3bc f95b edba 3c97 c1bc
000001c0: 855c 46bc b5de 733d 4b19 013d 7927 f0bc
000001d0: 5b20 cd3c 82b3 7d3c 0993 163c fe1b f3bc
000001e0: 82e3 0f3d 52d0 07bd 1599 2bbd 71ab 923c
000001f0: d366 4dbc 6f1d 233c 9acf 1f3d bf30 4bba
00000200: 1255 f1bb 38b1 2e3d 7786 04bd e22c 913c
00000210: d96d 68bd 146a 44bd d2e4 5f3c 010b 1fbd
00000220: 92c6 123d d567 9c3c 56ff 753d 9351 a83c
00000230: df76 1a3d 9182 2cbd 5232 d93c b022 08bc
00000240: 1917 a4bb 541c 103d 61d0 12bc 3c2f 80bd
00000250: 9b4d 29bd b369 4d3d 54b4 cfbc 3608 f5bc
00000260: e755 fb39 c32a 273d 4f5a 643b b3d7 87bc
00000270: 8195 d537 aa7b 39bd 3fb0 433c 4ea7 933c
00000280: 2d19 4c3d e1fb a2bc 0887 a9bb efd6 11bd
00000290: 4417 33bd 3e33 2a3d 1a9f 86bd d3d1 93bc
000002a0: 4f27 0ebd b785 1cbd 3ec3 303c 84a7 47bd
000002b0: a106 823b c619 4fbc 4225 eabc 4de6 0dbd
000002c0: 013d b2bb 795c 54bd 13bc 05bd ceef 893b
000002d0: cefd 673b 59f2 0a3c c85a 82bb c9c0 fbbb
000002e0: e249 67bc 51cd 7c3d 9604 bcbc 488f f6bc
000002f0: 864a ac3b c725 353d 2725 53bd 7660 0ebc
00000300: 6297 ecbc 8fa5 073d 0ded 193d 21b8 bfbb
00000310: 78be 043e 2bbb ab3c dcc7 6f3b 385c 8ebd
00000320: 2d4f 96bc 1cb8 0fbd d192 193d 547c 07bd
00000330: 91bc 273c 1290 d83c 468a 3cbd 1698 3fbd
00000340: 3dcf 563d f713 653d d74c 8cbb 7e7f 8cbc
00000350: 49a0 35bb a9b5 05bd 215d 49bd bca7 353b
00000360: 84da 85bc 7206 2d3d db4d 36bc 6091 6bbb
00000370: 326e 293c b379 64bc 79b2 413d fa8c 863c
00000380: 44a4 b8bc 7324 a0bc c208 09bc eb23 103d
00000390: 353e 93bc b91d f2bc cc3a 09bd 8ccd 1bbd
000003a0: 313b 82bc 0189 30bc b729 ba3d 141b e43a
000003b0: adf7 ac3d 7426 e33c 2bcc 74bb 4e9c 20bd
000003c0: bb06 18bd 3fd1 803c 64eb ae3c e9d7 38bd
000003d0: 55cf 523d 47f5 603d 6d52 daba b748 66bd
000003e0: 4f14 c8bb af59 45bc bcdb 55bd abbd d43b
000003f0: e489 18bd 1b4d 903d de86 8a3d 6789 663d

discrete_action_output_shape f4 [1, 4]
3.0 3.0 3.0 2.0
00000000: 0000 4040 0000 4040 0000 4040 0000 0040

network_body._body_endoder.seq_layers.0.bias f4 [256]
0.019002922 0.08986175 0.13647944 -0.08266254 0.0071824584 0.13910283 0.02888892 -0.14171183
-0.106463015 0.17373185 0.104206264 -0.014499154 -0.026851663 0.12950633 0.06381833 -0.031995457
-0.0108071165 0.036140885 -0.04826504 0.008146899 0.029161572 -0.07255772 0.04272736 0.07526707
-0.040122923 -0.04162068 0.027360199 0.03515941 0.07707221 -0.11756226 -0.00691738 0.07802891
-0.02309247 0.060105972 -0.0048712427 0.018707428 0.2253845 -0.04615082 0.13454844 -0.13855426
0.0027534035 -0.072062545 0.045635335 0.17366742 0.02332379 0.10357932 -0.015569559 0.045192197
-0.02793241 0.14195122 -0.08785839 -0.026450988 0.031533357 -0.0018795172 0.025600292 -0.017280499
-0.034052547 0.0033580645 0.022487829 0.034291662 -0.05683555 0.07736918 0.084846154 0.22104618
-0.0006115899 0.018955892 -0.047095843 -0.014294539 -0.029881222 -0.059611946 0.10648782 0.17303471
0.17637144 0.06924575 -0.019597458 0.07867803 0.017389424 0.11912954 -0.06965631 -0.049073502
0.003146841 -0.0053897183 -0.0427563 -0.068631634 -0.047716253 0.025138857 -0.087385856 -0.010522789
-0.0017672324 0.12400359 -0.057770513 -0.07148925 0.19126394 0.0974915 0.015950497 0.17734806
0.15202378 0.10850143 0.13055962 -0.089652166 0.022766136 0.077426925 0.028276773 0.005857845
0.17568682 -0.051590312 0.05238584 -0.015653957 -0.016585626 -0.027067732 0.15407775 0.061729733
0.09023452 0.04238536 0.12556589 0.015278332 -0.00785361 -0.028625429 -0.017440224 0.034926794
0.023438811 0.15438324 0.10628121 0.0577441 -0.026984252 0.053783584 0.08180595 0.021301119
0.15728256 -0.06436541 0.10081103 0.025804196 0.00027429243 -0.060628407 -0.00017526987 -0.04666774
-0.055359006 0.018054485 0.068017796 -0.02764534 0.0023574436 0.053562425 0.039013274 0.0007350296
-0.06747705 0.12860712 0.13731408 0.22096035 0.0900371 -0.009280854 -0.03496285 0.039555676
-0.03848274 0.00257934 0.06280754 -0.021291506 0.06468162 0.13572578 0.01430195 -0.026413752
0.16812415 -0.07343119 0.034642033 0.105210096 0.026989235 0.093238555 -0.035092346 0.035207707
0.005751579 0.04028617 0.07165082 0.10928527 -0.0356142 -0.10745552 0.01668338 0.07694005
0.14502908 0.0025492837 -0.052159507 0.16973168 0.048702266 -0.036301877 -0.050934892 0.0016623123
0.070002645 0.042547435 0.019599747 -0.015152301 -0.08348071 0.09916347 0.06264101 -0.0139914295
-0.004675194 -0.051081564 0.06942952 0.053867422 0.14296907 0.065932326 0.17549399 -0.0007495739
-0.018979186 -0.047480263 0.044268407 -0.024324631 -0.04758563 0.097777635 0.07687655 0.0072398502
-0.026107425 0.11498207 -0.021280974 -0.027807182 -0.0455667 0.107152134 0.04812326 0.062531084
0.04313306 0.03414133 -0.0040772967 -0.10524891 -0.006069501 0.16747649 -0.036186446 0.017965103
0.07041954 0.14094862 -0.08791719 0.05873031 0.02174661 0.03668239 0.16271277 0.20638882
-0.09621929 -0.048427552 0.2663856 0.013006962 0.06808455 0.04536214 0.08545232 -0.0041897073
-0.026498595 -0.008028736 -0.0916077 0.04057858 0.039464682 -0.045493 0.13111128 0.09133128
0.036879513 0.079251416 -0.08342164 -0.028586494 0.031736434 -0.04584014 0.019451872 0.07655995
00000000: 04ac 9b3c 7009 b83d 44c1 0b3e fa4a a9bd
00000010: d45a eb3b f970 0e3e 75a8 ec3c e81c 11be
00000020: 4809 dabd c3e6 313e 186a d53d dc8d 6dbc
00000030: 05f8 dbbc 4f9d 043e 2fb3 823d ab0d 03bd
00000040: 5510 31bc 7708 143d 90b1 45bd 927a 053c
00000050: 40e4 ee3c 2499 94bd e202 2f3d 9f25 9a3d
00000060: ef57 24bd 727a 2abd 7f22 e03c 5003 103d
00000070: 09d8 9d3d 7bc4 f0bd 30ab e2bb 9fcd 9f3d
00000080: 6b2c bdbc ae31 763d f29e 9fbb 5240 993c
00000090: 32cb 663e a408 3dbd 11c7 093e 2be1 0dbe
000000a0: 7272 343b 8795 93bd 1eec 3a3d dfd5 313e
000000b0: 8811 bf3c 6521 d43d 7717 7fbc 741b 393d
000000c0: 82d2 e4bc a95b 113e 19ef b3bd beaf d8bc
000000d0: 1f29 013d 225a f6ba b4b7 d13c d58f 8dbc
000000e0: af7a 0bbd f912 5c3b 6538 b83c 6a75 0c3d
000000f0: 65cc 68bd bc73 9e3d d2c3 ad3d ee59 623e
00000100: 1a53 20ba 6349 9b3c 92e7 40bd a433 6abc
00000110: 77c9 f4bc a82b 74bd 4916 da3d 0330 313e
00000120: b79a 343e b7d0 8d3d d98a a0bc f221 a13d
00000130: 4474 8e3c 30fa f33d f8a7 8ebd 4c01 49bd
00000140: 3b3b 4e3b 3c9c b0bb 3b21 2fbd be8e 8cbd
00000150: 1e72 43bd 01f0 cd3c 5bf7 b2bd c767 2cbc
00000160: 7ba2 e7ba 98f5 fd3d c6a0 6cbd f568 92bd
00000170: b2da 433e a0a9 c73d 9eaa 823c bb9a 353e
00000180: 1fac 1b3e ff35 de3d 6cb1 053e 8e9b b7bd
00000190: 0c80 ba3c 0292 9e3d b1a4 e73c 2af3 bf3b
000001a0: 3fe7 333e 5d50 53bd 8992 563d ba3c 80bc
000001b0: 94de 87bc 26bd ddbc 8fc6 1d3e 51d8 7c3d
000001c0: e0cc b83d 459c 2d3d 5894 003e f851 7a3c
000001d0: 6eac 00bc e07f eabc cdde 8ebc 660f 0f3d
000001e0: c002 c03c a416 1e3e f7a9 d93d 1485 6c3d
000001f0: 140e ddbc 2d4c 5c3d e189 a73d af7f ae3c
00000200: ae0e 213e 03d2 83bd 0376 ce3d 5263 d33c
00000210: e8ce 8f39 7e55 78bd a6c8 37b9 ac26 3fbd
00000220: 20c0 62bd 00e7 933c ea4c 8b3d 7b78 e2bc
00000230: 577f 1a3b 4664 5b3d 62cc 1f3d 00af 403a
00000240: 6831 8abd 96b1 033e 109c 0c3e 6e43 623e
00000250: 5f65 b83d b90e 18bc 3535 0fbd 2205 223d
00000260: 14a0 1dbd 250a 293b 3da1 803d 866b aebc
00000270: cc77 843d b3fb 0a3e ba52 6a3c a761 d8bc
00000280: bd28 2c3e 1763 96bd cee4 0d3d 6478 d73d
00000290: 8718 dd3c dbf3 be3d febc 0fbd f535 103d
000002a0: be77 bc3b 1c03 253d aabd 923d f5d0 df3d
000002b0: 32e0 11bd a411 dcbd 95ab 883c bf92 9d3d
000002c0: 8182 143e e211 273b 35a5 55bd 24ce 2d3e
000002d0: 077c 473d 47b1 14bd 1ba1 50bd f2e1 d93a
000002e0: 8c5d 8f3d 3846 2e3d a68f a03c 5b41 78bc
000002f0: eff7 aabd 3816 cb3d ee49 803d 4f3c 65bc
00000300: 5f32 99bb e73a 51bd 1031 8e3d 16a4 5c3d
00000310: 7c66 123e 8707 873d b2b4 333e 0e7f 44ba
00000320: 3d7a 9bbc aa7a 42bd ca52 353d 7344 c7bc
00000330: 26e9 42bd a43f c83d 7471 9d3d 443c ed3b
00000340: 3ddf d5bc b87b eb3d 7055 aebc e3cb e3bc
00000350: 26a4 3abd 9472 db3d e51c 453d 4c10 803d
00000360: 4bac 303d c7d7 0b3d d89a 85bb be8c d7bd
00000370: aae2 c6bb f57e 2b3e 3d38 14bd 8d2b 933c
00000380: 1f38 903d d654 103e ed0d b4bd 328f 703d
00000390: f225 b23c 4640 163d 2d9e 263e 9757 533e
000003a0: 9e0e c5bd f85b 46bd b263 883e 271b 553c
000003b0: ea6f 8b3d a7cd 393d a001 af3d d049 89bb
000003c0: 9513 d9bc f68a 03bc d19c bbbd ba35 263d
000003d0: b8a5 213d de56 3abd 0942 063e e50b bb3d
000003e0: f90e 173d 914e a23d f7d8 aabd 392e eabc
000003f0: 10fe 013d dfc2 3bbd 8859 9f3c 77cb 9c3d

network_body._body_endoder.seq_layers.0.weight f4 [256, 8]
0.08560187 -0.40152508 -0.05980058 -0.49826592 -0.27029958 -0.2164468 0.18046 0.028548114
0.328771 -0.24234928 0.13727212 -0.70412374 -0.12515123 -0.0939579 -0.8052006 -0.42104578
0.46555167 -0.7051419 0.57605696 -0.15362075 0.23985513 -0.3124325 0.20202142 -0.04952877
0.1267502 -0.64720446 -0.98753214 0.24277963 0.0046279235 0.08851492 -0.3283747 -0.36933395
0.3920344 0.37270752 0.057475515 0.31828773 0.21398173 -0.39826563 -0.10114171 0.007549682
0.43488252 0.15813331 0.11410786 -0.33622366 0.54255855 -0.096688904 -0.569975 0.49413913
0.07363676 -0.26981553 -0.32766628 -0.6818546 -0.60859966 0.32010224 -0.708595 -0.36916125
0.0799202 0.09321951 -0.31306574 -0.14824933 -0.41019347 0.027579283 -0.104830965 -0.023289185
-0.13412137 -0.25410306 -0.17457901 0.017792385 0.09073363 -0.57559884 -0.39587787 -0.0640073
-0.1458806 -0.6554688 1.0450828 0.12782803 -0.055267807 -0.008994056 0.4739326 -0.60505563
-0.12610416 0.21326502 0.2019827 -0.30196613 -0.052001525 -0.15987824 -0.3961206 -0.033619616
0.13503185 0.45861405 -0.08619295 0.48806065 0.021746503 0.23280482 -0.2594765 -0.0826041
0.26021382 0.56269115 -0.4325164 -0.1464648 0.015860487 0.31017664 0.2626854 -0.11143722
0.15329759 -0.24852197 0.59469914 -0.14678568 -0.5249162 -0.09097464 -0.5240175 -0.15600358
-0.124679945 -0.44620502 -0.104227394 -0.69842917 0.058984045 0.37420693 -0.065088 -0.15896073
-0.38770854 -0.095036894 0.13653778 0.4608946 -0.39962637 -0.38817757 -0.30253953 0.12748522
0.8233075 0.21665674 -0.020359766 0.046987396 0.17826426 0.32197145 0.12415724 -0.29993308
-0.33183578 -0.46113682 0.09332618 -0.42792967 0.19813898 -0.20054436 0.32930627 -0.26927185
-0.03376024 -0.098599665 -0.22487299 0.46916926 -0.3323279 -0.4146246 -0.0640433 0.1797094
0.19862235 0.061463073 -0.4687506 -0.47252014 0.46965057 0.2887867 0.18009654 0.04190251
0.40566695 0.074015595 -0.61282647 -0.36641312 0.753639 0.18641523 0.41198885 0.3559328
-0.61152405 -0.008338285 -0.4654528 -0.123890616 -0.3695313 0.5219286 -0.045252275 -0.21256469
0.2614015 0.5443684 0.33315971 0.25875327 -0.23689696 -0.13623236 0.039474882 -0.19116752
0.3253303 0.34580117 -0.008323114 0.38357332 0.23907961 0.24441357 0.42492038 0.5572953
-0.3613691 -0.33986804 0.15678081 0.36569077 -0.080560654 -0.6824438 0.42983362 -0.68022007
-0.24598949 -0.548456 -0.28253004 0.09211168 -0.33290505 -0.11644138 0.32803056 -0.7174241
0.31460637 -0.29057425 0.3482326 0.06555376 -0.6424214 0.47050017 0.7691601 -0.21115825
1.1496527 -0.23388107 -0.09202494 -0.345948 -0.04380984 -0.36810675 0.46661267 -0.36142635
-0.103671744 0.610647 0.67869794 -0.6988965 -0.009199823 0.10945469 0.2824821 0.3251159
-0.19403817 0.15392369 -0.6012667 -0.38400388 -0.22985722 0.13383771 -0.24354978 -0.26710245
0.021515165 -0.1551338 -0.1953513 -0.21935977 0.39693242 0.3017776 0.15115397 -0.43680704
0.6830249 0.35426015 0.64847124 -0.35912126 -0.42687866 -0.26940346 0.33826932 -0.357156
00000000: 0950 af3d b294 cdbe 74f1 74bd b61c ffbe
00000010: b564 8abe 3ba4 5dbe 82ca 383e bcdd e93c
00000020: ac54 a83e 692a 78be 1091 0c3e 7441 34bf
00000030: a527 00be 006d c0bd a021 4ebf 5093 d7be
00000040: ca5c ee3e 2e84 34bf 7878 133f c24e 1dbe
00000050: 959c 753e 27f7 9fbe b4de 4e3e aede 4abd
00000060: ceca 013e 31af 25bf e8ce 7cbf 399b 783e
00000070: d6a5 973b 4f47 b53d bb20 a8be 5719 bdbe
00000080: bcb8 c83e 85d3 be3e 726b 6b3d 9cf6 a23e
00000090: 071e 5b3e 79e9 cbbe 6323 cfbd 5363 f73b
000000a0: eca8 de3e b3ed 213e 62b1 e93d 8225 acbe
000000b0: 1ee5 0a3f d504 c6bd e2e9 11bf ceff fc3e
000000c0: dfce 963d 4325 8abe e0c3 a7be 068e 2ebf
000000d0: 30cd 1bbf 71e4 a33e 7b66 35bf b402 bdbe
000000e0: 34ad a33d dfe9 be3d 274a a0be acce 17be
000000f0: e104 d2be f3ed e13c 9eb1 d6bd f6c8 bebc
00000100: 1d57 09be cc19 82be d7c4 32be 56c1 913c
00000110: 8ed2 b93d 725a 13bf 81b0 cabe 4216 83bd
00000120: b961 15be cecc 27bf 46c5 853f 5ae5 023e
00000130: 7f60 62bd ce5b 13bc 4ba7 f23e ede4 1abf
00000140: 7321 01be 2562 5a3e 8ed4 4e3e 4e9b 9abe
00000150: 8dff 54bd 1fb7 23be 52d0 cabe b9b4 09bd
00000160: ca45 0a3e 76cf ea3e ee85 b0bd 16e3 f93e
00000170: b925 b23c 6364 6e3e 1bda 84be 572c a9bd
00000180: bf3a 853e 870c 103f ca72 ddbe defa 15be
00000190: daed 813c 79cf 9e3e b37e 863e 3239 e4bd
000001a0: 0bfa 1c3e 8b7c 7ebe 343e 183f fc4e 16be
000001b0: e860 06bf e950 babd 0326 06bf 67bf 1fbe
000001c0: 3358 ffbd fc74 e4be 2c75 d5bd 41cc 32bf
000001d0: 4199 713d 0d98 bf3e db4c 85bd 9ac6 22be
000001e0: bc81 c6be b4a2 c2bd 8fd0 0b3e 61fa eb3e
000001f0: d49b ccbe 36bf c6be 76e6 9abe 7c8b 023e
00000200: 48c4 523f 44db 5d3e 86c9 a6bc db75 403d
00000210: e88a 363e 71d9 a43e 2746 fe3d d490 99be
00000220: 61e6 a9be 201a ecbe cc21 bf3d 9919 dbbe
00000230: f2e4 4a3e 805b 4dbe d59a a83e 00de 89be
00000240: 2d48 0abd 9fee c9bd 1b45 66be f436 f03e
00000250: e226 aabe ad49 d4be 2229 83bd be05 383e
00000260: a863 4b3e b4c0 7b3d 1400 f0be 29ee f1be
00000270: 0a76 f03e dadb 933e 3a6b 383e f7a1 2b3d
00000280: 94b3 cf3e 7d95 973d 32e2 1cbf 809a bbbe
00000290: 7cee 403f a2e3 3e3e 34f0 d23e d33c b63e
000002a0: d78c 1cbf 4d9d 08bc d44f eebe 5dba fdbd
000002b0: 3533 bdbe 1d9d 053f 735a 39bd 8faa 59be
000002c0: 6bd6 853e ba5b 0b3f e993 aa3e 4f7b 843e
000002d0: 1e95 72be 7f80 0bbe 6ab0 213d 6bc1 43be
000002e0: b191 a63e da0c b13e ac5d 08bc b963 c43e
000002f0: 49d1 743e 8d47 7a3e 2a8f d93e e8aa 0e3f
00000300: 5f05 b9be 2f03 aebe 268b 203e d23b bb3e
00000310: fcfc a4bd a3b4 2ebf 2713 dc3e e722 2ebf
00000320: abe4 7bbe 9d67 0cbf c7a7 90be 0ca5 bc3d
00000330: 8872 aabe d178 eebd 9ff3 a73e 1ba9 37bf
00000340: 1614 a13e 26c6 94be 8b4b b23e 0d41 863d
00000350: bb75 24bf 66e5 f03e ade7 443f de39 58be
00000360: d227 933f 857e 6fbe 9277 bcbd 1920 b1be
00000370: f271 33bd 7d78 bcbe dbe7 ee3e e00c b9be
00000380: da51 d4bd 5d53 1c3f 26bf 2d3f e2ea 32bf
00000390: dbba 16bc c829 e03d 7ea1 903e 9775 a63e
000003a0: f1b1 46be 2c9e 1d3e 9dec 19bf 289c c4be
000003b0: b15f 6bbe c10c 093e 1d65 79be a7c1 88be
000003c0: 9240 b03c 65db 1ebe 2c0a 48be d99f 60be
000003d0: ba3a cb3e 9882 9a3e 1bc8 1a3e 2ca5 dfbe
000003e0: b8da 2e3f 9661 b53e 3602 263f bede b7be
000003f0: d78f dabe 40ef 89be a331 ad3e 27dd b6be

network_body._body_endoder.seq_layers.2.bias f4 [256]
-0.061932757 -0.025499232 -0.06458954 -0.032499347 -0.0015748576 0.029240536 0.008463265 -0.058439746
-0.06483002 -0.021852426 0.015094799 -0.04335379 0.016083498 -0.02050544 -0.034470674 0.0021057138
-0.07630199 -0.010649537 -0.040151257 -0.032100525 0.04889155 0.013722159 -0.018462347 0.010173339
-0.0081730075 -0.02252402 -0.04847087 -0.045940265 -0.017901206 -0.024503987 -0.010805722 -0.047791697
-0.03305569 -0.0020321342 -0.039163586 0.024571406 -0.05974784 0.058400963 -0.039369784 -0.030369118
-0.056774247 -0.01591851 -0.06411687 -0.017395897 -0.030604392 -0.017179435 -0.0018849516 0.014754999
-0.039088942 -0.042611044 0.06677736 0.012831203 -0.030820461 0.049898997 0.045540154 0.026900902
-0.012043954 -0.056527786 -0.038387198 -0.0052668885 0.0025493037 -0.0093321195 -0.035360284 -0.04034345
0.0011293059 -0.046050426 -0.005521487 -0.029803738 -0.040267896 -0.02415005 -0.00548115 -0.010164636
0.019646691 -0.06633372 -0.061669894 0.009999493 -0.019793527 -0.06482499 -0.039432492 0.04653478
-0.01155719 0.0024963627 0.010829676 0.006951363 -0.019045435 -0.017000863 0.05092913 -0.008878097
-0.01473379 0.0021762538 -0.038802903 -0.042381503 -0.0393703 -0.0018153803 -0.03968961 -0.05878751
-0.050401084 -0.025391405 -0.033583026 -0.06323626 -0.054719675 -0.09420065 -0.062296566 -0.045514643
-0.029209139 0.017093144 0.06297551 -0.03355219 -0.05984975 0.008916249 -0.05174735 -0.03144075
0.015993917 0.030834017 -0.037531335 0.014972297 0.00087657786 -0.054169457 -0.05449889 -0.07899059
-0.051986504 -0.035270475 -0.09281982 -0.0128272595 -0.025709365 -0.03932578 -0.037157077 0.016516462
-0.029731654 -0.033552874 0.0033615537 -0.012802666 -0.06559295 0.03384988 -0.023178658 -0.037656203
-0.03340594 -0.052746855 0.017254109 0.010494294 0.013555449 0.0224709 0.008711778 -0.022272846
-0.053890232 0.04697311 -0.035064407 -0.02104209 0.033428438 -0.03140592 -0.04309838 0.059629973
-0.0013239805 -0.05150749 -0.06306086 0.06487481 -0.019770598 0.0002737629 -0.057895876 -0.035732873
0.00070619414 -0.029956574 -0.06565559 0.04914659 -0.025453849 0.037658643 0.014870493 0.017481124
-0.025415912 -0.014399728 0.02661715 -0.04325203 0.04485668 -0.07006038 0.0579802 -0.0123964865
0.021071354 -0.05637145 0.035548773 -0.05373036 0.009957864 -0.077490866 -0.030126179 -0.0005050886
-0.021596398 0.07631152 -0.060599875 -0.05884602 -0.052615225 0.015458418 0.05234631 -0.05215391
-0.051060744 -0.0059393803 -0.029276052 -0.06497902 0.08036079 -0.03170358 -0.080126606 -0.05153196
0.00603044 0.06300438 -0.066009015 -0.007821042 0.024588225 -0.014823535 -0.026282296 -0.056269616
0.011695022 0.025702707 -0.07164568 -0.0718355 -0.08431331 -0.04572266 0.068359554 0.0077657364
-0.06497902 -0.01622292 -0.04680045 -0.04740949 -0.015679654 -0.050656464 0.0006553608 -0.02171239
-0.015698997 -0.008006192 -0.067479745 -0.043133643 -0.019382099 0.005339799 0.007087006 0.0077815866
0.023439642 -0.037674487 -0.034607876 -0.04241799 -0.0066976813 0.012010246 -0.066872604 -0.02735576
0.07925093 -0.046151266 -0.05444842 -0.024166944 0.031710632 -0.08475335 -0.019039555 -0.022984646
-0.053865075 -0.07755519 -0.0765073 -0.040747933 -0.04479078 -0.026932998 0.009574891 0.05790908
00000000: 34ad 7dbd c4e3 d0bc 8547 84bd 091e 05bd
00000010: 746b ceba d989 ef3c 82a9 0a3c 845e 6fbd
00000020: 9ac5 84bd dc03 b3bc 2d50 773c be93 31bd
00000030: 8ac1 833c 06fb a7bc 1f31 0dbd 0400 0a3b
00000040: 3844 9cbd 657b 2ebc a575 24bd d77b 03bd
00000050: 8242 483d e8d2 603c 593e 97bc 14ae 263c
00000060: 14e8 05bc 4b84 b8bc 6489 46bd dc2b 3cbd
00000070: 8da5 92bc 96bc c8bc 7c0a 31bc 3ac1 43bd
00000080: 6765 07bd 8e2d 05bb ff69 20bd f949 c93c
00000090: 27ba 74bd d935 6f3d 3642 21bd a8c8 f8bc
000000a0: 1d8c 68bd 8967 82bc b54f 83bd d781 8ebc
000000b0: 10b6 fabc e3bb 8cbc 7b10 f7ba f4be 713c
000000c0: ba1b 20bd eb88 2ebd 92c2 883d f739 523c
000000d0: 317b fcbc e462 4c3d 5088 3a3d 485f dc3c
000000e0: 0154 45bc ae89 67bd e53b 1dbd dd95 acbb
000000f0: 3812 273b bfe5 18bc f2d5 10bd 2c3f 25bd
00000100: 3805 943a 5f9f 3cbd 97ed b4bb f826 f4bc
00000110: f3ef 24bd 53d6 c5bc 389b b3bb 9389 26bc
00000120: 19f2 a03c f9d9 87bd 9299 7cbd ead4 233c
00000130: 0926 a2bc f7c2 84bd f783 21bd 419b 3e3d
00000140: 5e5a 3dbc 049a 233b f46e 313c 42c8 e33b
00000150: 2c05 9cbc 6545 8bbc 109b 503d 7075 11bc
00000160: ff65 71bc 7b9f 0e3b cbef 1ebd 3a98 2dbd
00000170: c042 21bd 0ef2 edba 9391 22bd 2ccb 70bd
00000180: 5e71 4ebd a301 d0bc 5b8e 09bd 0382 81bd
00000190: bd21 60bd 45ec c0bd af2a 7fbd 906d 3abd
000001a0: 0148 efbc ec06 8c3c 4ef9 803d 056e 09bd
000001b0: 0325 75bd 7515 123c 07f5 53bd 04c8 00bd
000001c0: ad05 833c 9f97 fc3c 75ba 19bd 5d4e 753c
000001d0: 25ca 653a cbe0 5dbd 3a3a 5fbd d2c5 a1bd
000001e0: cdef 54bd c677 10bd 5118 bebd 6d29 52bc
000001f0: 729c d2bc 1214 21bd 0532 18bd 884d 873c
00000200: cc8f f3bc bd6e 09bd 834d 5c3b 46c2 51bc
00000210: 9955 86bd 2ca6 0a3d 2be1 bdbc 643d 1abd
00000220: abd4 08bd 160d 58bd 7d58 8d3c 42f0 2b3c
00000230: ad17 5e3c e514 b83c d8bb 0e3c 8b75 b6bc
00000240: 01bc 5cbd e066 403d b29f 0fbd 7660 acbc
00000250: 42ec 083d 7ea3 00bd ed87 30bd 8f3e 743d
00000260: 6a89 adba 85f9 52bd 0d26 81bd 16dd 843d
00000270: f3f5 a1bc d687 8f39 3a24 6dbd a25c 12bd
00000280: e31f 393a 7d67 f5bc 7076 86bd ef4d 493d
00000290: 9784 d0bc f33f 1a3d 5ea3 733c 9334 8f3c
000002a0: 0835 d0bc d6ec 6bbc 360c da3c 0a29 31bd
000002b0: a3bb 373d d17b 8fbd a57c 6d3d a21a 4bbc
000002c0: d59d ac3c c0e5 66bd 979b 113d 5e14 5cbd
000002d0: 4f26 233c 88b3 9ebd 2dcb f6bc ec67 04ba
000002e0: eeea b0bc 3749 9c3d 9337 78bd 8608 71bd
000002f0: 1083 57bd 4e45 7d3c 1669 563d 579f 55bd
00000300: 1225 51bd 229f c2bb 55d4 efbc b813 85bd
00000310: 3394 a43d 9ddb 01bd 6b19 a4bd 2d13 53bd
00000320: ff9a c53b 7108 813d bc2f 87bd d423 00bc
00000330: 3f6d c93c 6ade 72bc f84d d7bc f87a 66bd
00000340: 7a9c 3f3c 7c8e d23c f8ba 92bd 7e1e 93bd
00000350: 75ac acbd af47 3bbd 1800 8c3d b877 fe3b
00000360: b813 85bd eee5 84bc d4b1 3fbd 7430 42bd
00000370: 9e72 80bc 277d 4fbd 85cc 2b3a 2fde b1bc
00000380: 2f9b 80bc 672c 03bc d232 8abd e7ac 30bd
00000390: 35c7 9ebc 7bf9 ae3b 1d3a e83b aefc fe3b
000003a0: 7e04 c03c 9050 1abd fdc0 0dbd 7cbe 2dbd
000003b0: 3978 dbbb 9fc6 443c 81f4 88bd 3019 e0bc
000003c0: 504e a23d 1c09 3dbd 4e05 5fbd c1f9 c5bc
000003d0: 02e3 013d 2a93 adbd d7f8 9bbc 4c4a bcbc
000003e0: a0a1 5cbd 41d5 9ebd dcaf 9cbd 4ee7 26bd
000003f0: 8976 37bd 97a2 dcbc 01e0 1c3c 1232 6d3d
